model/epoch_119.pt (torch, 65657 bytes, 15 tensors)

weight f4 [64, 1, 5, 5]
000000 09 25 32 3e 2d 99 f0 bb e1 83 f7 3a 8d 47 95 3d
       0.1739694 -0.0073424787 0.0018883907 0.07289038
000010 86 ea 71 be 3f 97 67 3d f4 75 66 3e f4 83 cf bd
       -0.2362462 0.056540724 0.22505933 -0.1013259
000020 4a 65 aa bd 03 04 d6 3e 78 73 e1 bd 1e f0 c1 3d
       -0.083201006 0.41799936 -0.11008352 0.09469627
000030 b2 65 8b 3d 6a a7 31 3e 5b b8 61 be e2 ad 9b 3e
       0.06806506 0.1734902 -0.22042982 0.304061
000040 70 cf fa 3d 48 d7 00 be f4 bb 3c be ab 1a 0f bd
       0.12246597 -0.12582123 -0.18431073 -0.034937542
000050 f9 f5 7b 3e a0 f2 00 3e d0 90 7c bc ef c2 ad 3e
       0.2460555 0.12592554 -0.015415385 0.33937785
000060 0a 9e c0 be eb c3 24 be 0e 5a bd 3d eb 54 15 bd
       -0.37620574 -0.16090362 0.09245692 -0.036457937
000070 7b ab 69 3d d9 87 4a 3e d7 a3 08 3e f7 e5 a1 bd
       0.057048302 0.19778384 0.1334375 -0.079051904
000080 85 10 12 be de 93 3e 3e 11 39 a5 be 6d df b1 bc
       -0.14264114 0.18611094 -0.322701 -0.021712983
000090 fc 97 27 3e dc 26 7d bd 09 12 ce 3d b5 3a b0 3d
       0.16366571 -0.061804637 0.10062034 0.086049475
0000a0 e0 25 63 bd 7b 80 58 3e 2f 19 a6 3d b7 ec b2 3c
       -0.055456042 0.21142761 0.08110272 0.02184139
0000b0 88 02 e5 3d 1a 29 3e 3b d7 77 0e be b7 56 65 3d
       0.111821234 0.0029016198 -0.13912903 0.0559909
0000c0 12 06 6c be e6 12 80 3e a2 e8 cf bd 03 3c 84 3d
       -0.2304919 0.25014418 -0.10151793 0.06456759
0000d0 d8 f3 0d 3e d3 5d 49 bd 24 6f 29 3e 2f 3b 89 3c
       0.1386255 -0.049161743 0.16546303 0.016751854
0000e0 17 d2 4e 3e 76 f3 7c be 22 3a 9c be 28 b6 9b 3e
       0.2019733 -0.24702248 -0.30513102 0.30412412
0000f0 ed a3 e4 3d 3a 2e 52 3e 1a e4 23 be e5 ed d3 be
       0.11164079 0.20525447 -0.16004983 -0.41392437
000100 be 0f 30 3e 8c e5 2b 3d 02 5b c7 bc b3 e0 82 bb
       0.17193505 0.04196696 -0.024335388 -0.0039940714
000110 65 16 a6 3e 93 57 80 be 07 3b de 3d 2a 2e 1b be
       0.3243896 -0.25066814 0.10851102 -0.15154329
000120 5d 6e c4 3c e4 bb 2e bd 42 f1 05 be 11 e1 86 3e
       0.023978407 -0.042659655 -0.13080314 0.26343587
000130 43 5c f6 bc ac d5 c4 3d 99 e5 95 be 22 7b 86 3e
       -0.03007329 0.09611067 -0.29276732 0.26265818
000140 6d da a9 3d 79 85 e7 3c 44 d9 d7 3c 67 22 e7 3d
       0.082936145 0.028261887 0.026348718 0.112858586
000150 56 ae 28 be 8e f3 a0 be 00 16 09 bf a3 bd 88 3d
       -0.16472754 -0.31435817 -0.53549194 0.06676795
000160 ff f1 3b 3e fb 90 cc bd eb 51 e1 3d 98 b5 9e bb
       0.18354033 -0.0998859 0.11001953 -0.004843425
000170 1b 5e 61 3d 3c f7 2a 3e 5d a4 e6 3d d4 aa 23 be
       0.055021387 0.16695875 0.112618186 -0.15983135
000180 0b 8e ee bd fc f9 72 3d b7 b2 e5 3d 17 1d f7 3d
       -0.11648186 0.059320435 0.11215728 0.12066095
000190 2b e5 02 bf ff cb 12 bf 1c 88 63 3e af 4f 59 3d
       -0.5113093 -0.57342523 0.2221989 0.053054508
0001a0 66 19 85 bd 4a 9a 95 3e 97 82 ef 3e cf 3e dc bc
       -0.06498985 0.29219276 0.4677932 -0.026885418
0001b0 fd 78 53 3d 40 b1 7c bb 6b 1d 96 3e 55 61 0b be
       0.051629055 -0.0038557798 0.2931932 -0.13611348
0001c0 56 f4 fa bd 64 75 2e be a5 bd 3a 3e 7b a7 a5 be
       -0.12253635 -0.17036968 0.18236406 -0.3235434
0001d0 5f 76 25 be 8a 5a 30 bd c5 00 c0 be 21 ff f6 be
       -0.16158436 -0.043055095 -0.37500587 -0.48241523
0001e0 d2 0f 44 bd 98 1b 7b 3e 67 5f e0 3b b5 54 c6 3e
       -0.04786665 0.24522245 0.0068473103 0.387365
0001f0 89 b2 49 3d 71 57 12 3e 42 98 02 be 01 76 dc bb
       0.04924253 0.14291169 -0.12753394 -0.0067279343
000200 0f f2 83 be 4f 08 1f be 08 70 d6 3d 6e 6f 9c be
       -0.25770614 -0.15530513 0.10470587 -0.30553764
000210 09 8b 91 3e 41 6e ed bd 68 fc 59 bd 6b 2c 27 3b
       0.28426388 -0.11593295 -0.05321923 0.0025508653
000220 93 23 1d 3e 7f 2a 92 3d c5 97 ad be 43 86 4f be
       0.15345602 0.07137012 -0.33904853 -0.2026606
000230 33 46 5b bd b9 85 77 be 16 89 e2 3d 40 05 98 39
       -0.053533744 -0.24172105 0.11061303 0.0002899561
000240 f1 83 43 bd 62 99 86 bd 07 f1 72 3d 36 99 aa 3e
       -0.04773325 -0.06572224 0.059311893 0.33320016
000250 2e 3b e7 bd f7 84 e5 3e d5 69 05 bd 1a 56 b2 bb
       -0.112905845 0.44828007 -0.032571632 -0.005442393
000260 b2 5a 5d 3c aa 59 64 3e 11 f6 75 be b6 00 8e be
       0.013510393 0.22299829 -0.24019648 -0.27734917
000270 91 fa 6a 3c 24 a7 0a be 3a eb da be de bf 0f be
       0.014341966 -0.13540322 -0.4275759 -0.14038035
000280 f8 b0 69 be fd 3e f1 3d 9f 42 eb 3d e9 9f 9b bd
       -0.22821414 0.11779592 0.11487316 -0.0759886
000290 2c ba 5f be 89 2d ea bd 1f 97 19 be a5 af cc bd
       -0.21848363 -0.114344664 -0.14999054 -0.09994439
0002a0 4a 7c de 3d 8d f7 c5 3d 9a 90 87 3e f1 58 a9 3e
       0.1086355 0.09666357 0.2647751 0.3307567
0002b0 3e 36 ca be f2 ff 0f 3e 35 52 b7 be 84 6a b1 be
       -0.39494509 0.14062479 -0.35804906 -0.34651577
0002c0 4e c3 84 3d 96 a8 1c 3f 73 cf 13 3e 0e 70 d1 3c
       0.06482564 0.6119474 0.14434604 0.025566127
0002d0 e7 0c 07 bf 40 b4 c4 3d 35 05 7a be 5a 4a 1c be
       -0.5275406 0.096046925 -0.24416049 -0.15262738
0002e0 10 88 03 3e bb 9c f5 3e ee 46 45 3d 66 f9 07 bd
       0.12844872 0.47971138 0.048163347 -0.03319683
0002f0 97 bf f2 bb f4 d8 cb 3d 46 ac fd 3c d7 10 00 3e
       -0.007408093 0.0995349 0.030965935 0.12506424
000300 e1 13 6b bd 0c 5c 8e 3d cf 57 d5 bb 3d 10 b7 bd
       -0.057392005 0.0695115 -0.0065107117 -0.08938644
000310 c1 bc 20 be 86 fb bb bb 9b 0c 85 b8 b5 17 d1 3c
       -0.15697004 -0.005736771 -6.344282e-05 0.025524
000320 ee 1b 16 3d 58 48 2b be 3a 76 4d 3e 42 2e 6e 3c
       0.03664773 -0.16726816 0.20064631 0.014537396
000330 ac ec ff 3d 13 70 8b bd 4d 2f e1 bc 7f 04 7d 3e
       0.124963135 -0.06808486 -0.027488375 0.24708746
000340 b7 f8 cd 3e 78 dc 07 3d aa e1 78 bd 4e b7 ed bb
       0.40228817 0.03316924 -0.060762085 -0.0072545176
000350 99 92 94 be 6d 8d ff 3c b1 d5 87 3d 90 e4 73 be
       -0.29018095 0.031195367 0.06632555 -0.23817658
000360 ca 09 49 be f8 c4 d3 bd f7 73 99 be 70 d4 01 be
       -0.1963264 -0.10340303 -0.29971287 -0.12678695
000370 75 48 2a be c2 aa c3 be fd 9c aa bd f5 f7 63 bd
       -0.16629203 -0.38216215 -0.083307244 -0.055656392
000380 55 1c ce 3d f4 3b 4c bc 0e 51 89 3e 78 0c 96 be
       0.10063998 -0.012465466 0.26819652 -0.29306388
000390 09 bb 6e bd e1 7c 8d be 49 16 6a be 4c e8 49 3d
       -0.05828384 -0.27634338 -0.22860064 0.0492938
0003a0 7c ca d3 3c 42 39 ad 3d c7 a3 a6 be 46 4e e5 3d
       0.025853388 0.08458187 -0.32546827 0.1119657
0003b0 7b d1 b4 be 87 03 72 be 96 d5 77 3d 8a f2 52 be
       -0.3531607 -0.23634158 0.060506426 -0.20600334
0003c0 00 8f fa bd ce 9e 5f be 82 8a 5b 3e 00 c6 89 bd
       -0.12234306 -0.21837923 0.21439555 -0.06727219
0003d0 3b 71 5d be 69 bf 9c bd 74 d4 e8 3d e5 e4 37 bd
       -0.21625225 -0.07653696 0.11368647 -0.044896025
0003e0 52 39 3c 3e 44 71 5f 3e 33 3f 8c 3c 21 27 06 3e
       0.18381241 0.21820551 0.01711998 0.13100864
0003f0 44 c2 3a 3e e1 2c 27 be 3a 39 fd bc 7c 5c 2d bf
       0.18238169 -0.16325714 -0.030911077 -0.67719245

bias f4 [64]
000000 df 16 b1 3c bd f7 28 bd 1a cd 23 3b 8b 41 e7 3b
       0.021617351 -0.041251887 0.0024994076 0.007057374
000010 4e a3 27 bd 72 99 a7 3c f9 12 c1 bc b9 58 3f bc
       -0.040927224 0.02045891 -0.023568617 -0.011678868
000020 54 14 9e bc af c1 19 bd 3d 50 a1 3c 8a 34 44 bc
       -0.019296803 -0.037538227 0.01969158 -0.011975417
000030 66 f1 49 3a b2 c1 c7 bc 0c cd 03 bc 5e 68 5e bd
       0.00077035127 -0.024384353 -0.008044492 -0.05429875
000040 20 ba 89 3c 41 2b 03 3d c3 5f f9 3c 7d 99 54 bd
       0.016812384 0.032023672 0.03044117 -0.05190419
000050 14 4d 7d bc 15 6a f4 3c 09 a6 a4 3c 46 9a 58 bc
       -0.015460271 0.02983574 0.020098703 -0.013220375
000060 51 fb 4a bd db de dd 3c 20 88 1e bd ad 79 e9 bc
       -0.04955608 0.027083805 -0.038704038 -0.028500402
000070 04 c0 24 bd 41 92 23 3d c1 d4 1c bd 78 ba ca bc
       -0.040222183 0.0399344 -0.038288835 -0.024747118
000080 ef 85 61 3d e5 30 eb b9 5b a9 4e bc 7c 51 2a 3c
       0.05505937 -0.00044859122 -0.01261362 0.010395404
000090 3a 7a 8c bc 20 c9 bb 3c 94 9d 2e bd df 87 aa 3c
       -0.017148126 0.022923052 -0.042630747 0.020816742
0000a0 52 22 7a 3c 6f fd 8c 3c 6c a6 d3 3b 8c 56 33 3d
       0.015266972 0.01721069 0.006459048 0.04378371
0000b0 c3 b1 17 3d 46 10 19 bc 67 06 92 bb 14 47 0d bc
       0.03703476 -0.009342259 -0.0044563296 -0.008622903
0000c0 c8 c6 d7 3c 80 d5 dc bc 09 93 bb 3c 39 a5 ac 3c
       0.026339903 -0.026957273 0.02289726 0.021074878
0000d0 3c f7 e2 ba f4 6a 80 bc 26 c2 99 bc ef 50 93 3d
       -0.0017316113 -0.015676 -0.018769335 0.07193171
0000e0 00 39 38 bd 10 ea 36 bd eb 7f b2 bc e7 fd a3 b8
       -0.044976234 -0.044656813 -0.021789512 -7.819739e-05
0000f0 0e 56 94 bc c2 b3 a9 bc 3a 71 75 bc c1 8c c1 3c
       -0.01810744 -0.020715598 -0.014980609 0.023626687

weight f4 [12, 64, 1, 1]
000000 c0 05 5b 3e ae 86 5b bd 31 42 a0 bc 3f cf df 3e
       0.21388912 -0.053595237 -0.019562813 0.43712804
000010 8a 28 47 3e 99 bf 01 3e 4f 42 7a bc c5 79 72 be
       0.19449058 0.12670745 -0.015274598 -0.23679264
000020 3a 57 07 bc ed 96 0b 3e 79 84 52 bd fc 9e 99 be
       -0.0082605425 0.13631792 -0.051395867 -0.30004108
000030 9c 28 74 3d 2c 81 7b be 24 0b 8a be f1 4d 98 3d
       0.05960904 -0.24560994 -0.26961625 0.07436741
000040 57 51 9a 3c 93 0c 79 3e df 70 86 3e 8e 7f 5a be
       0.018837614 0.24321203 0.2625799 -0.21337721
000050 34 5b 3f be 59 75 02 bf 04 8c 23 bc d0 86 93 3d
       -0.18687135 -0.5096031 -0.009982113 0.07203448
000060 36 00 d9 3d ab 1a d6 bd af 0e 85 be 82 32 be bd
       0.10595743 -0.10454305 -0.25987765 -0.09286977
000070 05 61 1d 3d e0 d9 a2 3c a8 c9 3d bd 93 ca d3 3d
       0.038422603 0.019879282 -0.046334893 0.10341372
000080 81 4a ef bc 6b 71 ee bd 0f 8d ea 3d 69 76 c1 bc
       -0.02921033 -0.116427265 0.11452686 -0.023616033
000090 99 c3 79 3d 10 4d 86 3e 97 ca bb 3d b9 c9 a9 3a
       0.060977552 0.2623067 0.091695 0.0012953795
0000a0 8a 94 29 bd a3 c7 94 be 48 66 83 3d 3a 56 98 3e
       -0.041401424 -0.2905856 0.06415993 0.29753286
0000b0 42 27 d9 3d c2 92 0e be 46 4d 4d be 34 4c 2b 3e
       0.10603191 -0.13923171 -0.20049009 0.16728288
0000c0 2c 92 57 be 60 b6 d3 bd 28 b9 34 3c 2c 90 12 be
       -0.21051854 -0.1033752 0.011030473 -0.1431281
0000d0 05 e1 c1 bd 05 2e 25 be 31 7a 10 3d 70 1b ff 3c
       -0.09466747 -0.16130836 0.03527278 0.031141013
0000e0 75 88 d7 bc 39 72 bc 3e 7d 24 93 3e b3 9e 05 be
       -0.026310185 0.36805895 0.28738776 -0.1304882
0000f0 27 2c 5f 3e 55 fd 6b 3e b1 64 85 bc f5 87 8b 3e
       0.21794187 0.23045857 -0.016283365 0.27252164
000100 56 fe 3b be 86 ba 28 3e f3 e5 be bd 4a ee 95 3e
       -0.1835874 0.16477403 -0.09321203 0.29283363
000110 17 0f 3a 3e 3a 35 d7 bc 81 34 20 be 49 fb 5f be
       0.18169819 -0.026270498 -0.15645029 -0.21873201
000120 e4 34 7d be 4c 99 96 3d 78 6a a8 3e e0 27 09 be
       -0.24727207 0.07353458 0.3289373 -0.13394117
000130 a2 4c 80 3e e9 88 fe 3c d0 4f 3f bc 6a ae f7 3d
       0.25058466 0.031071143 -0.011676744 0.12093814
000140 08 de 60 3e e3 65 50 be a2 f2 02 be 37 f0 98 3d
       0.21959698 -0.20351367 -0.1278787 0.07467692
000150 40 93 71 bb 7c 02 4e be cd 66 e7 3d 19 7c c4 bc
       -0.003686145 -0.20118135 0.112989046 -0.023984956
000160 3d 54 ac 3d 82 51 5b be 7c ac dc bc 69 36 07 3d
       0.08414505 -0.21417812 -0.026937716 0.033010874
000170 06 cd a7 3e 78 57 18 bd be 75 75 3e f5 d8 a0 3d
       0.32773608 -0.03719279 0.23970696 0.07853881
000180 44 45 a2 be 54 13 35 3e c6 41 bb bd 8d b4 cf 3d
       -0.3169347 0.17683154 -0.09143405 0.10141859
000190 a4 b2 08 3e 10 65 99 be fe a4 d2 bd 2c b6 7b 3e
       0.13349396 -0.29959917 -0.10285376 0.24581212
0001a0 17 9d 26 3e 26 1f 82 bd ca 2f e6 be e7 73 96 bd
       0.16270863 -0.06353597 -0.44958335 -0.07346325
0001b0 35 f6 98 bd af 93 90 be 11 cd 97 be 61 02 97 be
       -0.07468835 -0.28237674 -0.2964864 -0.29494002
0001c0 03 f3 93 be 88 aa 29 bd 48 f5 30 be b8 3d 25 be
       -0.2889634 -0.041422397 -0.17281067 -0.16136825
0001d0 80 57 02 be fb eb 1f 3d fd c6 94 3e b6 e4 4e be
       -0.12728691 0.039043408 0.29058066 -0.20204434
0001e0 92 86 ea 3d 81 18 73 bd 2f d2 35 3e 27 71 15 3d
       0.114514485 -0.05934954 0.1775596 0.036484864
0001f0 6c aa b0 3c c7 0c 75 3e a9 25 1d 3e 64 7f 5b be
       0.021565638 0.23930655 0.15346397 -0.21435314
000200 c5 d6 9a 3e 9c 5d f9 bd 08 0f 63 be 7f a0 da bc
       0.3024198 -0.12176058 -0.22173703 -0.026687859
000210 82 ec c0 bd 2d 81 9a 3e 75 f1 81 be f2 19 04 be
       -0.0942011 0.30176678 -0.2537953 -0.12900522
000220 7b 35 af bd fc 11 28 3e 27 32 7d be 3c 5a c5 bd
       -0.085551225 0.1641311 -0.24726163 -0.096363515
000230 93 4a c8 3c f4 71 05 bd 84 22 d8 3d 30 65 87 be
       0.024449622 -0.032579377 0.10553458 -0.26444387
000240 9a 73 e6 be af 43 45 be 18 65 e2 bd 18 e1 82 be
       -0.45010072 -0.192641 -0.11054438 -0.25562358
000250 61 bb c5 bd 1e 14 63 bd 99 8f 1e 3e 1e 2b 1b be
       -0.0965488 -0.055439107 0.15484466 -0.15153167
000260 38 99 8f be 69 e2 39 be 4b be 95 be 38 e5 7c 3e
       -0.28046584 -0.18152775 -0.29246745 0.24696815
000270 7e f3 8f bd a5 11 14 3c 27 e4 01 3f c2 70 68 bd
       -0.07028864 0.00903741 0.5073876 -0.05674816
000280 ac 00 df 3d 21 a0 69 bc 8f f9 1c be 82 c7 f1 be
       0.108888 -0.014259369 -0.15329574 -0.47222525
000290 48 e5 0c bd af 8b 26 be 00 7d 16 bd 86 00 54 3b
       -0.034398347 -0.16264223 -0.036740303 0.0032348945
0002a0 69 51 13 3e 58 38 cb be ad 52 27 bd da 3b 72 bb
       0.14386524 -0.39691424 -0.04085033 -0.0036961944
0002b0 62 ab 9d 3d 57 1f 1a b9 7e a1 75 3e af 54 58 be
       0.07698704 -0.0001469826 0.23987386 -0.21126054
0002c0 9c b7 f3 3d aa 90 2b be 1c 2f b1 3e 03 1b 81 3c
       0.11900255 -0.16754404 0.34606254 0.01575995
0002d0 8b b3 80 be e3 4b 23 3e f0 96 40 3c 04 a3 db bd
       -0.2513698 0.15946917 0.011754736 -0.10724452
0002e0 ed a4 c9 ba 5f a9 51 3d 1e f2 01 3f 74 4b ea 3c
       -0.0015384235 0.051186915 0.50760067 0.028600432
0002f0 10 27 4e 3e ce 42 90 be e3 90 16 be 36 97 f8 bd
       0.20132089 -0.28175968 -0.14703707 -0.12138216
000300 fa 1c 14 be 03 c5 11 be c3 fe 2f be 83 c7 7f be
       -0.14464179 -0.1423531 -0.17187028 -0.24978451
000310 d7 f0 17 be dd 95 ed bd e0 1f c4 be f0 96 29 3c
       -0.14837967 -0.1160085 -0.3830557 0.010350928
000320 a1 30 17 3e aa 30 9c 3d e8 b7 94 3d de d5 a8 bd
       0.14764644 0.076264694 0.0726164 -0.08243917
000330 23 67 fb 3d ca 8b 49 be 24 6d a0 3e 5c 1b 65 be
       0.12275531 -0.19682232 0.31333268 -0.22373718
000340 20 d0 e2 3c 54 92 f0 3c 66 f6 08 be 2a 4a 97 bd
       0.027687132 0.02936665 -0.13375244 -0.073871925
000350 3d a7 fc bd 7e 33 56 bc d0 09 22 be e9 79 2a 3d
       -0.12336586 -0.0130738 -0.15824056 0.04162017
000360 03 2d f3 bd 0f 7e 40 bd dd cb 0e be 19 c6 f5 bd
       -0.1187382 -0.04699522 -0.13944955 -0.12000675
000370 c5 d5 5e be 63 71 05 3e 9b f5 b2 bd 59 ad 85 bc
       -0.21761234 0.13031535 -0.08738252 -0.01631801
000380 9b ee cd 3e d3 b8 ff bd 24 da b6 3d c0 c4 a9 3d
       0.40221104 -0.12486424 0.08928326 0.0828948
000390 06 6e c0 bd 22 64 6d bd dd 48 e6 bc 3e 2e c1 3b
       -0.09395985 -0.057956822 -0.028110916 0.005895405
0003a0 a9 e1 1b bd 45 da 77 be dc 56 1a be cd 0b 1e be
       -0.038057003 -0.24204357 -0.15072197 -0.15434189
0003b0 a2 db c3 3e 27 52 8a be 1b aa 9b be 82 49 fc 3d
       0.38253504 -0.27015802 -0.30403218 0.12318708
0003c0 c4 bc 2b 3c 85 22 e9 3d 4f ef c4 3d 93 1f 3c 3e
       0.010482017 0.11383537 0.09615957 0.1837142
0003d0 01 87 c3 be d4 1e 5a 3e 35 30 80 bd 69 21 a0 3e
       -0.38188937 0.21300822 -0.06259195 0.3127549
0003e0 58 1c 51 3d 08 52 27 be f9 99 54 bd 4b 30 a1 bd
       0.05105242 -0.16339886 -0.051904652 -0.07870539
0003f0 0f 31 93 be b0 2b ef 3b 8a 30 15 bd fa 07 75 bd
       -0.28748366 0.007298909 -0.036423244 -0.05982206

bias f4 [12]
000000 c3 4b eb 3b 8d e9 15 3b 78 27 9b 3c 89 ac dc 3c
       0.0071806624 0.0022874803 0.018939719 0.02693774
000010 af e6 3c 3c 18 17 06 bc ea 6f b0 3a fc e8 a3 ba
       0.011529609 -0.008184217 0.0013461087 -0.0012505348
000020 78 5e b7 3b 41 2f a7 bc c1 bd c3 bc c4 85 81 3d
       0.0055959783 -0.020408275 -0.023894193 0.06324342

weight f4 [12, 12, 3, 3]
000000 aa 32 84 be 98 0f 89 3c 1d c5 82 bd 04 d1 0b be
       -0.25819904 0.016731068 -0.063852526 -0.13653952
000010 b3 61 0f 3e 6d 6f d9 bd 5a 10 bb 3d 63 86 bf 3e
       0.14002113 -0.10616956 0.09133978 0.37407216
000020 45 27 26 be fe 91 82 bb 59 22 87 bd 97 fa e8 3d
       -0.16225918 -0.003984689 -0.06598348 0.11375921
000030 ec f7 8c bd b2 55 a7 3a 13 0c 7f be f1 8d 2a 3e
       -0.06883225 0.0012766628 -0.2490695 0.16655709
000040 b8 4c 0f 3e 1e 1e 0f 3e b1 ff 2d 3d 62 4c a5 3c
       0.1399411 0.13976333 0.042480174 0.020178024
000050 74 4d 16 be bb 86 f8 bd 34 3d 9e bd 44 d5 a2 3e
       -0.14677984 -0.12135073 -0.07726517 0.31803334
000060 be c5 45 3e 6c e1 39 bd 79 b8 ed bd d1 eb 1c be
       0.19313714 -0.045380995 -0.11607451 -0.15324332
000070 c8 1c a0 be b9 f7 ea 3d cf 1e 2a be 04 12 85 be
       -0.31271958 0.114730306 -0.16613315 -0.25990307
000080 68 c9 9b bd c4 bc 73 bd 19 6a 31 be 86 b0 79 3e
       -0.076067746 -0.059506193 -0.1732563 0.24383745
000090 bd 62 5c be 1b 57 55 3c 3c c1 87 3d e0 52 b4 3d
       -0.2152204 0.013021256 0.066286534 0.0880487
0000a0 c3 28 ca 3c a1 62 16 3d 4f bc 1f 3e 84 f4 d7 be
       0.02467764 0.036715154 0.15599178 -0.42178738
0000b0 ba 95 62 3e 3c 4b 04 3e f9 ea 6d 3d b5 07 4f bc
       0.22127429 0.12919325 0.058085416 -0.012636115
0000c0 f4 17 66 bd 2e 4b 47 be 38 59 23 3e b6 23 95 bb
       -0.056175187 -0.19462273 0.15952003 -0.004551376
0000d0 bf dc 1e 3e 12 9c 06 3e 55 18 a7 bc ee 8d 8e 3d
       0.15513895 0.13145474 -0.020397345 0.06960665
0000e0 f0 3c 52 3e 04 2c 0b 3e a9 11 3d be f1 6f 32 3e
       0.20531058 0.1359101 -0.18463768 0.17425515
0000f0 1c e5 e5 bd 83 7a 5b 3d b6 a8 88 be 9e bc 9c be
       -0.1122534 0.053583633 -0.26691216 -0.30612653
000100 4d 3d 4b be a8 df db 3d 43 2b ca bc 60 c5 99 3e
       -0.19847603 0.107360184 -0.024678832 0.30033398
000110 89 4e d5 3d 81 a2 66 3d 36 c2 14 3e 1e 30 83 be
       0.1041537 0.05630732 0.1452721 -0.25622648
000120 13 5f e7 3d 9a c8 b6 3e 44 6c c9 3d 43 44 15 bf
       0.11297431 0.35699922 0.09835103 -0.58307284
000130 a4 47 73 bd 47 03 b3 be c3 70 f6 3d 56 ea 56 3e
       -0.059394494 -0.34963438 0.12033226 0.2098783
000140 32 c9 ed 3c 9c 92 81 be 4f 3c cc 3d 21 36 73 3d
       0.029026601 -0.25307167 0.099724405 0.059377793
000150 f5 36 90 bd 90 25 11 3e b9 b4 e8 3d ce 94 d7 3d
       -0.07041732 0.14174485 0.11362595 0.10526429
000160 71 f6 97 be 58 fc 81 be 42 e2 d8 3e 08 8f 6e be
       -0.29680207 -0.25387836 0.4236012 -0.2329675
000170 60 c9 ac be 74 ed 57 bd 16 60 26 3e de f8 36 3e
       -0.33747387 -0.052716687 0.16247591 0.17868373
000180 91 e6 80 be c8 8a ba 3c 6a cd 36 3c 0e d1 f5 be
       -0.25175908 0.022771254 0.011157373 -0.4801106
000190 a7 66 93 3c 2b 2e b9 3d af c3 3f 3e 82 81 fd bd
       0.017993284 0.09042009 0.18726991 -0.12378217
0001a0 a9 6c 44 be 64 3b d0 3e 91 17 37 3e 04 9e 8c 3e
       -0.19182076 0.4067031 0.17880084 0.27464306
0001b0 f1 66 ad 3e 54 79 8b 3e 7a 37 d3 3d 27 95 35 bd
       0.338676 0.27241004 0.10313316 -0.044331696
0001c0 49 59 ce bc 5b 7c 8b bc ec 70 bb bd 53 0a f5 3d
       -0.025189059 -0.01702707 -0.091523975 0.1196486
0001d0 84 6f a0 bd b0 08 dd 3d 57 d9 3d 3b 1d ea 3a 3c
       -0.0783377 0.10792673 0.0028968656 0.011408356
0001e0 5f 2c 9c bd b8 c5 b9 3e 84 e2 d8 bc f7 51 e2 3d
       -0.076256506 0.3628366 -0.026475199 0.1105079
0001f0 23 09 29 be 41 2e 86 3e ff 31 9f 3e f9 7a 32 3c
       -0.16507392 0.26207164 0.31092831 0.010893577
000200 45 3c 07 3e bb 5e 94 3c 8f 17 91 bd 6c d6 d0 3d
       0.13206585 0.018111577 -0.070845716 0.10197148
000210 eb 95 ef 3e 8a 59 2c 3e 3c b1 c1 bd 9b 45 cc 3d
       0.46794066 0.16831031 -0.09457633 0.09974214
000220 e6 ad 15 3e ae 1d 7f 3e 5d 15 67 3e a1 61 d9 bd
       0.14617118 0.24913666 0.22566743 -0.10614324
000230 4c d8 3c be 88 1c aa 3e 09 78 78 3e dd fa 58 3e
       -0.18441886 0.33224893 0.2426454 0.21189447
000240 ae 6b 54 be df 4e ff bd 00 30 67 bd 1d db 21 be
       -0.20744202 -0.12466215 -0.05644226 -0.15806241
000250 21 21 4e be 9c 1d b2 3d 0e 5b 18 bd 5a 97 3d 3e
       -0.20129825 0.08697054 -0.03719621 0.18514767
000260 26 c3 a6 3c fb 58 9f be 52 a8 9b 3e 24 3e 62 3e
       0.020356726 -0.31122574 0.30401856 0.22094017
000270 ee 47 4a bd 3b 6e 7a be 40 81 66 be 8d de 9d 3d
       -0.049385004 -0.24456112 -0.22510242 0.07708464
000280 62 ee 1e be 81 c5 2d bd 58 27 87 3e 22 1e e5 3c
       -0.15520623 -0.042424683 0.26397204 0.02796847
000290 34 2e 63 be 23 41 f6 3c 5f 5d 20 be 94 b9 9a 3d
       -0.22185594 0.030060356 -0.15660618 0.075549275
0002a0 c4 39 1f be 6b e2 bc 3c 17 6e 63 3c 43 46 f9 3c
       -0.1554938 0.023057183 0.013881228 0.030429011
0002b0 95 50 d4 3e 76 53 a3 be e5 0f 20 be f5 04 4d bd
       0.4146773 -0.31899613 -0.15631063 -0.050053556
0002c0 17 71 37 be e1 64 50 3d fb 63 32 bb 24 03 72 bd
       -0.17914234 0.050877456 -0.0027220238 -0.059085026
0002d0 2d 1d d9 bd d3 a0 d6 3d 48 6e 9f be b5 c7 21 3d
       -0.10601268 0.104798935 -0.31138825 0.039497096
0002e0 81 58 85 bd 39 7c 72 3e ec d4 76 bd d9 b1 c7 bd
       -0.065110214 0.236802 -0.060261652 -0.097507186
0002f0 a3 10 16 3e 26 f1 9d 3d 8c 85 00 be bb f8 59 be
       0.14654784 0.07712011 -0.12550944 -0.2128629
000300 e1 d8 e0 3e 56 9c 2b be 5c 0b 0d 3e 06 64 19 3f
       0.43915465 -0.16758856 0.13773865 0.5991825
000310 16 47 b8 bc 15 75 9c bc 31 90 47 bd 3d fb 31 bd
       -0.022494834 -0.019098798 -0.048721496 -0.04345249
000320 6a 6a 8f 3e af 93 e1 3d 10 5a c9 3d d2 00 b9 bc
       0.28010875 0.110144965 0.09831631 -0.022583399
000330 2c d6 76 bd 87 bd a0 bd 7d 0e cb be 2c fc c4 3e
       -0.060262844 -0.078486495 -0.3965949 0.38473642
000340 f5 f4 d9 3b cb 92 90 3d 86 0f 48 3e 80 ee ff bd
       0.0066515156 0.070592485 0.19537172 -0.12496662
000350 71 2e 9b bc 5c b2 3f 3e 4a 0b aa bd 1f 56 4e ba
       -0.018943043 0.18720382 -0.083029345 -0.00078711094
000360 70 50 b9 bd b5 1e 9d bc fd 17 37 3d 9e 51 99 3e
       -0.09048545 -0.019179681 0.04470061 0.2994508
000370 0e 66 24 be d1 cf 95 bd 11 4c 0b be 3d e9 06 be
       -0.16054556 -0.073150285 -0.13603236 -0.13174911
000380 2e 31 5e 3e 9e f6 13 bd 00 15 11 3e 15 5e 30 3c
       0.21698448 -0.036123864 0.14168167 0.010764618
000390 e8 a7 9a bd 61 71 84 3e 1c d0 65 3e 4d d9 db 3d
       -0.07551557 0.2586775 0.22442669 0.10734806
0003a0 a4 a4 d7 bd 2d 7d bd b9 30 9a 14 bd 56 1f 0a 3e
       -0.105294496 -0.00036142152 -0.036279857 0.13488516
0003b0 aa 13 3a be e3 29 08 3d 39 56 c9 be f1 82 25 be
       -0.18171564 0.03324307 -0.39323595 -0.16163231
0003c0 79 36 4b 3d b0 ae 12 3e 33 8f 39 be b1 3e 3b 3d
       0.049612496 0.1432445 -0.18121032 0.045714084
0003d0 9b 1c 82 3e 85 5e 34 bd 8b 9d 4b 3e 0b 16 c3 bd
       0.2541245 -0.044035453 0.19884317 -0.09525689
0003e0 bd 05 b5 bc e8 77 96 be c5 76 53 3e fe 8a 87 3e
       -0.022097463 -0.29388356 0.20650776 0.2647323
0003f0 0b 0a 14 be 1e da 90 bd e7 a0 bb bd e8 b5 03 be
       -0.14456956 -0.070728526 -0.09161549 -0.1286236

bias f4 [12]
000000 52 1c 0b bc 85 29 0f 3c 47 8b 35 3c 57 39 a7 3c
       -0.008490639 0.008737926 0.01108057 0.020413084
000010 e5 84 31 bc f7 0f 1a 3c 54 52 fc bb 74 9c 38 3c
       -0.010834907 0.00940322 -0.007700244 0.01126777
000020 e5 61 dd ba 66 55 71 bc bb 2f d0 bc 02 7b 9c bc
       -0.0016890137 -0.014729833 -0.025413385 -0.019101623

weight f4 [12, 12, 3, 3]
000000 1e d8 ad 3c e4 9b 3f 3c 05 bf b7 3e a6 52 26 3d
       0.021221217 0.011694882 0.35887924 0.040606163
000010 c0 4a 58 be 8e 1a 32 be 36 3b 00 bd bd 8a 89 3d
       -0.21122265 -0.17392942 -0.031306468 0.06715915
000020 06 c9 92 bd a0 9b 7e 3e aa 42 50 3e 55 ea 90 be
       -0.071672484 0.24864054 0.2033793 -0.2830378
000030 3c e9 da 3b d3 b9 97 3d 69 50 56 3d 86 54 f7 3d
       0.0066806357 0.0740849 0.05232278 0.120766684
000040 36 7a 24 be e1 cd 6b 3e d3 30 ac bc 0e 25 8b be
       -0.16062245 0.23027755 -0.021019375 -0.27176708
000050 a4 30 ba be 74 68 72 bb 61 f9 f3 be 9c 44 67 3e
       -0.36365235 -0.0036988528 -0.47651199 0.22584766
000060 dc bd 9c bd 5e 5f 6a 3d 8f da f5 be b9 93 d8 bc
       -0.076534 0.057219855 -0.4801831 -0.026437627
000070 31 29 e1 bd 26 7e cd 3e fb 37 a8 3d 60 5d a2 3d
       -0.10994185 0.40135306 0.082138024 0.07927966
000080 0d 0b 1f bd 74 b9 ba be 0f c8 3e bd 69 d2 ff bc
       -0.0388289 -0.36469615 -0.04657751 -0.031228261
000090 02 ca cd 3d 8d 9d c0 bc 04 9c 8c 3e 42 fb 90 3d
       0.100482956 -0.023512626 0.2746278 0.070791736
0000a0 36 98 40 3d 27 d2 b6 3d 89 7d e1 3c 46 e1 39 3e
       0.04702016 0.08926802 0.02752568 0.18152341
0000b0 c1 a8 26 3e d3 e1 0e be 5a 83 38 3c 60 78 70 be
       0.16275312 -0.13953333 0.011261785 -0.2348342
0000c0 41 7f a6 3e 8d cb a2 bc 5d ad b7 3c 91 59 2a be
       0.32518962 -0.019872451 0.022421533 -0.1663573
0000d0 ca 04 10 bd 11 d7 43 3d 59 50 99 be 81 77 a8 bd
       -0.035160817 0.047812525 -0.29944113 -0.082259186
0000e0 1e e1 4f 3d 22 67 8d bc 0f 68 cc be d2 e9 9f 3e
       0.050751798 -0.017261092 -0.3992314 0.31233078
0000f0 f6 a0 29 be 02 54 f6 3e 9d cc 57 be 5c 5d be bd
       -0.16565308 0.48110968 -0.21074148 -0.09295151
000100 be 7e 49 be 0c 1e 69 be 7c f2 94 bd d4 2f 84 3e
       -0.19677255 -0.22765368 -0.07272813 0.2581774
000110 61 a6 12 bd 09 b6 2f 3e fe bd 10 3d 8e 60 9d be
       -0.035803203 0.17159285 0.03533744 -0.30737728
000120 6b 0a 52 3e 0c 52 ec be 40 df 83 3d 98 a0 fc 3d
       0.20511787 -0.46156347 0.06439066 0.12335318
000130 44 5c 71 3e 1f 26 9a bc d2 27 f2 3d 78 2a ec bd
       0.23570353 -0.018817006 0.11824001 -0.11531538
000140 76 df 32 3e 65 8c 6f bc 92 03 15 3e c1 a0 ac be
       0.17468056 -0.014620875 0.14552143 -0.33716395
000150 ad a7 f0 3e 9a c3 1c be b9 3b d6 3c 81 77 c2 3e
       0.47002926 -0.15308991 0.026151525 0.379818
000160 1f 3d 9a bd 53 11 0a be 2d c5 92 bd eb c1 61 3d
       -0.07531189 -0.13483171 -0.071665145 0.055116575
000170 13 9f 0a 3e 7b 57 b2 be 91 4d 4c 3b 85 4f 60 3e
       0.13537244 -0.34832367 0.0031174163 0.21905334
000180 bc 88 84 3e f0 44 d9 3c 4d d1 f0 bd 55 45 a7 be
       0.2588557 0.02652213 -0.11758671 -0.32670084
000190 04 96 84 3e e0 3c f3 3d 2b 4a ad 3e ef 50 33 3e
       0.25895703 0.11876845 0.33845648 0.17511342
0001a0 23 bb 5e 3c fc 44 ed bd 5c f9 a2 3d 54 05 a8 be
       0.013594422 -0.11585423 0.07957718 -0.32816565
0001b0 a4 47 c2 be 73 4f 44 be c4 e3 25 3d 54 f5 63 bd
       -0.37945282 -0.19170932 0.040500417 -0.055653885
0001c0 f5 e2 65 3e b0 82 62 be e4 20 70 3e ce 47 85 bd
       0.22449858 -0.22120166 0.23450047 -0.06507836
0001d0 75 bb dd bb d2 71 ff bd 41 93 42 be 36 60 03 3e
       -0.0067667314 -0.124728814 -0.19001485 0.1282967
0001e0 23 74 87 be 21 20 cf bd f8 e3 8e be 4e 2a 30 3e
       -0.26455793 -0.1011355 -0.279083 0.17203638
0001f0 76 ac d4 3b 6c f8 8a be c2 53 49 3e 85 b0 e9 bc
       0.0064902855 -0.27142656 0.19660857 -0.028526554
000200 a5 ef f1 3d c0 8d b6 3c 4b 08 74 3e e2 36 c6 3e
       0.11813287 0.022284389 0.23831289 0.38713747
000210 c3 fd 08 bf 80 55 54 3e 82 d6 f8 bd 38 34 cc be
       -0.5351221 0.2073574 -0.12150289 -0.3988359
000220 b5 3e 52 be 67 6b e2 3d e4 09 12 be 9e 27 1a 3e
       -0.20531733 0.110556416 -0.14261585 0.15054175
000230 52 d5 2a 3e d8 87 2d 3b 76 37 be bd 2a e3 d5 3e
       0.16682938 0.0026478674 -0.09287922 0.41774875
000240 37 68 4d be b0 7d dd 3d aa b8 e4 bd cc a8 96 bc
       -0.20059286 0.108149886 -0.111680344 -0.018391035
000250 b4 25 03 be 74 d2 33 3e 8a 5f 99 3e 25 f2 a9 bc
       -0.12807351 0.1756075 0.29955703 -0.020745346
000260 5c e4 05 3e 6b 7f 7e bd 23 a9 63 be 48 5c 5b 3d
       0.13075393 -0.062133234 -0.2223249 0.053554803
000270 38 31 48 3d 22 41 36 be 7e 8b e8 3d bc 1e 98 3b
       0.048875064 -0.17798284 0.11354731 0.0046423357
000280 9e 0d b9 3d a6 e2 f2 3d f1 e6 94 3e d2 f4 2e 3e
       0.090358004 0.11859636 0.29082444 0.17085579
000290 62 0d d5 3e 01 21 f9 bc bf d9 1a be 1b d2 09 3e
       0.41611773 -0.030411245 -0.15122126 0.13459055
0002a0 3f 37 95 bd 8c 38 05 be bd f4 c0 bb 2b bf 3a 3e
       -0.07285928 -0.13009852 -0.00588855 0.18236987
0002b0 be 45 e4 3d 84 3b b1 be f8 6f 41 3c 3c bc 8d 3e
       0.11146115 -0.3461572 0.011806481 0.27682674
0002c0 8b b6 e2 3d 5d d6 bd 3e cf 2c a5 3c 7d 31 5a be
       0.110699736 0.3707761 0.020162968 -0.21307941
0002d0 6f 27 91 be 57 cb 28 be d8 f5 35 be bc 8d 40 be
       -0.28350398 -0.16483818 -0.17769563 -0.18804067
0002e0 0c 8e 99 3e 05 f7 dd bd 32 24 2f bd b4 7d 19 3e
       0.29991186 -0.10838131 -0.042759128 0.14989358
0002f0 56 4c 8d be 71 9d c9 3e 2f e8 8a be 66 03 63 be
       -0.27597302 0.3937793 -0.27130267 -0.22169265
000300 5b 66 a1 3e 2a 72 08 bd 06 94 24 be df b8 f3 3d
       0.31523404 -0.033312 -0.16072091 0.11900496
000310 15 30 f7 3e 06 25 a0 bd 7d c1 91 bd 63 10 bc 3c
       0.4827887 -0.07819562 -0.07116983 0.022957033
000320 19 54 38 3e 16 31 3d be 22 e6 cf 3a 47 06 fc 3d
       0.1800083 -0.18475756 0.0015861432 0.12305885
000330 5b 78 1e 3e bb 57 b5 be 69 c5 11 3c 22 84 25 3d
       0.154756 -0.35418496 0.008897164 0.040409215
000340 f4 61 79 3e bc 7e 85 be 63 b5 34 3e c6 68 50 3e
       0.24353772 -0.26073253 0.17647319 0.20352468
000350 3e cf 9a 3d 1d 13 44 be 94 0c ea bd f0 a0 c7 bd
       0.075590596 -0.19147916 -0.1142818 -0.09747493
000360 24 43 3b 3e ee ca 3c 3e b9 96 d6 be ef d2 15 be
       0.18287331 0.18436787 -0.41911867 -0.14631246
000370 bf 16 1c be 8a 6a 33 be e5 62 23 3e 04 4c 83 be
       -0.15243052 -0.1752111 0.15955694 -0.25643933
000380 d4 3c 3c be 84 24 a2 be 9d b8 0f 3e ad 46 b3 be
       -0.18382579 -0.31668484 0.14035268 -0.3501486
000390 9d 2c 0f 3f 78 da 2c be 04 5d 06 be ae 34 3a bd
       0.5592745 -0.16880214 -0.1312142 -0.045460396
0003a0 f1 5c f2 bd 8d 89 30 3e 71 a9 90 3c f2 6c be 3e
       -0.118341334 0.17239971 0.017658921 0.37192494
0003b0 a1 61 b7 3e be 90 af be bb 7d 66 3e 14 2c 71 be
       0.35816672 -0.34290117 0.225089 -0.2355197
0003c0 66 4b 89 be 62 0e c5 3e 6c 0d cd bd 69 62 ba 3c
       -0.26815337 0.38487536 -0.10012326 0.022752004
0003d0 89 3b 8b 3e cd 65 11 be a7 13 83 bd af 1c c1 bd
       0.2719386 -0.1419899 -0.06400233 -0.09429299
0003e0 5d 6b 5e bd 9e 27 2a be f4 01 b8 bd 20 c5 bd 3e
       -0.05430161 -0.16616675 -0.089847475 0.37064457
0003f0 89 04 42 3e 21 39 7f 3d 3e 8d 32 3d f2 cb 91 3d
       0.18947043 0.06231034 0.04359173 0.071189776

bias f4 [12]
000000 11 c9 9d 3c d2 90 da 3b f2 79 ce 3c db aa 12 3d
       0.019260915 0.006670096 0.025204632 0.03580747
000010 b9 7b 29 bc e3 f9 0e bc 62 d1 72 3b 92 d5 66 bb
       -0.010344439 -0.00872657 0.0037051071 -0.0035222513
000020 de 83 23 bc e9 c2 26 bc b0 2b a0 bc 9f 75 d6 ba
       -0.00998017 -0.010178306 -0.019552082 -0.0016361958

weight f4 [12, 12, 3, 3]
000000 7d 86 96 3c 16 e6 b8 bd 42 a7 3e 3c 03 e7 67 bd
       0.018374676 -0.090282604 0.011636557 -0.056616794
000010 9f 61 dd 3c f5 4c 5e 3e 1e 06 d5 3c 0f 0d 9f 3d
       0.027024088 0.21709044 0.026003893 0.077661626
000020 8a 3f c4 3d 43 6f 5d bd 58 7e cc 3e 60 d1 92 bd
       0.095824316 -0.054061186 0.39940143 -0.07168841
000030 13 ef e8 be a6 52 c5 3e 8d 4d e6 3d ff dc 08 3f
       -0.454949 0.38539618 0.112452604 0.53462213
000040 99 68 95 3d b3 c0 70 3e f1 f2 08 3e 31 b8 b8 bd
       0.07295341 0.23511009 0.13373925 -0.09019507
000050 db 10 a8 3e b1 bd 7a 3e 96 bf 1c 3e 79 e6 76 bc
       0.3282536 0.24486424 0.15307459 -0.015069597
000060 84 41 6c 3c f1 ea cc 3d c5 f9 98 bd 64 8c 89 3d
       0.014419917 0.10005749 -0.07469515 0.067162305
000070 50 50 35 be 7d 20 c5 be d9 ff 2a 3e fd 95 84 3c
       -0.17706418 -0.3850135 0.1669916 0.016184801
000080 ab fc e5 3d 01 87 a3 3e 67 99 80 bb 1f 58 41 be
       0.11229833 0.31938937 -0.003924537 -0.18881272
000090 66 00 89 be 69 7e 66 3d 8f 70 32 3e 91 9f 92 3c
       -0.26758116 0.056272898 0.1742575 0.017898353
0000a0 f8 ab fc 3d b0 c5 a0 bc 0d ab cb 3d 67 21 3a be
       0.12337488 -0.019625515 0.09944735 -0.18176804
0000b0 5e 72 75 bd 44 5f 8e bd 6c d4 21 be 31 ee c3 bd
       -0.059923522 -0.06951764 -0.15803689 -0.09566916
0000c0 33 d6 30 be 73 c0 c0 3c c2 18 93 3d 02 6e 16 3e
       -0.1726921 0.023529267 0.071824566 0.14690402
0000d0 66 b9 3f be 4f 30 24 bf 78 92 b3 3e c3 31 99 3d
       -0.18723068 -0.64136213 0.35072684 0.074801944
0000e0 12 ff 29 bd 5e 10 4b bb 80 43 e1 bd 73 f5 9f 3e
       -0.04150302 -0.0030985097 -0.10999203 0.3124195
0000f0 b1 44 0e be 29 8c 4b be 56 af 16 be b1 47 91 3e
       -0.13893391 -0.19877686 -0.14715323 0.2837501
000100 25 96 9e be 22 7c bf bc bc 44 9a 3e fb 0c 07 3e
       -0.30973926 -0.02337462 0.30130565 0.13188545
000110 a9 27 90 be 31 a7 32 3d 0b 13 71 3e 56 c4 c7 3e
       -0.28155258 0.043616477 0.2354242 0.3901698
000120 1f 6c ab 3e ba ff 29 3e 48 1f 29 bd c4 53 00 3e
       0.33480927 0.16601458 -0.041289598 0.12531954
000130 3a 86 c1 3e 63 0c 9a be 6a ef 63 bd 1b 7e 26 be
       0.3779772 -0.30087575 -0.055648245 -0.16259043
000140 f7 93 99 bd bc c6 07 3d a9 a5 77 3e 95 c2 37 be
       -0.07498925 0.033148512 0.24184288 -0.17945321
000150 f7 18 61 bd bd ab 2b bd 5a 6a 9b be 9e ff 6a 3d
       -0.05495545 -0.04191183 -0.30354577 0.05737268
000160 96 1f fe bd 76 49 96 3e 04 09 42 be 52 98 67 bd
       -0.12408368 0.2935292 -0.18948752 -0.05654175
000170 a8 2b 80 be 0b 15 da 3d 3b 22 67 3e 37 21 c6 be
       -0.25033307 0.10648545 0.22571652 -0.38697216
000180 fd 05 0d be 73 34 ce bd 37 ad d3 3e 8b 4e ac 3c
       -0.13771816 -0.10068598 0.4134309 0.021033546
000190 34 6e c1 be fa e1 59 3e c3 a0 2a bd d0 06 b1 3e
       -0.3777939 0.2127761 -0.04165722 0.3457551
0001a0 51 cf 1a 3e 8a b8 3b 3d 99 7e 8c 3c e8 90 02 be
       0.15118147 0.045830287 0.01715021 -0.1275059
0001b0 b0 b3 11 3d a8 6a 04 be c6 7e 96 3e 10 b7 52 3d
       0.035571754 -0.12931311 0.29393595 0.051444113
0001c0 5d 2e df 3d 59 3f 15 be a5 cf 92 3e c3 dd 9a 3e
       0.10897515 -0.14574946 0.28674045 0.30247316
0001d0 fb e3 95 3e 76 ed 84 3e c3 9d ac ba 86 df fb 39
       0.29275498 0.25962418 -0.0013169575 0.0004804099
0001e0 45 21 bf be 67 05 7f bb ec 22 91 3c 36 3f 8c 3d
       -0.3733007 -0.0038913132 0.017716847 0.06847994
0001f0 ad d2 28 3e 70 ae 24 be 3f 2f 95 3d 41 6e c3 bd
       0.16486616 -0.16082168 0.07284402 -0.09542514
000200 30 84 41 3e 2b 72 ae 3c e4 77 10 3e b9 e5 c1 3d
       0.18898082 0.021294674 0.14108235 0.09467644
000210 96 87 10 be 0f e1 bf 3d 08 a1 cf 3e 34 c8 a3 3e
       -0.14114222 0.093690984 0.40552545 0.3198868
000220 74 71 a2 bd 45 86 25 3e 46 9b f5 bd ea a9 27 3d
       -0.07931796 0.16164501 -0.11992507 0.040933527
000230 15 a4 a1 3e ec f3 da 3e 4b 97 a8 be 08 5a 8a 3d
       0.31570497 0.42764223 -0.32927927 0.06755453
000240 bf cc 00 be 30 cc 68 3e b0 4c ad be b7 1d a1 3d
       -0.12578104 0.22734141 -0.3384757 0.07866996
000250 d7 9a 41 3e b1 fd dc 3e 47 cc bd bd 29 b2 4d bd
       0.18906723 0.431623 -0.092674784 -0.050218735
000260 06 6f 50 bd ee 6b 2d 3c 34 ae 1c be 68 e6 2d 3e
       -0.05088713 0.0105848145 -0.15300828 0.16982424
000270 72 36 8b bd a3 05 41 be 7a 3d 57 be 53 28 0a 3e
       -0.06797494 -0.18849806 -0.21019545 0.13491945
000280 8c fc 73 3e 4f 40 90 3e fb a8 f6 bd ab 78 5e bd
       0.23826808 0.28174064 -0.12043949 -0.054314297
000290 63 f8 64 3e 7f 7f a1 3c 22 2f 89 bd 96 95 29 be
       0.22360377 0.019714115 -0.06698443 -0.16560969
0002a0 df e1 b4 3d 8c 07 bb 3e 7c 1a 09 bc 0f 09 8d be
       0.08832144 0.36529195 -0.008368131 -0.27545974
0002b0 04 2d 87 3e 99 7d 4a be 53 70 89 3d 97 0e d6 3e
       0.26401532 -0.19774474 0.06710877 0.41808006
0002c0 c2 7d 49 be 39 70 64 be da fd 9b 3e 11 8f e3 3c
       -0.19676879 -0.22308435 0.3046711 0.02777818
0002d0 58 84 a2 be 8f 80 2d be 31 37 73 bd 2d 71 e5 3e
       -0.31741595 -0.16943572 -0.059378807 0.4481291
0002e0 fb 40 45 3e a2 8b 00 be 9a 65 fb bc ed 93 9d 3d
       0.1926307 -0.12553266 -0.030688096 0.0769423
0002f0 0f 63 04 3d 3e e7 37 3d 53 ff e1 3d 61 92 e4 bd
       0.032321032 0.044898264 0.11035027 -0.11160732
000300 8d a7 f2 3c 39 64 03 3d 26 dd b5 bd 95 77 2c 3d
       0.02962091 0.032078 -0.08880071 0.04210623
000310 c5 6f 25 be be 41 3f 3e 06 36 3f 3e 33 e1 99 3d
       -0.16155918 0.18677422 0.18672952 0.075136565
000320 44 f3 a0 3e ab 26 14 3e 7b ef b1 be b7 e0 11 be
       0.31435597 0.14467876 -0.34753022 -0.14245878
000330 82 b6 c4 3e 32 de 03 bf ba ce 2c 3e b7 d8 10 bf
       0.38420492 -0.5151092 0.16875735 -0.5658068
000340 4f 32 78 3d 80 22 d9 bc ce 0a 41 3e 3f a0 c3 bd
       0.060594853 -0.026505709 0.18851778 -0.09552049
000350 71 c3 11 be b0 35 99 3e 84 3e 85 3e 85 8b 7c 3e
       -0.14234711 0.29923773 0.26024258 0.24662597
000360 e1 24 e2 3e be 69 08 be 28 eb 57 be 95 cc 1d 3d
       0.4416876 -0.13321587 -0.21085799 0.038525183
000370 0e 91 8b be 17 16 8e 3e 52 81 ff 3e d6 4a ad 3d
       -0.27259105 0.27751228 0.4990335 0.084615394
000380 ab 86 d1 be 50 a1 db 3e 70 e4 61 be 53 98 b8 bd
       -0.40923056 0.4289651 -0.22059798 -0.090134285
000390 2e cc bd 3e c9 ae 33 3d 04 af a7 3e d3 51 13 3c
       0.3706984 0.04386786 0.32750714 0.008991676
0003a0 6c c1 85 bd 09 e2 18 3c d3 3c 4d 3e b8 3c 04 3e
       -0.06531033 0.009331235 0.20042734 0.12913787
0003b0 4e 57 f3 bd ab cd be bd 5c 24 cc 3d ae e2 cd 3d
       -0.118818864 -0.09316572 0.099678725 0.10053001
0003c0 dd 40 ee bd a7 7e 01 be a2 35 2c be ef fa 98 be
       -0.116334654 -0.1264597 -0.16817334 -0.29878947
0003d0 ab 83 69 bd 8a da 54 bd 43 7a 66 3e 7b d8 e9 bd
       -0.057010334 -0.051966228 0.22507577 -0.114182435
0003e0 b3 84 38 3e 1e 8d 5a 3e 7c d6 d4 3e 57 18 43 3e
       0.1801937 0.21342894 0.4156989 0.19052254
0003f0 38 fe 85 be 78 0a 6f bd be c1 53 bd a0 f8 ac 3e
       -0.26170516 -0.058359593 -0.05169844 0.33783436

bias f4 [12]
000000 57 7d cd 3c e5 0c b3 3c 96 1e 2b 3c c7 e1 13 ba
       0.02508418 0.021856735 0.010444304 -0.00056412484
000010 32 55 bd 3c 99 9a fd 3c a0 a4 cf bc 03 87 fe bb
       0.023111913 0.030957507 -0.025347054 -0.0077675595
000020 2a 3a 5d bc 32 9c 3f bb a9 f0 7d 3b d4 24 a4 3b
       -0.013502637 -0.0029237387 0.003874818 0.005009273

weight f4 [12, 12, 3, 3]
000000 4d 04 e9 3d 13 f3 65 be 22 09 50 be 6d 37 95 3e
       0.113777734 -0.22456007 -0.20315984 0.2914385
000010 87 57 44 3c db b6 e6 3d 7c 16 21 be 94 97 b6 bd
       0.011983759 0.11265346 -0.15731233 -0.0891563
000020 da 8f b5 bd 76 99 f7 bd fa 96 02 3f 34 1d a8 3c
       -0.08865328 -0.12089817 0.5101162 0.020521738
000030 52 33 22 bc e0 a7 ae bc ab f4 8c be e3 25 04 be
       -0.009899931 -0.021320283 -0.27530417 -0.12905078
000040 67 78 87 3c 96 62 62 3e 46 33 ba bb 18 0b f2 3d
       0.016536904 0.2210792 -0.005682382 0.11818522
000050 9c 82 20 3e c6 8c 4c be ed 32 fd bd da c4 af be
       0.15674824 -0.19975576 -0.12363229 -0.34329873
000060 c7 ff cb 3d 09 0d ac bd 29 64 8a bb 2c ef fe 3d
       0.09960895 -0.08400924 -0.004223366 0.12447962
000070 87 47 c6 bd e3 12 85 bc 35 d3 10 bc 2f ec 12 be
       -0.096816115 -0.016244357 -0.008839418 -0.1434791
000080 bd 30 f8 bd 20 dc 5c 3e 8b c9 99 be cb 09 e6 bd
       -0.12118671 0.21568346 -0.30036578 -0.112323366
000090 a4 88 15 be fb cb 30 3d 91 90 81 be 0b 22 da 3d
       -0.14602906 0.04316328 -0.25305608 0.106510244
0000a0 5e 8d a9 bd c8 42 30 be ec 61 6b 3e 24 ef 86 be
       -0.08278917 -0.17212975 0.22986573 -0.26354325
0000b0 30 16 f3 bd ae 0a 2b 3e ff 23 8f 3e 69 7f 1c be
       -0.11869466 0.16703293 0.2795715 -0.15282978
0000c0 f5 41 3a bd 5d 7e aa 3d 20 74 2f bc d1 dc e3 3a
       -0.045473058 0.08324883 -0.010708839 0.0017384534
0000d0 da f1 c6 bd f5 0f a3 be 26 2a 87 be ba 49 32 bd
       -0.09714098 -0.31848112 -0.26399344 -0.043527342
0000e0 ae 9b 21 3e 5d 53 5d be f5 d5 68 3e 13 92 ca bd
       0.15782043 -0.21613832 0.22737868 -0.09891143
0000f0 6d 7e e1 bd ce d4 bb bd 82 13 4b 3e 20 84 9a 3e
       -0.11010442 -0.09171449 0.1983166 0.30178928
000100 ea 14 52 3e 66 f0 29 be a0 ab 89 be a9 d0 0b be
       0.2051579 -0.16595611 -0.26888752 -0.13653816
000110 e4 0c 1b be 56 be 1b be 49 e5 47 be 9f 18 85 bd
       -0.15141636 -0.15209326 -0.19521059 -0.06498837
000120 35 10 8e be 92 9c 3c ba ab b7 cd 3d a3 53 49 3e
       -0.2774674 -0.00071949617 0.100447975 0.19660811
000130 f8 af 83 3e c5 23 65 be f7 d5 fa bd 50 5e bb bd
       0.2572019 -0.22376926 -0.12247842 -0.09148848
000140 8e 38 92 3e da f2 8b 3d dd 39 2e 3e 14 c4 38 be
       0.28558773 0.0683343 0.1701426 -0.18043548
000150 21 19 df 3e 57 87 59 3c 62 06 c4 bd bd 43 9b 3c
       0.4357386 0.013276896 -0.0957153 0.018953199
000160 f2 b8 a4 3d 9a af 1e 3e 2e e0 31 be 64 e7 96 bd
       0.08043088 0.15496674 -0.17370674 -0.07368353
000170 7e 61 01 3e 57 59 4a be 6e ab b8 3d a0 70 03 be
       0.12634847 -0.19760643 0.090170726 -0.12835932
000180 18 aa dc bd 4b 64 99 bd be c8 03 bd 04 94 02 be
       -0.1077463 -0.074898325 -0.032173865 -0.12751776
000190 ab 44 87 3e 43 90 ba 3d 24 5f e8 be 6c 29 a6 3d
       0.26419577 0.09109547 -0.45385087 0.08113369
0001a0 fb 55 91 3e 31 52 9f bc 22 e4 51 be c9 ec 4a 3c
       0.2838591 -0.019448372 -0.20497182 0.012385556
0001b0 7a 20 26 be 69 4f f2 be 68 e5 40 3d 14 fe 4b 3d
       -0.16223326 -0.4732621 0.04709378 0.049802855
0001c0 34 d0 4d bd fc ad 3c 3e 86 0a ef 3d 8d 08 50 be
       -0.050247386 0.18425745 0.11671929 -0.20315762
0001d0 ad 22 c7 ba ef 3a 4b be 20 f2 5d be 3b ef 04 3d
       -0.0015192829 -0.198467 -0.21674395 0.03245471
0001e0 f6 36 01 3d ea 7d c9 3d c8 e4 af bd 8a 70 55 be
       0.031546555 0.09838469 -0.085885584 -0.20843711
0001f0 84 09 64 3e f8 a8 ce 3d 31 92 97 bd 8d db 18 3c
       0.22269255 0.10090822 -0.07400931 0.009329689
000200 44 ed 41 3d 3d 1c f7 3d b2 0a 95 be 66 92 8d 3d
       0.047345415 0.12065933 -0.29109722 0.06912689
000210 3e 63 50 bd bf 7a 96 3e b9 5a a5 bd ea 42 a2 bd
       -0.050875895 0.29390523 -0.080739446 -0.07922919
000220 f7 2d 14 3c 29 15 13 3e 9a 2c 4e be 1f dd f8 3d
       0.009044162 0.1436354 -0.20134202 0.121515505
000230 b9 8b bb bd 40 e0 d1 3d ab e2 ff bd fb 39 3b be
       -0.09157509 0.102478504 -0.12494405 -0.18283837
000240 26 d3 ac 3d b3 5e 12 be 3d 8e fb bd fd a4 d5 bc
       0.08438711 -0.14293937 -0.12282989 -0.02607965
000250 b9 1d 61 be 32 d3 2e be 89 c7 16 3e c0 b8 03 be
       -0.21983995 -0.17072752 0.14724554 -0.12863445
000260 44 e4 3b 3e 52 5f 62 3d 71 a2 87 3d 1c e3 61 be
       0.18348795 0.055266686 0.0662278 -0.22059292
000270 f5 45 9f bd de f4 4e be c9 9b a5 3d 7a 36 4a be
       -0.07777015 -0.20210597 0.08086354 -0.19747344
000280 23 0b 30 be d3 77 c5 3c c5 48 9c 3e f5 b0 ae bd
       -0.17191748 0.024104988 0.3052427 -0.085298456
000290 76 93 c4 bd ff b0 1b be 5c c5 f0 3d 3a 5e 54 3e
       -0.095984384 -0.15204237 0.11756393 0.2073907
0002a0 34 a4 c0 3c a2 2b e8 3c 20 1f be bd ea 64 c3 be
       0.023515798 0.028341118 -0.092832804 -0.3816293
0002b0 16 c3 39 be 0b 8e 6b be cd ac 93 3d 29 8f 10 be
       -0.18140826 -0.23003404 0.072106935 -0.14117111
0002c0 a2 2f 7c be 57 09 dd bd 0b b6 92 3d 9f ff 1f 3d
       -0.24627545 -0.10792797 0.07163628 0.03906214
0002d0 79 fa 3a bd 9d 9b 75 bd af ba a5 3d 3b 4f 94 3e
       -0.045649026 -0.059962858 0.08092248 0.28966698
0002e0 4f 68 8a 3e ed bb 3e 3e 5f 53 05 3e b9 76 09 bd
       0.27032706 0.18626375 0.13020085 -0.03356049
0002f0 11 bf 8d 3d ce 1d fc 3b c6 3f 07 3d 45 16 86 3e
       0.06921209 0.0076939827 0.033019803 0.26188865
000300 d9 4c 80 be c4 36 c1 3d a6 51 ae 3d 49 29 0f be
       -0.2505863 0.09434274 0.08511667 -0.13980593
000310 19 f6 6f be 7d 28 bd be c4 2b 9f bd d2 1c 10 bd
       -0.23433723 -0.36944953 -0.077720195 -0.035183735
000320 1a e9 9d 3d ce 94 e9 3e 7d 87 a0 3d d4 e7 1a 3e
       0.07710476 0.4562134 0.07838342 0.15127498
000330 6b c4 93 be e8 67 de 3e 06 41 cf 3c ab 73 ea 3d
       -0.28860793 0.4343865 0.02529956 0.11447843
000340 5f 2a eb 3d 72 1b e1 bd 36 df 89 3e d8 fc e5 3d
       0.11482691 -0.10991563 0.2692811 0.11229867
000350 2f a4 48 be 93 4b aa bd 99 a1 cb bb f4 a5 b0 3c
       -0.19593881 -0.08315196 -0.0062143323 0.021563508
000360 20 d0 e4 3d 55 50 96 bc a8 51 e1 bc a2 09 df be
       0.11172509 -0.018348852 -0.027504757 -0.43562037
000370 a5 31 c8 bc 56 15 8d be 4f be 36 be f0 ed 5f be
       -0.024437735 -0.2755534 -0.17846034 -0.2186811
000380 26 74 b2 3d 44 e5 2a 3e d2 ae 64 bd d1 9d 89 3e
       0.0871356 0.1668902 -0.055830784 0.26878217
000390 dd d2 ef 3e 7d 54 78 3c 18 a2 d1 bd 7e b0 d4 3d
       0.46840563 0.015156862 -0.10235995 0.10385226
0003a0 f0 6e dd bd 20 46 6a 3e d2 87 53 be fc bf 01 be
       -0.10812175 0.22878313 -0.2065728 -0.12670892
0003b0 19 22 69 3d a9 2b 73 be c6 f0 a4 3d cf d1 37 bd
       0.056917284 -0.23747124 0.080537364 -0.044877823
0003c0 e9 51 f8 3a fb 9d d0 3d 5e 4d 05 bd 20 20 31 be
       0.001894531 0.101863824 -0.032544486 -0.17297411
0003d0 d3 57 6f 3d 5c 48 ec bd 87 b0 7d be b5 33 27 bd
       0.058433365 -0.11537239 -0.24774371 -0.040820796
0003e0 5c 59 fc bd 14 ef 3c be d2 d1 c5 3c 0e 4b 84 be
       -0.123217314 -0.18450576 0.024147902 -0.25838512
0003f0 c0 85 0e be 9d 99 35 3e 28 de ab 3d 9a 19 10 3d
       -0.13918209 0.1773438 0.08391982 0.035180666

bias f4 [12]
000000 37 42 09 bc 36 4e 06 bc 17 10 b5 3a da 25 9b 3d
       -0.008377603 -0.008197358 0.0013813999 0.07575579
000010 49 9b 76 bc ee 27 1d bd 9c e3 11 bc 1e 3a 43 bc
       -0.015051671 -0.038368158 -0.008904364 -0.011915712
000020 e3 f1 33 bc 26 5f 0f bb 68 c0 96 bd e5 ea ec bc
       -0.010982963 -0.0021876781 -0.07360917 -0.0289206
