model/epoch_39.pt (torch, 65617 bytes, 15 tensors)

weight f4 [64, 1, 5, 5]
0.17516097 -0.0076935114 0.0030355526 0.073197104 -0.23432693 0.057014797 0.2255372 -0.10049815
-0.08222905 0.41872725 -0.1066413 0.096313156 0.06935717 0.17611189 -0.22013207 0.30652747
0.12377758 -0.12519464 -0.18467547 -0.035319325 0.24892235 0.1307474 -0.012166333 0.33938247
-0.37697732 -0.1322517 0.13419774 0.009291575 0.105443366 0.23526104 0.14162752 -0.05525545
-0.117011204 0.21345629 -0.29685763 -0.004942469 0.19069944 -0.03404695 0.13284934 0.11152974
-0.05742081 0.23228084 0.098613665 0.03281298 0.11378302 -0.015315288 -0.10796361 0.09284773
-0.21885087 0.29249817 -0.09326823 0.06669268 0.15006123 -0.03904881 0.18371172 0.02876843
0.2120623 -0.233325 -0.28742048 0.3206375 0.12482331 0.21949047 -0.14858036 -0.4026621
0.18299568 0.06803812 0.0044752154 0.018043274 0.33752295 -0.22941981 0.1241707 -0.12499937
0.048874307 -0.03436586 -0.11999158 0.276505 -0.018979283 0.10339511 -0.28456447 0.2712709
0.095277734 0.038898904 0.035116885 0.12193446 -0.1557388 -0.3034403 -0.52229506 0.07593007
0.19217522 -0.09115454 0.12107568 0.006538298 0.06494364 0.17794612 0.118437715 -0.14873226
-0.105658576 0.0695886 0.121175654 0.12975605 -0.5054879 -0.56839794 0.2248008 0.057972454
-0.06339387 0.29995292 0.4758935 -0.02428918 0.055395935 0.0006393119 0.2963206 -0.13638213
-0.11932686 -0.16725461 0.18847266 -0.32439604 -0.15909064 -0.039827168 -0.3691136 -0.47580054
-0.042142563 0.24908076 0.012566579 0.3990464 0.05940491 0.15130384 -0.12592417 0.0025222383
-0.25495744 -0.1526846 0.10719534 -0.30621842 0.290918 -0.1126044 -0.049047172 0.014169603
0.14912695 0.0741914 -0.33067852 -0.19643761 -0.047330707 -0.24624905 0.110978924 0.0016941116
-0.05030209 -0.060846575 0.071269214 0.33960363 -0.11182748 0.45229563 -0.049564105 -0.008889577
0.010588869 0.22087431 -0.23723862 -0.2868317 0.002159287 -0.13957371 -0.4357608 -0.14175907
-0.22596252 0.09907158 0.093904525 -0.0864125 -0.22994938 -0.12716098 -0.1789522 -0.12564011
0.06574924 0.055266526 0.22866617 0.31909516 -0.40002683 0.113135 -0.3728877 -0.35245782
0.0626115 0.6140009 0.14504099 0.022331828 -0.53353304 0.0930357 -0.24467565 -0.15456091
0.12629434 0.47726804 0.04684183 -0.035074584 -0.010375126 0.096306294 0.029874343 0.12271843
-0.060475394 0.06263325 -0.009346822 -0.09459943 -0.1611594 -0.008202554 -0.0029054438 0.023355132
0.044166338 -0.15927061 0.20899454 0.024688868 0.13577035 -0.060342077 -0.020887911 0.25359935
0.41169804 0.045224816 -0.05174828 -0.0006567111 -0.2838893 0.040407583 0.07557817 -0.23241386
-0.18962154 -0.096881956 -0.2960779 -0.12012292 -0.16007663 -0.37339896 -0.07761071 -0.050883822
0.106010035 0.011653281 0.2879161 -0.26723132 -0.037342317 -0.25176662 -0.20353045 0.065603495
0.057071734 0.10992918 -0.30197403 0.13523859 -0.3391198 -0.21153907 0.08685786 -0.17445394
-0.10256186 -0.20701794 0.24411365 -0.038471933 -0.20047121 -0.061699074 0.13854757 -0.014197598
0.20308703 0.24337535 0.032165706 0.14146355 0.18269248 -0.16166817 -0.024826648 -0.6639868
00000000: 665d 333e da19 fcbb 1ff0 463b 5de8 953d
00000010: 66f3 6fbe 5988 693d 39f3 663e f9d1 cdbd
00000020: b467 a8bd 6b63 d63e c166 dabd d53f c53d
00000030: 220b 8e3d ad56 343e 4d6a 61be 2bf1 9c3e
00000040: 1a7f fd3d 0633 00be 911b 3dbe ffaa 10bd
00000050: 80e5 7e3e a5e2 053e 4d55 47bc 8ac3 ad3e
00000060: 2c03 c1be fd6c 07be 226b 093e b13b 183c
00000070: b1f2 d73d 45e8 703e ce06 113e 8a53 62bd
00000080: 92a3 efbd 4994 5a3e b9fd 97be 6ff4 a1bb
00000090: b746 433e d174 0bbd a809 083e b469 e43d
000000a0: 1532 6bbd 07db 6d3e f6f5 c93d e766 063d
000000b0: 1207 e93d f9ec 7abc 061c ddbd f326 be3d
000000c0: 711a 60be 52c2 953e 6a03 bfbd 2c96 883d
000000d0: a7a9 193e a5f1 1fbd ed1e 3c3e c5ab eb3c
000000e0: dc26 593e c0ec 6ebe c728 93be 992a a43e
000000f0: 5da3 ff3d 1cc2 603e 7325 18be ba29 cebe
00000100: 3863 3b3e 9257 8b3d d4a4 923b 7dcf 933c
00000110: cfcf ac3e 07ed 6abe 354d fe3d abff ffbd
00000120: 6d30 483d 37c3 0cbd 25be f5bd 1092 8d3e
00000130: 717a 9bbc d1c0 d33d 6fb2 91be 05e4 8a3e
00000140: f920 c33d 7554 1f3d b9d6 0f3d c6b8 f93d
00000150: fe79 1fbe 875c 9bbe 21b5 05bf 3981 9b3d
00000160: 95c9 443e 3baf babd 87f6 f73d 383f d63b
00000170: 2c01 853d 8237 363e 798f f23d 454d 18be
00000180: 8663 d8bd 7884 8e3d f12a f83d c5de 043e
00000190: a867 01bf 8782 11bf 2e32 663e 8674 6d3d
000001a0: a5d4 81bd 6e93 993e 50a8 f33e 1afa c6bc
000001b0: d9e6 623d 7f97 273a 55b7 973e c2a7 0bbe
000001c0: a461 f4bd cb44 2bbe fafe 403e 3d17 a6be
000001d0: a8e8 22be d021 23bd 75fc bcbe 219c f3be
000001e0: ae9d 2cbd 070f 7f3e 0de4 4d3c cf4f cc3e
000001f0: 9052 733d 65ef 1a3e 44f2 00be 234c 253b
00000200: c889 82be 5a59 1cbe 3b89 db3d a9c8 9cbe
00000210: 34f3 943e 239d e6bd b0e5 48bd 9f27 683c
00000220: bcb4 183e a9f1 973d b24e a9be f126 49be
00000230: d8dd 41bd b628 7cbe eb48 e33d f40c de3a
00000240: 9009 4ebd 423a 79bd 98f5 913d 87e0 ad3e
00000250: ce05 e5bd 4b93 e73e bb03 4bbd 97a5 11bc
00000260: f07c 2d3c e02c 623e aeee 72be 9bdb 92be
00000270: d382 0d3b 69ec 0ebe 0a1c dfbe 4a29 11be
00000280: b862 67be 0ae6 ca3d 0451 c03d 09f9 b0bd
00000290: da77 6bbe 7d36 02be 3f3f 37be cda7 00be
000002a0: 8aa7 863d 275f 623d 7727 6a3e 7160 a33e
000002b0: 51d0 ccbe 53b3 e73d 23eb bebe 5a75 b4be
000002c0: 753a 803d 2a2f 1d3f a085 143e 3df1 b63c
000002d0: 9f95 08bf 8089 be3d 418c 7abe 3745 1ebe
000002e0: 4e53 013e 7a5c f43e 38dd 3f3d 5eaa 0fbd
000002f0: 6ffc 29bc 3c3c c53d 0abb f43c cd53 fb3d
00000300: 0cb5 77bd dd45 803d 6a23 19bc 59bd c1bd
00000310: f806 25be 0164 06bc 4269 3ebb 4353 bf3c
00000320: c3e7 343d d617 23be aa02 563e 4f40 ca3c
00000330: 6207 0b3e 4129 77bd 201d abbc c6d7 813e
00000340: 16ca d23e a83d 393d 01f6 53bd 2327 2cba
00000350: f059 91be 6c82 253d bac8 9a3d e6fd 6dbe
00000360: 262c 42be 0c6a c6bd 8697 97be 0103 f6bd
00000370: 21eb 23be 262e bfbe 5df2 9ebd 8e6b 50bd
00000380: ca1b d93d 67ed 3e3c bd69 933e 8bd2 88be
00000390: 42f4 18bd 8ee7 80be 496a 50be 205b 863d
000003a0: 0dc4 693d 8d22 e13d 579c 9abe fc7b 0a3e
000003b0: 1ca1 adbe b39d 58be 89e2 b13d 0ea4 32be
000003c0: f40b d2bd 83fc 53be eef8 793e bf94 1dbd
000003d0: 5348 4dbe 2bb8 7cbd 6adf 0d3e 0b9d 68bc
000003e0: 0cf6 4f3e 6337 793e 30c0 033d d2db 103e
000003f0: bd13 3b3e 578c 25be 4161 cbbc 0afb 29bf

bias f4 [64]
0.0059109223 -0.011034672 0.0073472643 -0.00059783837 -0.016142692 0.00025090098 -0.01579302 0.0036417358
-0.025337324 -0.033480205 0.0015269804 0.003361922 0.0135435555 -0.006620375 -0.0018990192 -0.036937553
0.013040508 0.013318502 0.028380897 -0.030959744 -0.0053046676 0.017552955 0.011251125 -0.016083485
-0.011211118 0.010831816 -0.017571555 -0.0040233997 -0.023874229 0.020009628 -0.01079189 -0.019354003
0.044638045 -0.003556243 -0.0033374203 -0.001063107 -0.018892698 0.006668574 -0.016485509 0.029171469
-0.00018713815 -0.0027393752 -0.013714521 0.025749695 0.019737465 0.0069858115 0.008576843 -0.020086564
0.014375749 -0.011556976 0.007877385 0.004359858 0.0066964994 -0.0074749147 -0.0120589435 0.03669632
-0.025280396 -0.018782066 -0.006026985 -0.009950687 0.00027946936 -0.0023815178 -0.013196202 0.0048202965
00000000: 69b0 c13b c5ca 34bc 52c1 f03b 41b8 1cba
00000010: ae3d 84bc 5c8b 8339 5d60 81bc 30aa 6e3b
00000020: 3890 cfbc 8a22 09bd f624 c83a b153 5c3b
00000030: cae5 5d3c bbef d8bb 83e8 f8ba d54b 17bd
00000040: dba7 553c d935 5a3c 0e7f e83c 4a9f fdbc
00000050: c7d2 adbb 37cb 8f3c a356 383c 83c1 83bc
00000060: d6ae 37bc ee77 313c 39f2 8fbc b9d6 83bb
00000070: e393 c3bc 3beb a33c 78d0 30bc 498c 9ebc
00000080: 62d6 363d db0f 69bb 9fb8 5abb f457 8bba
00000090: dcc4 9abc 0e84 da3b 9e0c 87bc 01f9 ee3c
000000a0: 843a 44b9 1787 33bb dfb2 60bc 06f1 d23c
000000b0: 77b0 a13c 3ce9 e43b e385 0c3c 948c a4bc
000000c0: 4388 6b3c 7859 3dbc 2610 013c 24dd 8e3b
000000d0: 4f6e db3b 21f0 f4bb e092 45bc e14e 163d
000000e0: d518 cfbc d9dc 99bc 047e c5bb 3508 23bc
000000f0: be85 9239 3d13 1cbb e234 58bc 94f3 9d3b

weight f4 [12, 64, 1, 1]
0.2222389 -0.050302755 -0.008877543 0.45093444 0.18975557 0.13019489 -0.019406533 -0.24876644
-0.0037622713 0.13770586 -0.044059765 -0.29984045 0.059177686 -0.25077266 -0.26569942 0.06962648
0.02812033 0.2418214 0.25665888 -0.22001968 -0.18298624 -0.5057063 -0.003688393 0.06817811
0.10765962 -0.0687588 -0.258708 -0.1042553 0.03914833 0.019908378 -0.04573714 0.10289374
-0.06729672 -0.10626303 0.11118031 -0.011758756 0.06166666 0.2699926 0.0846873 -0.003976827
-0.053938664 -0.2358846 0.06325343 0.35114965 0.110485144 -0.14113402 -0.209326 0.18006994
-0.21181321 -0.103087716 0.07821102 -0.14617285 -0.10126941 -0.16541125 0.031051157 -0.012445852
-0.022514604 0.36930317 0.29050153 -0.17846306 0.21722403 0.2256511 -0.01922077 0.27458325
-0.1969065 0.1567363 -0.09814658 0.32677028 0.18207014 0.04883896 -0.1518405 -0.25402948
-0.24155013 0.083914354 0.3386862 -0.14383341 0.24343944 0.05524569 0.015554132 0.12393792
0.20730571 -0.19833335 -0.10962127 0.09411717 0.010017407 -0.22179966 0.108971 -0.014974167
0.083340734 -0.23743704 -0.035780847 0.07312509 0.34853768 -0.037918147 0.2246696 0.08307331
-0.21142168 0.25128317 -0.06539163 0.15492159 0.130952 -0.30835393 -0.113059714 0.25948468
0.19399428 -0.092495576 -0.39963228 -0.0099446615 -0.037346434 -0.29300034 -0.26290688 -0.29661518
-0.2893248 -0.04021057 -0.14721878 -0.14925501 -0.11281767 0.05473985 0.31420195 -0.22291258
0.12183758 -0.06268789 0.20315258 0.038902257 0.015028351 0.24678648 0.15781274 -0.2248895
0.31444097 -0.11228657 -0.2068999 0.02162768 -0.097666465 0.3941704 -0.2655506 -0.11927419
-0.08345845 0.15687318 -0.2217272 -0.08664598 0.039319344 -0.004914137 0.104491286 -0.28731298
-0.44043773 -0.1979081 -0.11950782 -0.26290956 -0.077761814 -0.043764476 0.16831465 -0.16851988
-0.27114388 -0.15107569 -0.28471833 0.27783117 -0.06942667 0.011603659 0.5033157 -0.06794886
0.12346437 0.029685766 -0.13843015 -0.52128893 -0.024386246 -0.13806595 -0.06681456 0.015717516
0.17147918 -0.2853622 -0.069909394 0.0009834883 0.07037386 0.016471384 0.23635486 -0.18034865
0.10575124 -0.15347971 0.39830366 0.024003498 -0.23939657 0.2045391 0.019748094 -0.062021077
0.0034062897 0.064954035 0.508818 0.034084752 0.21060246 -0.27555552 -0.15000767 -0.119836725
-0.13716185 -0.13710976 -0.16614956 -0.22935699 -0.15691458 -0.09613181 -0.3878624 -8.109852e-05
0.14925762 0.07680516 0.102988526 -0.08051103 0.12568285 -0.19629838 0.31582153 -0.23158062
0.03648326 0.028947044 -0.14114085 -0.08068695 -0.120112516 -0.009860758 -0.15222518 0.03649952
-0.11583282 0.019551773 -0.13738279 -0.12389236 -0.21994506 0.13007122 -0.08120908 -0.019629346
0.3599511 -0.01439932 0.083947554 0.08936988 -0.091201 -0.04573443 -0.035322957 0.0010156672
0.08722057 -0.20109846 -0.15461257 -0.15406658 0.3568881 -0.26924902 -0.3163155 0.13023086
0.0083068935 0.1148273 0.20082909 0.18668447 -0.3836454 0.22433631 -0.0638422 0.2845131
0.052018527 -0.16111235 -0.05096669 -0.097146034 -0.28732783 0.0025676757 -0.039269805 -0.059474494
00000000: 9892 633e 430a 4ebd 1d73 11bc e1e0 e63e
00000010: 494f 423e cf51 053e 73fa 9ebc a1bc 7ebe
00000020: 7090 76bb c402 0d3e 0378 34bd b084 99be
00000030: 4d64 723d 4665 80be c109 88be 5498 8e3d
00000040: 9b5c e63c 07a0 773e cb68 833e d74c 61be
00000050: bf60 3bbe f875 01bf f7b8 71bb f7a0 8b3d
00000060: a67c dc3d 6ad1 8cbd 6075 84be cd83 d5bd
00000070: 005a 203d e516 a33c de56 3bbd f4b9 d23d
00000080: ddd2 89bd 6ea0 d9bd 81b2 e33d cca7 40bc
00000090: 2e96 7c3d 783c 8a3e 8970 ad3d 0b50 82bb
000000a0: caee 5cbd bc8b 71be 048b 813d e3c9 b33e
000000b0: 0946 e23d 7085 10be 8e59 56be 4164 383e
000000c0: 90e5 58be a71f d3bd 192d a03d 56ae 15be
000000d0: 5666 cfbd 9161 29be ff5e fe3c b0e9 4bbc
000000e0: 8c70 b8bc 4e15 bd3e 9ebc 943e 05bf 36be
000000f0: fa6f 5e3e 1511 673e e074 9dbc 2d96 8c3e
00000100: dca1 49be 7b7f 203e 1301 c9bd 6f4e a73e
00000110: 9870 3a3e 5c0b 483d 137c 1bbe 2710 82be
00000120: eb58 77be 4adb ab3d 4768 ad3e 1149 13be
00000130: 3048 793e 4e49 623d c2d6 7e3c 2ad3 fd3d
00000140: f347 543e e617 4bbe 1e81 e0bd 81c0 c03d
00000150: 0d20 243c 731f 63be 302c df3d 3556 75bc
00000160: 8cae aa3d b222 73be f08e 12bd 9bc2 953d
00000170: 8873 b23e 0f50 1bbd ca0f 663e 5722 aa3d
00000180: ed7e 58be 30a8 803e 0cec 85bd c4a3 1e3e
00000190: 4818 063e 91e0 9dbe da8b e7bd 2ddb 843e
000001a0: 70a6 463e 526e bdbd 9a9c ccbe efee 22bc
000001b0: 93f8 18bd 2404 96be bb9b 86be f2dd 97be
000001c0: 6122 94be d7b3 24bd 85c0 16be 4ed6 18be
000001d0: f30c e7bd e536 603d 14df a03e 3243 64be
000001e0: fb85 f93d 8262 80bd 3b07 503e f957 1f3d
000001f0: 7939 763c 98b5 7c3e aa99 213e 6f49 66be
00000200: 68fe a03e 80f6 e5bd 91dd 53be 882c b13c
00000210: 5b05 c8bd b4d0 c93e 40f6 87be 0746 f4bd
00000220: 44ec aabd 5da3 203e 750c 63be 7373 b1bd
00000230: 520d 213d c506 a1bb 87ff d53d b01a 93be
00000240: 0e81 e1be 6ca8 4abe 84c0 f4bd 159c 86be
00000250: 9641 9fbd 6142 33bd ad5a 2c3e 7a90 2cbe
00000260: 5fd3 8abe 96b3 1abe 9ac6 91be e33f 8e3e
00000270: 922f 8ebd 461d 3e3c 4cd9 003f c628 8bbd
00000280: e3da fc3d 902f f33c a2c0 0dbe 3173 05bf
00000290: aac5 c7bc 2961 0dbe 12d6 88bd 05c2 803c
000002a0: 3d98 2f3e ff1a 92be a82c 8fbd 64e8 803a
000002b0: 2c20 903d ffee 863c 0207 723e 51ad 38be
000002c0: 1b94 d83d c929 1dbe 75ee cb3e fca2 c43c
000002d0: 6024 75be b372 513e c1c6 a13c d009 7ebd
000002e0: 0f3c 5f3b 9f06 853d e541 023f 749c 0b3d
000002f0: 2ca8 573e 9d15 8dbe 9c9b 19be f56c f5bd
00000300: 2874 0cbe 8066 0cbe 1c23 2abe 8fdc 6abe
00000310: 37ae 20be c1e0 c4bd e795 c6be 7013 aab8
00000320: fdd6 183e 064c 9d3d a6eb d23d f8e2 a4bd
00000330: 01b3 003e 7102 49be 5cb3 a13e 7823 6dbe
00000340: 796f 153d 5a22 ed3c 3a87 10be 333f a5bd
00000350: 8dfd f5bd 048f 21bc ebe0 1bbe 8580 153d
00000360: c239 edbd 0a2b a03c 13ae 0cbe 47bb fdbd
00000370: 4739 61be 6431 053e f250 a6bd b9cd a0bc
00000380: 834b b83e 20eb 6bbc b2ec ab3d 8e07 b73d
00000390: 97c7 babd 0754 3bbd ceae 10bd 2320 853a
000003a0: b3a0 b23d c1ec 4dbe c252 1ebe a1c3 1dbe
000003b0: 09ba b63e 02db 89be 1bf4 a1be 3d5b 053e
000003c0: a319 083c 932a eb3d 24a6 4d3e 372a 3f3e
000003d0: 2b6d c4be 6bb8 653e b3bf 82bd b3ab 913e
000003e0: 6111 553d a3fa 24be 73c2 50bd 80f4 c6bd
000003f0: a21c 93be 7346 283b 60d9 20bd 879b 73bd

bias f4 [12]
-0.007996434 0.0063556177 0.019117596 0.012555631 0.0033877315 -0.010837302 -0.0066814367 -0.004656547
-0.0004106349 -0.0036012114 -0.015017182 0.0033587036
00000000: 7a03 03bc c942 d03b 819c 9c3c 22b6 4d3c
00000010: b404 5e3b f08e 31bc f4ef dabb f395 98bb
00000020: 7c4a d7b9 4d02 6cbb a00a 76bc b21d 5c3b

weight f4 [12, 12, 3, 3]
-0.25782531 0.023223082 -0.058251984 -0.13428958 0.15421551 -0.09830985 0.09106207 0.38503796
-0.15586679 -0.010561701 -0.085508555 0.12873755 -0.05265168 0.016356759 -0.23451237 0.17718865
0.16048102 0.15938655 0.05465131 0.029034022 -0.1391577 -0.111275196 -0.068923615 0.32948515
0.20130396 -0.04362428 -0.108426236 -0.14446534 -0.30568534 0.123833746 -0.15707432 -0.2524186
-0.06548405 -0.055442493 -0.17243436 0.2515076 -0.25129142 0.03592127 0.11722162 0.1481793
0.07934914 0.0014296647 0.18067193 -0.34942484 0.16954967 0.13774987 0.063368194 -0.0023153177
-0.05855738 -0.19126546 0.15144187 -0.0263756 0.13710517 0.1187931 -0.09385704 -0.04670993
0.15288347 0.16480443 -0.15690464 0.24354297 -0.12651917 0.082368195 -0.17595501 -0.2786811
-0.16849212 0.103879675 0.006008089 0.30972594 0.091518074 0.061055787 0.10831213 -0.27623332
0.11766143 0.35459676 0.09949463 -0.58089733 -0.058643218 -0.34198436 0.12373302 0.21363921
0.04167534 -0.25988078 0.09579217 0.05159926 -0.07549208 0.13808826 0.10354099 0.09995997
-0.29898185 -0.2659612 0.43450776 -0.2473398 -0.34194243 -0.06616488 0.15692978 0.1714233
-0.28996286 0.009685489 0.017821731 -0.44376943 0.028259741 0.081201494 0.14675964 -0.07488995
-0.19291246 0.31217277 0.18335488 0.20304486 0.3381096 0.2721353 0.10272252 -0.04429736
-0.025918055 -0.02043915 -0.09451047 0.11914745 -0.08131229 0.10404163 -0.003726219 0.0075956085
-0.081144415 0.3606274 -0.028772855 0.10591539 -0.16533783 0.2583227 0.30423823 0.0050846655
0.12714252 0.012299013 -0.08076824 0.09697835 0.4608749 0.16227272 -0.10374468 0.09460497
0.14095695 0.2442796 0.21981342 -0.11449285 -0.1923617 0.3238708 0.23430464 0.2034833
-0.19189034 -0.13761087 -0.0723439 -0.15185186 -0.19631003 0.09220227 -0.016326912 0.18658932
0.014469078 -0.31637347 0.2980024 0.21333604 -0.056239557 -0.25226554 -0.23439795 0.07081759
-0.16164014 -0.050592292 0.3126559 0.09227851 -0.14096811 0.040067054 -0.09535305 0.11327543
-0.18604822 0.007839135 0.06849748 0.020903012 0.4328307 -0.3158187 -0.14141396 -0.02355253
-0.1818093 0.05517859 -0.009247525 -0.050162435 -0.10769115 0.104367256 -0.31287563 0.035419036
-0.068211295 0.23470794 -0.06494629 -0.10127589 0.143037 0.07508046 -0.12839268 -0.21668975
0.43714246 -0.17014563 0.13451597 0.59800273 -0.024581483 -0.022265753 -0.050829716 -0.04792573
0.27504867 0.1053345 0.092484064 -0.030688697 -0.066189826 -0.0846553 -0.4028684 0.3942847
-0.056555018 0.023162376 0.1520641 -0.17088169 -0.106564455 0.14807855 -0.116609044 -0.05473102
-0.09117356 -0.020192059 0.045208804 0.2953512 -0.16469443 -0.07821461 -0.14276543 -0.13400955
0.21077798 -0.040627826 0.14159343 0.010026993 -0.08438847 0.25425255 0.2213902 0.09569758
-0.11493235 -0.0075077843 -0.04124785 0.12981033 -0.19065218 0.0280459 -0.40059114 -0.17219353
0.04749062 0.14235322 -0.19183141 0.04030666 0.24854162 -0.04962098 0.19333632 -0.100681104
-0.031191623 -0.29895654 0.20012277 0.25607267 -0.14063993 -0.08445816 -0.08491024 -0.18019663
00000000: ae01 84be 553e be3c a299 6ebd 3583 09be
00000010: acea 1d3e ad56 c9bd c07e ba3d b223 c53e
00000020: 8b9b 1fbe fc0a 2dbc 1c1f afbd c7d3 033e
00000030: 4aa9 57bd 9cfe 853c 0324 70be f170 353e
00000040: 2355 243e 3a36 233e 0dda 5f3d c2d8 ed3c
00000050: 5b7f 0ebe 40e4 e3bd d327 8dbd 47b2 a83e
00000060: a022 4e3e 5faf 32bd 930e debd b9ee 13be
00000070: ca82 9cbe 8c9c fd3d 17d8 20be 033d 81be
00000080: 801c 86bd ab17 63bd a292 30be 9bc5 803e
00000090: 45a9 80be 2e22 133d e411 f03d 50bc 173e
000000a0: cd81 a23d 9663 bb3a 1002 393e d0e7 b2be
000000b0: 6e9e 2d3e 4d0e 0d3e 2fc7 813d 96bc 17bb
000000c0: ddd9 6fbd 18db 43be 9413 1b3e a411 d8bc
000000d0: 4c65 0c3e cc49 f33d 1f38 c0bd e952 3fbd
000000e0: 7c8d 1c3e 7ec2 283e 9cab 20be 5463 793e
000000f0: 3e8e 01be a8b0 a83d 8d2d 34be 4aaf 8ebe
00000100: 3389 2cbe debe d43d 81df c43b 6694 9e3e
00000110: d46d bb3d a215 7a3d c0d2 dd3d 746e 8dbe
00000120: 7af8 f03d b58d b53e d7c3 cb3d b0b5 14bf
00000130: df33 70bd 9318 afbe bd67 fd3d 3dc4 5a3e
00000140: c3b3 2a3d 180f 85be af2e c43d bf59 533d
00000150: 979b 9abd 0267 0d3e 4c0d d43d d0b7 cc3d
00000160: 2614 99be 112c 88be cd77 de3e a546 7dbe
00000170: 1413 afbe 7481 87bd 33b2 203e 9789 2f3e
00000180: 0376 94be e3af 1e3c e1fe 913c bf35 e3be
00000190: f980 e73c f84c a63d 2948 163e e75f 99bd
000001a0: d88a 45be 1cd5 9f3e 62c1 3b3e feea 4f3e
000001b0: b41c ad3e 5155 8b3e 2f60 d23d 2671 35bd
000001c0: 1a52 d4bc 0170 a7bc b58e c1bd 9403 f43d
000001d0: 0f87 a6bd c713 d53d 9533 74bb 95e4 f83b
000001e0: 0b2f a6bd 28a4 b83e 0db5 ebbc 2bea d83d
000001f0: 524e 29be df42 843e 1dc5 9b3e 449d a63b
00000200: a631 023e cd81 493c d269 a5bd 969c c63d
00000210: cbf7 eb3e d22a 263e 1778 d4bd 40c0 c13d
00000220: 0557 103e 6e24 7a3e c516 613e 3a7b eabd
00000230: 77fa 44be 65d2 a53e 8eed 6f3e ed5d 503e
00000240: e77e 44be dde9 0cbe 0a29 94bd 0e7f 1bbe
00000250: 7f05 49be 8bd4 bc3d 04c0 85bc 4511 3f3e
00000260: b60f 6d3c b4fb a1be c593 983e c374 5a3e
00000270: 735b 66bd f328 81be 0406 70be d008 913d
00000280: fe84 25be dd39 4fbd 6f14 a03e 84fc bc3d
00000290: f259 10be 5a1d 243d 7648 c3bd f3fc e73d
000002a0: 6d83 3ebe b76f 003c 6848 8c3d cb3c ab3c
000002b0: fc9b dd3e fdb2 a1be d2ce 10be 3cf1 c0bc
000002c0: 382c 3abe f202 623d ee82 17bc 2077 4dbd
000002d0: 2d8d dcbd 80be d53d 3c31 a0be 8d13 113d
000002e0: 5db2 8bbd 4757 703e 8f02 85bd bc69 cfbd
000002f0: 4b78 123e c9c3 993d 5f79 03be ebe3 5dbe
00000300: 23d1 df3e a83a 2ebe 8ebe 093e b516 193f
00000310: 1b5f c9bc ab66 b6bc d232 50bd c54d 44bd
00000320: 2ed3 8c3e 9db9 d73d 4968 bd3d dd66 fbbc
00000330: 888e 87bd c25f adbd c444 cebe afdf c93e
00000340: 3ca6 67bd 06bf bd3c b1b6 1b3e 9cfb 2ebe
00000350: 773e dabd e7a1 173e b9d0 eebd a22d 60bd
00000360: 34b9 babd d169 a5bc de2c 393d 4638 973e
00000370: a8a5 28be fb2e a0bd 1a31 12be cd39 09be
00000380: 2fd6 573e 5d69 26bd defd 103e 4248 243c
00000390: ddd3 acbd 642d 823e 1db4 623e 18fd c33d
000003a0: a761 ebbd dc03 f6bb 81f3 28bd 00ed 043e
000003b0: 533a 43be 84c0 e53c 481a cdbe 8053 30be
000003c0: 8685 423d 0bc5 113e 746f 44be 9918 253d
000003d0: b281 7e3e 5e3f 4bbd f5f9 453e e531 cebd
000003e0: 9385 ffbc d510 99be fcec 4c3e f51b 833e
000003f0: ea03 10be 66f8 acbd 6be5 adbd 7785 38be

bias f4 [12]
-0.0032644053 0.000622603 0.0043367376 0.017736696 0.005854952 -0.0025362666 0.0026859536 0.013799783
-0.00064272666 -0.00018531592 -0.011124365 0.0013349989
00000000: a2ef 55bb 2e36 233a 311b 8e3b 8c4c 913c
00000010: e6da bf3b 7e37 26bb d306 303b 7c18 623c
00000020: a87c 28ba 5d51 42b9 f842 36bc 21fb ae3a

weight f4 [12, 12, 3, 3]
0.111055486 -0.012936758 0.39577162 0.041026104 -0.25234738 -0.10522362 -0.057651527 0.086393386
-0.114340745 0.24460587 0.23411219 -0.29161802 0.02450335 0.08828427 -0.006454854 0.12360752
-0.16411233 0.20659852 -0.0330869 -0.25518665 -0.33139887 0.023442782 -0.4805498 0.2428846
-0.08046336 0.057079464 -0.48185137 -0.013396446 -0.12600137 0.4876212 0.099288054 0.0939309
0.02285749 -0.35400409 -0.06767514 0.013423775 0.049188994 0.0102261435 0.19190897 0.09542044
-0.006518267 0.080230854 -0.03275642 0.20308514 0.10936163 -0.05739189 0.026439535 -0.20828609
0.4026472 -0.01110698 0.021908011 -0.09610769 -0.03701439 0.004164205 -0.2967514 -0.07350837
0.034296226 -0.0072776615 -0.38471866 0.28853017 -0.14395405 0.5002003 -0.22628783 -0.08851378
-0.20173682 -0.2290978 -0.08966581 0.220261 -0.051460896 0.16155788 0.038057286 -0.3639402
0.19330527 -0.45382035 0.07529157 0.118817754 0.24178733 -0.01296151 0.11424923 -0.12405551
0.16527762 -0.050166074 0.15187569 -0.3448464 0.45424896 -0.13000782 0.016867563 0.3824352
-0.055123106 -0.15203014 0.0035928332 0.025701612 0.073039874 -0.31758252 -0.10739378 0.24592005
0.14986567 0.0007400025 -0.21039191 -0.3061857 0.20916882 0.09664419 0.3270004 0.17848086
0.006624113 -0.14939544 0.06723744 -0.33365896 -0.38923386 -0.21499372 0.036367707 -0.03943271
0.23518272 -0.20917158 0.25180638 -0.06172756 -0.013010814 -0.11086264 -0.17470337 0.14360887
-0.25816908 -0.08838787 -0.268456 0.18117186 0.01598648 -0.25937805 0.1882636 -0.037499595
0.10921958 0.014275805 0.23099943 0.38000655 -0.5442298 0.20063096 -0.1285588 -0.39556408
-0.21131563 0.09221486 -0.15059981 0.15735584 0.1651435 0.007829076 -0.07487982 0.4187618
-0.20364544 0.10683993 -0.09460241 -0.012737404 -0.12883368 0.20652005 0.30840737 -0.00073676964
0.17468235 -0.06202222 -0.22093272 0.05700161 0.047366712 -0.18888898 0.10976075 0.004214738
0.08523699 0.11802719 0.2930832 0.17521027 0.42061988 -0.026882347 -0.14699313 0.13794693
-0.069052376 -0.12566122 -0.0009995219 0.18392415 0.11719888 -0.34032658 0.015879976 0.28612703
0.12330608 0.37764427 0.030352812 -0.20607889 -0.28581005 -0.16725367 -0.18070066 -0.18864453
0.2994611 -0.109193645 -0.042810343 0.14991745 -0.27665508 0.3973979 -0.2672876 -0.21674244
0.32054093 -0.028479572 -0.15565443 0.12447888 0.48809165 -0.073213235 -0.052177727 0.040507026
0.1839365 -0.18832792 -0.019964287 0.103292145 0.16272719 -0.34439954 0.014252234 0.042522334
0.24378274 -0.256743 0.17472722 0.20757231 0.08961606 -0.1840269 -0.10018782 -0.08506687
0.18105535 0.15458359 -0.46162468 -0.13520625 -0.14528891 -0.18208319 0.14625792 -0.22171496
-0.16907252 -0.28150555 0.17085727 -0.3207228 0.61650497 -0.16333647 -0.15257552 0.013236463
-0.10071959 0.1570591 0.014021302 0.382463 0.38136142 -0.3569828 0.21936062 -0.23684181
-0.28372774 0.37912673 -0.11495459 0.04197857 0.21083044 -0.16259569 -0.05959804 -0.09859109
-0.026680976 -0.12657408 -0.07887704 0.40722877 0.1434905 0.011662598 -0.07661288 0.010598051
00000000: 0f71 e33d b2f4 53bc 94a2 ca3e fd0a 283d
00000010: ad33 81be 7b7f d7bd 0224 6cbd 04ef b03d
00000020: 7b2b eabd f679 7a3e 1bbb 6f3e f54e 95be
00000030: 40bb c83c 62ce b43d 3d83 d3bb f025 fd3d
00000040: 100d 28be 908e 533e 2186 07bd d3a7 82be
00000050: 1dad a9be 140b c03c a00a f6be beb6 783e
00000060: f9c9 a4bd 28cc 693d 39b5 f6be c47c 5bbc
00000070: 8106 01be 7ca9 f93e 8957 cb3d d85e c03d
00000080: a23f bb3c 0640 b5be 4499 8abd 65ef 5b3c
00000090: 667a 493d 8e8b 273c c983 443e cb6b c33d
000000a0: 3097 d5bb 1350 a43d 992b 06bd 8df5 4f3e
000000b0: fef8 df3d c213 6bbd b997 d83c f348 55be
000000c0: c627 ce3e 0dfa 35bc 6e78 b33c 1cd4 c4bd
000000d0: 679c 17bd e273 883b cdef 97be 8e8b 96bd
000000e0: 337a 0c3d 7379 eebb d8f9 c4be 3aba 933e
000000f0: b168 13be 200d 003f ffb7 67be b646 b5bd
00000100: 1994 4ebe 9d98 6abe b5a2 b7bd 198c 613e
00000110: a9c8 52bd 6e6f 253e f5e1 1b3d 5f56 babe
00000120: d1f1 453e 245b e8be 7732 9a3d b956 f33d
00000130: 1997 773e 835c 54bc 80fb e93d d110 febd
00000140: 893e 293e f17a 4dbd 4d85 1b3e b58f b0be
00000150: 5293 e83e c520 05be d82d 8a3c 8cce c33e
00000160: c4c8 61bd caad 1bbe bd75 6b3b 308c d23c
00000170: ee95 953d 2d9a a2be 45f1 dbbd 77d2 7b3e
00000180: 6376 193e bafc 413a fa70 57be 5fc4 9cbe
00000190: 5a30 563e 64ed c53d 996c a73e b0c3 363e
000001a0: 160f d93b 1efb 18be c8b3 893d 59d5 aabe
000001b0: a949 c7be 5027 5cbe 4ef6 143d 3184 21bd
000001c0: bdd3 703e 1331 56be c4ec 803e 0ad6 7cbd
000001d0: 4f2b 55bc f40b e3bd 71e5 32be 340e 133e
000001e0: bd2e 84be b304 b5bd 1173 89be 1e85 393e
000001f0: 14f6 823c 33cd 84be 2cc8 403e 2d99 19bd
00000200: 84ae df3d 11e5 693c 1d8b 6c3e 3890 c23e
00000210: a552 0bbf 3472 4d3e eba4 03be 6087 cabe
00000220: 2063 58be 25db bc3d d636 1abe e421 213e
00000230: 611b 293e 8645 003c 975a 99bd f267 d63e
00000240: 6e88 50be e5ce da3d e9be c1bd 8bb0 50bc
00000250: faec 03be fe79 533e 92e7 9d3e c623 41ba
00000260: eedf 323e 030b 7ebd 303c 62be 857a 693d
00000270: 9903 423d 1d6c 41be 3eca e03d c91b 8a3b
00000280: bb90 ae3d 3db8 f13d 000f 963e 526a 333e
00000290: 7d5b d73e 5e38 dcbc 5e85 16be f641 0d3e
000002a0: 556b 8dbd 56ad 00be 6402 83ba 9d56 3c3e
000002b0: f705 f03d 493f aebe b916 823c 3e7f 923e
000002c0: e687 fc3d 975a c13e 76a6 f83c 5806 53be
000002d0: b255 92be 8c44 2bbe 9809 39be 082c 41be
000002e0: f752 993e eba0 dfbd e659 2fbd f683 193e
000002f0: bca5 8dbe bd77 cb3e ecd9 88be bbf1 5dbe
00000300: f11d a43e fe4d e9bc e063 1fbe c8ee fe3d
00000310: 26e7 f93e d2f0 95bd 50b8 55bd b2ea 253d
00000320: da59 3c3e 09d9 40be 258c a3bc d58a d33d
00000330: f5a1 263e 2355 b0be 3482 693c e62b 2e3d
00000340: 2fa2 793e d273 83be b1eb 323e d68d 543e
00000350: a088 b73d 8c71 3cbe 462f cdbd 8a37 aebd
00000360: 9366 393e 294b 1e3e 125a ecbe 8273 0abe
00000370: 9ec6 14be 0474 3abe a3c4 153e 3f09 63be
00000380: 5921 2dbe 7f21 90be 35f5 2e3e c735 a4be
00000390: 45d3 1d3f ad41 27be c23c 1cbe c0dd 583c
000003a0: 1346 cebd 1ad4 203e 9ab9 653c 31d2 c33e
000003b0: ce41 c33e 73c6 b6be 12a0 603e a986 72be
000003c0: c344 91be e61c c23e 506d ebbd b9f1 2b3d
000003d0: efe3 573e 7c7f 26be 131d 74bd 20ea c9bd
000003e0: 1092 dabc a39c 01be 498a a1bd 4a80 d03e
000003f0: 2cef 123e 7b14 3f3c 37e7 9cbd 73a3 2d3c

bias f4 [12]
0.006874689 0.011108349 0.005758539 0.017287686 -0.0054550106 -0.002165926 -0.01587652 -0.0034484433
-0.0050625848 -0.0040341173 -0.013640368 0.0029099344
00000000: 1245 e13b cbff 353c 20b2 bc3b e89e 8d3c
00000010: f2bf b2bb 35f2 0dbb 7a0f 82bc 47ff 61bb
00000020: 0ae4 a5bb a130 84bb da7b 5fbc 99b4 3e3b

weight f4 [12, 12, 3, 3]
0.03816237 -0.079726495 0.029998858 -0.047967453 0.03185543 0.23375934 0.03377167 0.09923304
0.13212425 -0.05609909 0.4008603 -0.072485454 -0.45542726 0.38623506 0.113645986 0.5345412
0.07312159 0.23608163 0.14929111 -0.07829544 0.33952916 0.27538612 0.16587554 0.0025680524
0.04304389 0.107457474 -0.07121265 0.08138183 -0.16138722 -0.37671077 0.18768336 0.0380575
0.113732405 0.3489287 0.0171497 -0.18935433 -0.2632397 0.054639395 0.1360186 0.009401879
0.09942364 -0.08007199 0.05282919 -0.24431142 -0.1231001 -0.07851957 -0.18359895 -0.12846358
-0.1804114 0.01669586 0.057821028 0.14329639 -0.19011506 -0.6526411 0.36864614 0.08851997
-0.026220247 0.004331799 -0.10606204 0.3292087 -0.121814124 -0.18880786 -0.12628889 0.29317078
-0.30316156 -0.016614392 0.31061396 0.1379423 -0.27506417 0.05217158 0.2432903 0.39677775
0.3402293 0.17233385 -0.035936765 0.13351369 0.38385665 -0.296204 -0.048544876 -0.15781602
-0.07056671 0.04351517 0.25148356 -0.17050484 -0.04371179 -0.03260526 -0.29491836 0.06721506
-0.11268839 0.3042293 -0.17102784 -0.026666176 -0.264176 0.1248536 0.25366843 -0.4011507
-0.11371426 -0.062634364 0.4439805 0.009977282 -0.37697348 0.21646065 -0.05095575 0.35132656
0.15609153 0.04252156 0.019962398 -0.12637347 0.051295817 -0.16059533 0.13626058 0.0009164843
0.07548115 -0.14799386 0.37005973 0.34464034 0.2250359 0.2645886 0.00530459 0.006455743
-0.3848546 -0.010044242 0.02375519 0.059044026 0.1602665 -0.17210977 0.10351999 -0.10984405
0.20085235 -0.027442599 0.099420235 0.077023745 -0.2763406 0.057098135 0.40778518 0.349642
-0.08578067 0.2277597 -0.059119232 0.011689534 0.37446535 0.4232022 -0.35158113 0.16699442
0.019738462 0.1876196 -0.41648573 0.11252314 0.19020922 0.40717474 -0.11134412 0.009165533
-0.079265155 -0.022901949 -0.16140425 0.17583616 -0.06900908 -0.1570933 -0.16104591 0.04703062
0.21373646 0.24122557 -0.087849036 -0.039843492 0.32746562 0.06584423 0.007264181 -0.13179928
0.09526501 0.32479423 0.00038892997 -0.27967173 0.2533855 -0.19784491 0.041068368 0.39033854
-0.21014172 -0.26287338 0.2765039 0.009534686 -0.31753415 -0.16840035 -0.059707217 0.45358136
0.19770467 -0.12544556 -0.054548927 0.07212933 0.03982606 0.029351797 0.08360988 -0.106831305
0.005754404 0.03698387 -0.0719494 0.037824046 -0.17124657 0.19692783 0.116682045 0.08077657
0.26600868 0.0843789 -0.35472926 -0.17772853 0.32817405 -0.5219434 0.12132411 -0.5976212
0.053582177 -0.011355361 0.16429266 -0.09575875 -0.14034723 0.25967416 0.26275975 0.24378209
0.47058922 -0.11547102 -0.19279858 0.059789322 -0.26884413 0.30014488 0.53221184 0.09929171
-0.37871274 0.43041238 -0.21907584 -0.09067677 0.37203047 0.044919644 0.32877365 0.007933312
-0.0645961 0.010380019 0.21186057 0.13183837 -0.11445625 -0.08385781 0.116250634 0.10624904
-0.09376269 -0.11389059 -0.17009161 -0.30295086 -0.05460617 -0.045883063 0.22300619 -0.1006172
0.18316947 0.21591806 0.42487055 0.19714566 -0.26839215 -0.06127956 -0.05663744 0.31719047
00000000: 2550 1c3d a547 a3bd 2ac0 f53c 8579 44bd
00000010: d77a 023d 9c5e 6f3e 2a54 0a3d b13a cb3d
00000020: 944b 073e 29c8 65bd 903d cd3e 4173 94bd
00000030: c32d e9be 9ac0 c53e 3abf e83d b1d7 083f
00000040: c6c0 953d 62bf 713e c5df 183e 5c59 a0bd
00000050: c4d6 ad3e 69ff 8c3e 47db 293e c54c 283b
00000060: ca4e 303d aa12 dc3d f0d7 91bd 84ab a63d
00000070: b142 25be 3ce0 c0be 1130 403e 2ee2 1b3d
00000080: 89ec e83d c8a6 b23e 877d 8c3c 1ae6 41be
00000090: 5bc7 86be 8fcd 5f3d 7648 0b3e 570a 1a3c
000000a0: 9f9e cb3d c9fc a3bd 6c63 583d c62c 7abe
000000b0: e81b fcbd dece a0bd 5d01 3cbe f58b 03be
000000c0: c4bd 38be c2c5 883c bed5 6c3d 4abc 123e
000000d0: 86ad 42be 7d13 27bf 30bf bc3e f549 b53d
000000e0: d8cb d6bc c4f1 8d3b 0e37 d9bd 0b8e a83e
000000f0: af79 f9bd d956 41be e051 01be 7b1a 963e
00000100: fe37 9bbe e81a 88bc cb08 9f3e bf40 0d3e
00000110: 36d5 8cbe deb1 553d 1821 793e 7426 cb3e
00000120: 8932 ae3e 4978 303e 6e32 13bd d0b7 083e
00000130: dc88 c43e 0da8 97be fed6 46bd 869a 21be
00000140: 4785 90bd f73c 323d 74c2 803e d298 2ebe
00000150: 220b 33bd 188d 05bd 8aff 96be 0da8 893d
00000160: 2cc9 e6bd f1c3 9b3e ec21 2fbe 0673 dabc
00000170: 1442 87be 3fb3 ff3d d4e0 813e a063 cdbe
00000180: 06e3 e8bd 7246 80bd 6951 e33e c177 233c
00000190: ab02 c1be dca7 5d3e fab6 50bd 13e1 b33e
000001a0: 75d6 1f3e 162b 2e3d 2f88 a33c 0c68 01be
000001b0: 901b 523d 1a73 24be e587 0b3e 3840 703a
000001c0: dc95 9a3d b48b 17be 7878 bd3e b374 b03e
000001d0: d06f 663e 2878 873e 20d2 ad3b b38a d33b
000001e0: aa0b c5be 9b90 24bc 3f9a c23c 26d8 713d
000001f0: e71c 243e 8b3d 30be 4a02 d43d ebf5 e0bd
00000200: 3dac 4d3e 4dcf e0bc d69c cb3d a0be 9d3d
00000210: 847c 8dbe bcdf 693d 38c9 d03e 4704 b33e
00000220: c7ad afbd d739 693e 0227 72bd 7685 3f3c
00000230: ecb9 bf3e f5ad d83e 7102 b4be 9600 2b3e
00000240: 8eb2 a13c 5a1f 403e 9e3d d5be 8872 e63d
00000250: 35c6 423e 3579 d03e 6308 e4bd 082b 163c
00000260: c555 a2bd de9c bbbc 2847 25be 650e 343e
00000270: a254 8dbd 11dd 20be 38e9 24be 2ea3 403d
00000280: bbdd 5a3e d603 773e 32ea b3bd ee32 23bd
00000290: 93a9 a73e 57d9 863d 5e08 ee3b 64f6 06be
000002a0: 4d1a c33d 6e4b a63e 4ce9 cb39 2231 8fbe
000002b0: bfbb 813e db97 4abe 4e37 283d 74da c73e
000002c0: 642f 57be 5797 86be eb91 8d3e 5f37 1c3c
000002d0: d693 a2be 2471 2cbe 8e8f 74bd d13b e83e
000002e0: 1873 4a3e cd74 00be b26e 5fbd 8bb8 933d
000002f0: a720 233d 2e73 f03c a83b ab3d 5fca dabd
00000300: 708f bc3b 667c 173d 355a 93bd 63ed 1a3d
00000310: 435b 2fbe 73a7 493e fff6 ee3d 306e a53d
00000320: 4a32 883e d8ce ac3d 139f b5be 78fe 35be
00000330: 6e06 a83e 159e 05bf c678 f83d b4fd 18bf
00000340: fc78 5b3d d60b 3abc 563c 283e 2a1d c4bd
00000350: 2fb7 0fbe 03f4 843e 7288 863e 03a2 793e
00000360: 12f1 f03e 127c ecbd fe6c 45be a6e5 743d
00000370: f0a5 89be 97ac 993e 093f 083f 7459 cb3d
00000380: a3e6 c1be 035f dc3e 6b55 60be beb4 b9bd
00000390: c77a be3e a9fd 373d 0555 a83e b9fa 013c
000003a0: f64a 84bd f510 2a3c faf1 583e a300 073e
000003b0: 0a68 eabd a5bd abbd d014 ee3d 1999 d93d
000003c0: a706 c0bd 783f e9bd 7f2c 2ebe 601c 9bbe
000003d0: b8aa 5fbd e1ef 3bbd bc5b 643e 6410 cebd
000003e0: c790 3b3e a019 5d3e a288 d93e 8de0 493e
000003f0: b26a 89be 4700 7bbd a9fc 67bd ca66 a23e

bias f4 [12]
0.023285802 0.012992875 0.010471739 -0.0006768349 -3.37159e-05 -0.008354569 -0.0013550564 -0.006930687
-0.0034633297 -0.005984924 0.0022816954 0.008854473
00000000: dec1 be3c 11e0 543c a891 2b3c 9f6d 31ba
00000010: 2c6a 0db8 9ae1 08bc 269c b1ba d11a e3bb
00000020: 08f9 62bb 2e1d c4bb 7f88 153b 5a12 113c

weight f4 [12, 12, 3, 3]
0.1139751 -0.22538729 -0.20102113 0.29258335 0.012768916 0.116238706 -0.15462156 -0.08735676
-0.08718249 -0.1276952 0.46813732 -0.04733469 -0.007768336 -0.0069939927 -0.26225337 -0.16683555
-0.015883869 0.17982148 -0.0092108315 0.118436165 0.15622035 -0.20254755 -0.12412053 -0.3426822
0.09778876 -0.08330674 -0.0058149192 0.12009049 -0.09657187 -0.015022765 -0.008047352 -0.1426135
-0.12134805 0.20951994 -0.30703 -0.11916235 -0.1469615 0.042759754 -0.21868238 0.11341324
-0.07466489 -0.14105408 0.24526955 -0.25604656 -0.10302285 0.17083555 0.2726235 -0.1680772
-0.031965088 0.07633687 -0.010863226 0.0027858743 -0.09320528 -0.33809245 -0.26569408 -0.042653453
0.16016111 -0.2139908 0.22486497 -0.10083797 -0.11889097 -0.10796605 0.19144961 0.2944879
0.19333415 -0.17761917 -0.27820686 -0.1433984 -0.15334028 -0.15973163 -0.19610061 -0.06880805
-0.30108282 -0.0154533405 0.100697145 0.16875787 0.25048476 -0.2187322 -0.1380388 -0.09035376
0.29440293 0.070619136 0.16814637 -0.17844155 0.4356418 0.011905177 -0.09389063 0.01876224
0.07545978 0.15198556 -0.21933769 -0.10052444 0.11201322 -0.2108657 0.085857205 -0.13295402
-0.14243506 -0.10376043 -0.036859788 -0.115810215 0.28535664 0.102652274 -0.45536608 0.07840065
0.2821614 -0.02993236 -0.206779 0.021173397 -0.14973903 -0.47050446 0.042645797 0.055098694
-0.048683856 0.18829477 0.11749508 -0.20852196 0.0016357496 -0.13713808 -0.09459018 0.07454288
0.011201361 0.11225468 -0.07792847 -0.22541954 0.23692442 0.11655573 -0.069252715 0.005003505
0.04262341 0.1302277 -0.28930172 0.070692286 -0.045405615 0.29975623 -0.071834035 -0.06389415
0.0066741286 0.1384199 -0.17031224 0.10982368 -0.05949526 0.14098261 -0.10526897 -0.13942155
0.048216566 -0.08276949 -0.103422984 -0.069160335 -0.28198138 -0.20266895 0.099137455 -0.13360503
0.17618707 0.025103526 0.12899439 -0.268923 -0.13596013 -0.13574514 0.050858457 -0.15048301
-0.15158856 0.06988261 0.31391996 -0.07036033 -0.0857114 -0.15162838 0.13760956 0.22101025
0.04099895 0.049705215 -0.09186944 -0.390232 -0.18335481 -0.23486507 0.07940629 -0.14556794
-0.26236454 -0.12274185 0.025640693 0.002624316 -0.035246037 -0.058485445 0.080134444 0.2582228
0.27174756 0.17719348 0.07788257 -0.071195856 0.060352623 0.011524919 0.07757721 0.24469268
-0.24495597 0.116200455 0.09550477 -0.1423973 -0.23441619 -0.36569354 -0.052796457 -0.051422928
0.061263435 0.44592345 0.06460121 0.15857041 -0.3353604 0.38613644 -0.028223837 0.12307075
0.12326252 -0.17148444 0.28950733 0.12280171 -0.2240312 -0.04132395 0.019348023 0.0063028503
0.0996998 -0.030366002 -0.040379092 -0.44726577 -0.038003687 -0.28709492 -0.18868236 -0.22980206
0.07671876 0.20684463 -0.03707072 0.26029646 0.502577 0.04496036 -0.087094866 0.11876057
-0.08875655 0.22502907 -0.22346856 -0.13983521 0.041845415 -0.25265902 0.066932164 -0.05862979
-0.012247081 0.09018361 -0.048063014 -0.19254375 0.04793379 -0.13308977 -0.26325274 -0.04982356
-0.14390455 -0.20573995 0.007820872 -0.28874367 -0.15116836 0.16671811 0.11401644 0.03127834
00000000: c76b e93d edcb 66be 7cd8 4dbe 7ccd 953e
00000010: b734 513c 8f0e ee3d 1d55 1ebe 1ae8 b2bd
00000020: bc8c b2bd 88c2 02be b2af ef3e 05e2 41bd
00000030: 878d febb dd2d e5bb 1346 86be f0d6 2abe
00000040: e31e 82bc 1f23 383e 07e9 16bc a98e f23d
00000050: 3af8 1f3e a068 4fbe e832 febd 0b74 afbe
00000060: 7945 c83d b99c aabd 148b bebb 01f2 f53d
00000070: 79c7 c5bd 0b22 76bc 0ad9 03bc 4609 12be
00000080: 5485 f8bd 658c 563e 0933 9dbe 640b f4bd
00000090: 137d 16be da24 2f3d 46ee 5fbe 3345 e83d
000000a0: e8e9 98bd 7b70 10be f127 7b3e 8918 83be
000000b0: a5fd d2bd 84ef 2e3e 4f95 8b3e 6e1c 2cbe
000000c0: d3ed 02bd 8156 9c3d acfb 31bc 3793 363b
000000d0: 69e2 bebd 741a adbe 0e09 88be 63b5 2ebd
000000e0: 4601 243e 6720 5bbe 0143 663e 2384 cebd
000000f0: 1c7d f3bd 4e1d ddbd 5e0b 443e 1ec7 963e
00000100: 63f9 453e cde1 35be 2171 8ebe 08d7 12be
00000110: 3c05 1dbe b090 23be 99ce 48be 3ceb 8cbd
00000120: 8727 9abe 0230 7dbc 4e3a ce3d ddce 2c3e
00000130: 8a3f 803e 55fb 5fbe 0b5a 0dbe 640b b9bd
00000140: fbbb 963e c4a0 903d 902e 2c3e 62b9 36be
00000150: 710c df3e ee0d 433c bb49 c0bd 45b3 993c
00000160: a88a 9a3d 1aa2 1b3e 0f9a 60be c2df cdbd
00000170: 3067 e53d 2eed 57be e7d5 af3d 1925 08be
00000180: 7fda 11be 5980 d4bd 4afa 16bd e82d edbd
00000190: 441a 923e 5b3b d23d be25 e9be 8590 a03d
000001a0: 7677 903e b534 f5bc e0bd 53be d573 ad3c
000001b0: 3055 19be f6e5 f0be 5cad 2e3d 2baf 613d
000001c0: b968 47bd 58d0 403e 43a1 f03d c886 55be
000001d0: a666 d63a ed6d 0cbe 7fb8 c1bd f0a9 983d
000001e0: ea85 373c c8e5 e53d f698 9fbd 61d4 66be
000001f0: 519c 723e c5b4 ee3d 5ed4 8dbd 71f4 a33b
00000200: e295 2e3d 695a 053e 5b1f 94be 1ec7 903d
00000210: 3dfb 39bd a679 993e b91d 93bd f0da 82bd
00000220: a6b2 da3b f2bd 0d3e 5566 2ebe 3deb e03d
00000230: 4db1 73bd bf5d 103e 4297 d7bd 86c4 0ebe
00000240: bc7e 453d 0d83 a9bd 6ecf d3bd efa3 8dbd
00000250: dd5f 90be 7388 4fbe 9408 cb3d c2cf 08be
00000260: 626a 343e e9a5 cd3c 1b17 043e 47b0 89be
00000270: 2239 0bbe c600 0bbe f550 503d 3818 1abe
00000280: 083a 1bbe 9d1e 8f3d 1eba a03e 1419 90bd
00000290: 7589 afbd 7844 1bbe 85e9 0c3e 8350 623e
000002a0: 84ee 273d b297 4b3d 0c26 bcbd 7dcc c7be
000002b0: 5dc1 3bbe 7880 70be c49f a23d c30f 15be
000002c0: a554 86be 1460 fbbd 6e0c d23c b7fc 2b3b
000002d0: 265e 10bd 6f8e 6fbd 871d a43d c735 843e
000002e0: 7f22 8b3e 3572 353e e680 9f3d 22cf 91bd
000002f0: 5034 773d 04d3 3c3c cde0 9e3d b890 7a3e
00000300: bdd5 7abe 81fa ed3d 0198 c33d 99d0 11be
00000310: cc0a 70be 2f3c bbbe 1941 58bd d9a0 52bd
00000320: 5eef 7a3d 1450 e43e a44d 843d 4860 223e
00000330: 5cb4 abbe adb3 c53e ad35 e7bc 840c fc3d
00000340: 0f71 fc3d 9e99 2fbe 4e3a 943e 777f fb3d
00000350: 6f68 65be 4d43 29bd bf7f 9e3c 2488 ce3b
00000360: 692f cc3d 1fc2 f8bc 8c64 25bd 0500 e5be
00000370: c1a9 1bbd 1bfe 92be f335 41be 3b51 6bbe
00000380: ba1e 9d3d 14cf 533e 78d7 17bd 9445 853e
00000390: e3a8 003f 5b28 383d cb5e b2bd be38 f33d
000003a0: fec5 b5bd 056e 663e f1d4 64be f630 0fbe
000003b0: 1966 2b3d 865c 81be bb13 893d ca25 70bd
000003c0: fba7 48bc 2fb2 b83d b9dd 44bd 302a 45be
000003d0: 3956 443d af48 08be 10c9 86be ca13 4cbd
000003e0: b75b 13be 7ead 52be 1d23 003c 36d6 93be
000003f0: e1cb 1abe 27b8 2a3e 7481 e93d b71d 003d

bias f4 [12]
-0.0010900607 0.0007543097 -0.0023485522 0.017892696 -0.0069305114 -0.019737013 0.0034121599 -0.0047100633
-0.0026901609 0.0019226944 -0.031944174 -0.016761206
00000000: 5ee0 8eba debc 453a 2bea 19bb b493 923c
00000010: 5819 e3bb 84af a1bc 8b9e 5f3b e056 9abb
00000020: 694d 30bb eb02 fc3a e5d7 02bd cc4e 89bc

weight f4 [64, 12, 1, 1]
0.2260813 -0.0038749909 0.19375055 0.10552521 0.20055254 0.31710097 0.3066491 -0.12158888
0.18137094 0.012351014 -0.10792994 -0.0028983327 0.09018311 0.13554296 0.105441496 -0.15466332
-0.35051134 0.13065822 -0.27719027 0.2547689 -0.20649056 0.0119334655 0.109899566 0.11152956
-0.1433568 -0.3157886 0.08684187 -0.14331159 0.048876036 -0.08021502 0.24461883 0.22697137
0.22769448 0.01536181 0.23784296 -0.1174804 -0.2816402 0.09197531 0.003442071 -0.009885857
-0.19056942 -0.34340638 -0.25760677 -0.028540099 0.13911353 0.35638246 -0.09670788 -0.01853025
-0.18999574 0.14956753 0.07300822 -0.0848058 -0.03589116 0.16242959 0.044641893 0.177534
0.091155075 0.1027965 0.29541966 -0.116514795 -0.020294864 -0.16292556 -0.16349408 0.23068394
-0.094426066 0.20226076 -0.4137964 0.020602396 0.1276572 -0.015483639 -0.5713612 -0.009015734
0.18093508 0.06453548 -0.28898472 -0.2683384 -0.39722323 0.10902803 0.16776638 -0.15779725
-0.11830813 0.15197186 -0.11909984 0.44877028 0.22175233 -0.32720587 0.013022239 -0.21635056
0.08381445 -0.17599925 -0.17500515 0.18187222 -0.41899604 0.19310382 0.25190395 0.4015637
0.0808848 0.37859806 0.27624533 -0.23415837 0.27465865 0.006734003 -0.33240935 0.11417616
-0.61548465 0.3388524 -0.3536106 0.40768394 0.03622038 -0.20026869 0.26100615 -0.47569728
0.16498876 -0.040597618 0.46425447 -0.04301878 0.043187816 0.18098427 -0.06682788 0.09499814
-0.20285064 0.3468527 -0.046065837 -0.05525558 -0.059232783 0.21373427 -0.32102177 0.05187141
0.315381 -0.27093664 -0.23586501 -0.07765742 0.16809376 -0.008294702 0.20680471 -0.09255643
-0.24672331 -0.20103098 0.036060497 0.17822078 -0.1517398 -0.016674757 0.1191004 0.017081618
0.01481164 -0.10887843 -0.15108468 -0.462286 -0.19259943 0.2142716 0.04985683 0.078862436
0.49445552 0.13899465 0.22246638 -0.07701936 -0.13079429 -0.087544836 0.061017457 -0.2863205
0.11403808 -0.34192544 0.15226752 0.17331618 0.09205595 -0.015324281 -0.04147923 0.031857733
0.2317163 -0.035801597 0.053877458 0.049386345 0.34615508 0.21600007 0.36990488 -0.2874231
-0.17013195 0.060744073 -0.24358287 -0.35058418 -0.30334893 0.08373329 0.23237006 0.010143233
0.18711293 -0.15078542 0.06400133 0.05245741 -0.21190158 0.31563908 0.12141057 -0.029869437
0.12469313 -0.3243049 0.025985679 -0.00512142 -0.006161705 -0.1149654 -0.016263127 -0.0839592
0.14519706 0.021135898 0.11768466 0.21730672 -0.012649443 -0.22880305 -0.21668234 0.10381927
-0.35626832 -0.08246043 0.25364667 -0.07121791 -0.13140182 0.03892831 0.45990023 0.09104296
-0.1886335 -0.09865772 -0.17973076 -0.11995797 0.11343824 0.13687555 -0.07378315 -0.07905295
0.016756417 -0.0715479 0.24986033 0.34554344 0.29685816 -0.08512647 0.0050057536 0.112672694
-0.37289503 0.11420722 -0.09310462 -0.065615684 -0.10451203 -0.4896617 0.23537058 -0.11091299
0.06885041 -0.25726804 0.17491193 -0.05738615 -0.16174786 0.063835025 0.20570421 -0.12565237
-0.1498058 0.23247834 -0.0618644 -0.062247626 -0.03644817 -0.3815208 0.19827913 -0.07235747
00000000: db81 673e 8ff3 7dbb 8b66 463e 9a1d d83d
00000010: a55d 4d3e 0f5b a23e 1c01 9d3e 9703 f9bd
00000020: 4eb9 393e e85b 4a3c 5f0a ddbd f4f1 3dbb
00000030: ecb1 b83d c6cb 0a3e b6f1 d73d 1060 1ebe
00000040: 3976 b3be 45cb 053e e2eb 8dbe 1271 823e
00000050: 4372 53be 9584 433c 0613 e13d 9c69 e43d
00000060: 20cc 12be 0baf a1be 26da b13d 46c0 12be
00000070: 3d32 483d c647 a4bd 5c7d 7a3e 2f6b 683e
00000080: be28 693e 1ab0 7b3c 1b8d 733e 9099 f0bd
00000090: 2533 90be 8d5d bc3d 5e94 613b 4af8 21bc
000000a0: a124 43be f6d2 afbe 09e5 83be edcc e9bc
000000b0: c773 0e3e c377 b63e c80e c6bd c0cc 97bc
000000c0: 3e8e 42be 3b28 193e 5585 953d aaae adbd
000000d0: 9c02 13bd f153 263e 6bda 363d 79cb 353e
000000e0: 83af ba3d f986 d23d 3f41 973e 4f9f eebd
000000f0: 6a41 a6bc f5d5 26be fe6a 27be 6938 6c3e
00000100: 7462 c1bd 721d 4f3e 1fdd d3be 5bc6 a83c
00000110: 92b8 023e 17af 7dbc ba44 12bf bbb6 13bc
00000120: 0c47 393e 2e2b 843d cef5 93be a763 89be
00000130: d860 cbbe 164a df3d f3ca 2b3e 9a95 21be
00000140: 884b f2bd 839e 1b3e 9eea f3bd 38c5 e53e
00000150: 0b13 633e 8787 a7be 3b5b 553c 008b 5dbe
00000160: e9a6 ab3d 2639 34be 8d34 33be b63c 3a3e
00000170: a686 d6be 02bd 453e 8ef9 803e c299 cd3e
00000180: eea6 a53d 9bd7 c13e 0770 8d3e 36c7 6fbe
00000190: 0fa0 8c3e e9a8 dc3b 8f31 aabe 31d5 e93d
000001a0: 6790 1dbf 107e ad3e 730c b5be f3bb d03e
000001b0: d25b 143d 3c13 4dbe 99a2 853e 988e f3be
000001c0: d0f2 283e b049 26bd c3b2 ed3e 7634 30bd
000001d0: b5e5 303d f153 393e 0edd 88bd 638e c23d
000001e0: 14b8 4fbe ad96 b13e 88af 3cbd ad53 62bd
000001f0: 139e 72bd 28dd 5a3e f75c a4be 1e77 543d
00000200: 9e79 a13e 35b8 8abe 9986 71be da0a 9fbd
00000210: c520 2c3e 80e6 07bc 9dc4 533e 3a8e bdbd
00000220: 09a5 7cbe 11db 4dbe 2cb4 133d 827f 363e
00000230: ae61 1bbe 8099 88bc e9ea f33d c0ee 8b3c
00000240: 85ac 723c a8fb debd f1b5 1abe c0b0 ecbe
00000250: c938 45be 046a 5b3e ad36 4c3d a182 a13d
00000260: 4629 fd3e 9d54 0e3e 3ace 633e 54bc 9dbd
00000270: f0ee 05be b54a b3bd 71ed 793d 9a98 92be
00000280: cc8c e93d da10 afbe 04ec 1b3e cc79 313e
00000290: d487 bc3d b112 7bbc 20e6 29bd 417d 023d
000002a0: 0a47 6d3e b2a4 12bd 9cae 5c3d 5649 4a3d
000002b0: 3d3b b13e 1f2f 5d3e 2c64 bd3e 1f29 93be
000002c0: 1237 2ebe c7ce 783d ca6d 79be c57f b3be
000002d0: 8d50 9bbe 5c7c ab3d 6bf2 6d3e ce2f 263c
000002e0: 889a 3f3e 7e67 1abe 2113 833d 95dd 563d
000002f0: bafc 58be 729b a13e 1ba6 f83d c0b0 f4bc
00000300: 1d5f ff3d 4b0b a6be ebdf d43c 96d1 a7bb
00000310: 21e8 c9bb fb72 ebbd 403a 85bc cdf2 abbd
00000320: 8aae 143e 3125 ad3c a804 f13d a785 5e3e
00000330: 9c3f 4fbc 594b 6abe fae1 5dbe 339f d43d
00000340: cd68 b6be 04e1 a8bd fadd 813e b2da 91bd
00000350: 338e 06be 4b73 1f3d 0b78 eb3e bb74 ba3d
00000360: 2429 41be 0f0d cabd 570b 38be 86ac f5bd
00000370: 4f52 e83d 1b29 0c3e 9f1b 97bd 83e6 a1bd
00000380: c144 893c b587 92bd 63db 7f3e 12eb b03e
00000390: cbfd 973e c956 aebd 4e07 a43b f1c0 e63d
000003a0: 19ec bebe 7ae5 e93d a3ad bebd 8461 86bd
000003b0: 670a d6bd f0b4 fabe fc04 713e 5a26 e3bd
000003c0: 7201 8d3d a3b8 83be 1d1c 333e bd0d 6bbd
000003d0: 3ba1 25be f0bb 823d 20a4 523e 04ab 00be
000003e0: b166 19be cd0e 6e3e 8665 7dbd 5ef7 7ebd
000003f0: ad4a 15bd b256 c3be af09 4b3e 2730 94bd

bias f4 [64]
-0.00066683843 0.0024603931 0.012729583 0.010214953 0.021021271 0.014525485 -0.005979977 0.009056892
-0.00067900703 0.0076041524 0.00015565292 -0.009362281 0.0037594747 0.011287965 0.0049134432 0.02495712
0.037134275 -0.046012748 0.0070716124 -0.01890291 0.002040374 0.0052127815 -0.012230399 -0.0055625094
0.018991517 0.002005749 -0.014914193 -0.026146177 0.0063624065 0.010837525 0.06281101 -0.0283291
-0.004746971 -0.009434081 0.0057723266 0.05965165 0.0018577221 -0.019872362 -0.010139956 -0.010378998
-0.0033604177 0.00964252 -0.0035266574 0.010250078 0.02073405 -0.006255175 0.02113402 0.028524453
0.0149711035 0.097385556 0.012533857 -0.0054717157 -0.0042500007 -0.016780224 0.0032772752 0.004647032
-0.022622291 0.008687222 -0.0059981197 0.0054112873 -0.0068355026 -0.00016052318 -0.0057372367 0.0051501878
00000000: c5ce 2eba 8c3e 213b be8f 503c 9e5c 273c
00000010: cd34 ac3c 4dfc 6d3c aff3 c3bb 5c63 143c
00000020: 64ff 31ba 412c f93b c336 2339 4164 19bc
00000030: 8561 763b 28f1 383c f300 a13b e072 cc3c
00000040: 1c1a 183d dd77 3cbd fcb8 e73b 47da 9abc
00000050: ccb7 053b fbcf aa3b 0362 48bc b645 b6bb
00000060: 1994 9b3c e272 033b a95a 74bc 8230 d6bc
00000070: bc7b d03b e08f 313c 0fa3 803d 6e12 e8bc
00000080: 7b8c 9bbb 6791 1abc c925 bd3b 4a55 743d
00000090: cf7e f33a 5dcb a2bc 0f22 26bc ac0c 2abc
000000a0: 743a 5cbb a9fb 1d3c 7e1f 67bb f1ef 273c
000000b0: 74da a93c 36f8 ccbb 4121 ad3c 1dac e93c
000000c0: 5c49 753c 1472 c73d ce5a 4d3c 144c b3bb
000000d0: 9743 8bbb ae76 89bc 8ec7 563b 2146 983b
000000e0: 6252 b9bc da54 0e3c e08b c4bb 2b51 b13b
000000f0: 5afc dfbb 1d52 28b9 6eff bbbb e8c2 a83b
