model/epoch_159.pt (torch, 65657 bytes, 15 tensors)

weight f4 [64, 1, 5, 5]
000000 8f 54 30 3e 35 36 2e bc 04 04 b0 ba 5d c2 90 3d
       0.17219757 -0.010633041 -0.0013428931 0.07068322
000010 80 1d 74 be 54 50 63 3d 40 d2 63 3e 27 49 d4 bd
       -0.23839378 0.05549653 0.22248173 -0.10365515
000020 e0 d9 ad bd 46 1e d5 3e 53 72 e5 bd 73 cc b9 3d
       -0.08488822 0.4162466 -0.11203446 0.09072199
000030 09 55 86 3d a1 59 2f 3e dd 06 63 be 6e 00 9b 3e
       0.06559188 0.17124034 -0.22170587 0.30273765
000040 a0 8c f6 3d 52 df 01 be 2c fe 3c be db 61 12 bd
       0.12038541 -0.12682846 -0.18456334 -0.035737853
000050 02 e1 79 3e a5 a9 f9 3d de 6b 93 bc 10 1f ad 3e
       0.2440224 0.1219056 -0.017995771 0.3381276
000060 86 54 c1 be c9 df 2a be 4b f2 7f 3d ca 7a 74 bd
       -0.377598 -0.1668693 0.062486928 -0.059687413
000070 82 7c 13 3d c4 d9 42 3e ee d7 0e 3e 93 01 b9 bd
       0.03600741 0.19028383 0.13949558 -0.090335034
000080 b9 7b 15 be 48 0b 3b 3e 37 94 a4 be 4f 8b cd bc
       -0.14597978 0.18266022 -0.3214433 -0.025090842
000090 aa 58 0d 3e 55 9a af bd 7b 82 c6 3d 2b ad bc 3d
       0.13803354 -0.085743584 0.09692856 0.09212717
0000a0 1b e0 5d bd 5a 4c 48 3e 4e e4 a9 3d 6c 50 e5 3c
       -0.0541688 0.19560376 0.08295499 0.02799245
0000b0 24 80 f5 3d 9c 29 4e 3c e0 ac 1b be 31 62 46 3d
       0.119873315 0.012583163 -0.15202665 0.048433486
0000c0 ae 88 69 be 20 bd 7f 3e 96 4d d5 bd a5 97 84 3d
       -0.22806045 0.24974489 -0.10415189 0.064742364
0000d0 0c 3b 07 3e 80 2c 3a bd 93 9a 22 3e 38 d6 43 3c
       0.13206118 -0.045452595 0.15879278 0.011952929
0000e0 0c 80 49 3e bb b4 83 be dd 97 9f be 80 7b 9a 3e
       0.19677752 -0.25723824 -0.3117055 0.30172348
0000f0 63 3a dd 3d 20 8d 4a 3e 3c c3 2f be 79 16 d4 be
       0.10802152 0.19780397 -0.1716432 -0.41423395
000100 5e 4f 2e 3e f8 66 9a 3c 7d ad 09 bd fb 8f 85 bc
       0.17022464 0.018847927 -0.033612717 -0.016304007
000110 7d 1f a1 3e 31 ce 85 be de 1d dd 3d 45 83 1d be
       0.31469336 -0.26133874 0.10796712 -0.15382107
000120 c6 e2 9e 3c 27 ef 0b bd 04 bc 00 be 97 19 82 3e
       0.019395243 -0.03416362 -0.12571722 0.25410149
000130 47 93 1e bd 6f 51 b6 3d 80 ac 99 be 51 b2 82 3e
       -0.038714673 0.08902251 -0.3001442 0.2552667
000140 2c 1c 98 3d 98 c1 a5 3c 39 8d a0 3c c0 ac d9 3d
       0.07427248 0.020233914 0.01959859 0.106286526
000150 ec c4 2f be ff 59 a5 be e0 34 0b bf 5a eb 73 3d
       -0.17164963 -0.32295224 -0.54377556 0.05955062
000160 f9 67 35 3e ab 9b d9 bd 4c 0f d0 3d 19 a1 49 bc
       0.17715444 -0.106253944 0.10159168 -0.012306475
000170 e2 de 48 3d 87 79 24 3e a7 73 db 3d d4 de 2c be
       0.049040683 0.16061984 0.10715418 -0.16881877
000180 a6 df fe bd 89 7b 54 3d 01 82 d8 3d 9d 88 e9 3d
       -0.12445001 0.051875625 0.10571671 0.1140301
000190 12 f3 02 bf dc 66 12 bf 7c a3 63 3e 8a de 55 3d
       -0.51152146 -0.571882 0.22230333 0.052214183
0001a0 6b 1d 88 bd 9c f4 93 3e c4 96 ee 3e 97 9b ee bc
       -0.06646236 0.2889756 0.465994 -0.029126925
0001b0 c0 31 52 3d ee 03 df bb 3e d9 94 3e bb 85 0a be
       0.051316977 -0.0068058884 0.29071993 -0.13527577
0001c0 7b 52 fd bd d6 15 2c be e0 7b 38 3e 50 2e a6 be
       -0.123692475 -0.16805205 0.18016005 -0.3245721
0001d0 c3 11 26 be c3 cc 39 bd 35 e0 c0 be 19 21 f8 be
       -0.16217713 -0.04536129 -0.37671056 -0.48462752
0001e0 bb 0b 51 bd a7 b2 79 3e 3c 30 62 3b 18 a0 c4 3e
       -0.051036578 0.24384557 0.0034513613 0.38403392
0001f0 af 8d 3b 3d f6 2a 06 3e 64 b1 10 be dd 90 8a bc
       0.045789417 0.13102326 -0.14130169 -0.01691478
000200 fc 14 86 be 6a 70 22 be 5b 0c c5 3d 7c 6e a1 be
       -0.26187885 -0.15863195 0.09621497 -0.31529605
000210 d4 a6 8d 3e 72 eb f3 bd 7f 16 67 bd 84 8c e3 bb
       0.27666342 -0.11910142 -0.05641794 -0.006944241
000220 13 5f 10 3e ef e4 7f 3d 74 33 af be 21 15 51 be
       0.14098768 0.062474187 -0.34218943 -0.20418216
000230 d8 7d 7c bd 1c 74 7f be 16 e7 d8 3d 2d e9 e9 39
       -0.06164345 -0.24946636 0.10590951 0.00044614953
000240 fa a6 43 bd de 7c 97 bd 4a 3f 44 3d 2f 74 a6 3e
       -0.047766663 -0.073968634 0.04791192 0.32510516
000250 57 3a e9 bd f4 30 e5 3e 69 8d ed bc 30 f1 e2 bb
       -0.113880806 0.4476391 -0.028998094 -0.0069257244
000260 80 f1 5b 3c 2b 68 67 3e 24 68 79 be 0f 7c 8c be
       0.013424277 0.2259833 -0.24356133 -0.274384
000270 c1 c4 6c 3c 99 83 08 be 54 0e d8 be d9 2c 12 be
       0.014451207 -0.1333145 -0.42198431 -0.1427492
000280 d7 88 67 be cc 1c f9 3d 2b ce f3 3d 05 94 8f bd
       -0.22610794 0.12163696 0.11904558 -0.07010654
000290 fc cc 5b be f3 ef e2 bd 6b 09 17 be be e4 c1 bd
       -0.21464914 -0.11080923 -0.14749686 -0.09467457
0002a0 92 d7 f3 3d 75 e2 da 3d 76 04 8a 3e 7a ec a9 3e
       0.11906351 0.106877245 0.26956528 0.3318823
0002b0 8f cc c7 be 77 7b 16 3e ab e3 b3 be 6d 5c b0 be
       -0.39023253 0.14695536 -0.35134634 -0.34445515
0002c0 c2 07 84 3d 62 6c 1c 3f e8 57 14 3e 9c 88 e1 3c
       0.06446792 0.6110288 0.14486659 0.02753096
0002d0 ea 84 06 bf 52 cd c3 3d a6 26 7a be 31 6d 1b be
       -0.5254656 0.09560646 -0.24428806 -0.15178372
0002e0 b8 99 05 3e f7 1c f6 3e 6a 14 41 3d d0 8d 05 bd
       0.1304692 0.48068973 0.04713861 -0.032605946
0002f0 61 35 de bb 4a 38 d0 3d 31 3b 03 3d 1f cc ff 3d
       -0.0067812656 0.10166986 0.03203887 0.12490105
000300 e1 45 68 bd 54 72 93 3d 09 9c 7f bb 83 1f b1 bd
       -0.056707267 0.07199541 -0.0039002916 -0.086485885
000310 ca 76 1f be 87 c2 72 bb fc 68 34 3b 96 c4 ec 3c
       -0.15572658 -0.0037042217 0.0027528396 0.028902333
000320 be 10 e7 3c 7f 5b 35 be 2d 68 44 3e ea c4 96 3b
       0.028206225 -0.17710684 0.19180365 0.0046011107
000330 28 ec e8 3d 71 f3 99 bd 32 6d 0d bd 01 fa 76 3e
       0.11373168 -0.07517136 -0.034527965 0.24118806
000340 4f 12 ca 3e 9c af bd 3c e9 cf 8c bd 08 7e 5a bc
       0.39467093 0.023155026 -0.06875593 -0.013335712
000350 ca cb 97 be f7 a6 c2 3c 60 fa 71 3d 0f 7b 71 be
       -0.29647666 0.023761256 0.059076667 -0.235821
000360 8b e7 47 be c0 c1 d0 bd f6 a9 98 be 70 bf 01 be
       -0.1952192 -0.10193205 -0.2981717 -0.12670684
000370 c2 be 29 be 6a a4 c4 be ee 54 aa bd db 50 62 bd
       -0.16576675 -0.38406688 -0.0831698 -0.05525289
000380 a0 ce ce 3d 12 b0 84 bc e1 4d 87 3e 79 d1 97 be
       0.10098004 -0.016197238 0.26426604 -0.29652002
000390 13 a7 7b bd 1a 29 8f be 7c 9c 6d be 5b c1 3c 3d
       -0.06143863 -0.27961046 -0.23204225 0.046082836
0003a0 e8 32 be 3c 52 24 a7 3d b2 46 a8 be 6f ca e0 3d
       0.023217633 0.081612244 -0.32866436 0.10976111
0003b0 67 3b b6 be e7 e2 74 be eb 28 6f 3d 44 71 55 be
       -0.35592195 -0.23914681 0.05838863 -0.20843989
0003c0 9e b2 ff bd 73 7d 62 be 01 ad 58 3e b0 57 8d bd
       -0.124852404 -0.22118168 0.21159746 -0.06901491
0003d0 d8 49 5f be 20 61 9f bd 93 0f e3 3d 67 5e 42 bd
       -0.21805513 -0.07782197 0.11086955 -0.04745331
0003e0 42 73 3a 3e f8 8c 5d 3e 19 5c 4e 3c 6e 0a 03 3e
       0.1820803 0.21635807 0.0125952 0.12796947
0003f0 cb bc 3b 3e 20 1d 26 be 06 da 00 bd 27 5b 2e bf
       0.18333738 -0.16222048 -0.031457923 -0.6810784

bias f4 [64]
000000 2e 6c d1 3c 0b 5f 4f bd 68 22 11 ba 3f 3e e4 3b
       0.02556428 -0.05062775 -0.0005536438 0.006965428
000010 56 62 54 bd 89 75 a2 3c 77 de 02 bd 4f c7 8e bc
       -0.051851593 0.019831436 -0.03195044 -0.017429022
000020 19 9a da bc ee 00 04 bd 3e af c9 3c b3 be 94 bc
       -0.026684808 -0.03222745 0.024619695 -0.018157339
000030 37 6c 76 3c 96 5e 04 bd b4 44 8b 3a d1 bb 68 bd
       0.015040449 -0.032316767 0.0010625334 -0.05681974
000040 c3 46 82 3c 23 b6 36 3d b6 66 b6 3c 35 4e 79 bd
       0.015902882 0.044607293 0.022265773 -0.0608656
000050 83 fa ab bc ef ca 05 3d 9b 37 9a 3c 0a a2 ac bc
       -0.020993477 0.032664236 0.018825343 -0.02107336
000060 a4 3d 66 bd 86 7a 04 3d c5 b0 3c bd 27 42 04 bd
       -0.05621113 0.03234341 -0.046067018 -0.03228965
000070 3c c7 3c bd 63 de 43 3d ab b0 03 bd d9 c6 85 bc
       -0.046088442 0.047819506 -0.032150906 -0.01633017
000080 3e e0 80 3d 3b 5d 3e 3c 35 9e 84 bc 43 72 91 3c
       0.06292771 0.011618908 -0.01618872 0.01775468
000090 66 6f a0 bc c1 7c 00 3d b4 50 54 bd ce 3e 3e 3c
       -0.019584369 0.031368975 -0.051834777 0.0116116535
0000a0 46 af b3 3c ac c6 8e 3c 17 3e e5 3b 46 d7 4f 3d
       0.021934163 0.017428719 0.006995927 0.05074241
0000b0 85 53 35 3d fa 66 8c bc 2f 47 64 bc b9 d6 27 3b
       0.044269104 -0.017138947 -0.013932987 0.0025610162
0000c0 fa c2 08 3d c1 1e ff bc 4b e9 e6 3c 31 ac fa 3c
       0.03338907 -0.031142594 0.028187415 0.030599685
0000d0 45 51 b6 bb 1a 89 6d bc b2 75 bb bc 92 9a a4 3d
       -0.0055638873 -0.01449802 -0.02288327 0.080372944
0000e0 56 c8 35 bd 86 7c 63 bd e9 db 85 bc 05 d7 3c 3c
       -0.04438051 -0.055538677 -0.016340213 0.011525874
0000f0 6f 28 e1 bc 53 5d b0 bc d6 62 9e bc a6 e5 06 3d
       -0.0274851 -0.021528875 -0.019334238 0.032933854

weight f4 [12, 64, 1, 1]
000000 24 3c 59 3e a1 79 6e bd 87 9c f4 bc a5 9e d9 3e
       0.21214348 -0.058221463 -0.029859794 0.4250385
000010 af ad 48 3e 3e c1 fb 3d 82 01 6c bc fd 33 6c be
       0.19597505 0.122927174 -0.014404656 -0.23066707
000020 aa cf 36 bc 16 48 09 3e 74 99 b8 bd 8a fb 98 be
       -0.011157909 0.13406405 -0.09013644 -0.2987941
000030 8e 3a 77 3d 8f 7b 77 be 06 ac 8b be b5 34 99 3d
       0.060358576 -0.24168228 -0.2727968 0.07480756
000040 7d 3e 86 3c ce 1f 77 3e ef df 86 3e f7 8a 59 be
       0.016387219 0.24133226 0.26342723 -0.21244417
000050 f0 f5 3c be c5 15 02 bf b9 dd 3b bc 96 49 97 3d
       -0.18453193 -0.5081447 -0.011466437 0.07387082
000060 fc 0f dc 3d 90 90 c1 bd e2 a1 84 be 03 88 b1 bd
       0.10745236 -0.09451401 -0.25904757 -0.0866852
000070 71 12 28 3d e1 c8 89 3c 62 d4 83 bd 9c 55 ce 3d
       0.041033212 0.01681942 -0.06436993 0.100749224
000080 7a 97 d3 bc a6 96 f0 bd 3c 51 ef 3d 27 87 af bc
       -0.025829066 -0.11747484 0.11685416 -0.02142675
000090 23 ff 7a 3d c6 f5 84 3e 2d 08 bd 3d 65 db cb 3b
       0.061278474 0.2596876 0.09230075 0.006221222
0000a0 1f 52 01 bd bb 9e 8e be 2c f4 a4 3d a5 d1 82 3e
       -0.031572457 -0.27855477 0.080543846 0.2555057
0000b0 5d a3 d2 3d e1 98 0c be f6 bc 49 be be f2 28 3e
       0.10285065 -0.13730194 -0.19700989 0.16498849
0000c0 ce 99 58 be fa e8 d0 bd ad 3b 8a bc 27 09 15 be
       -0.21152422 -0.10200687 -0.016874159 -0.14554273
0000d0 eb 3b ba bd ee 7f 28 be 04 a5 0d 3d 83 e4 99 3d
       -0.0909346 -0.16455051 0.0345812 0.07514288
0000e0 fb d4 d8 bc c1 fa bc 3e b8 cc 91 3e 08 a6 f2 bd
       -0.026468745 0.3691006 0.284765 -0.11848074
0000f0 a2 63 61 3e cd dc 6e 3e 73 45 4a bc 2a 9d 89 3e
       0.22010663 0.23326416 -0.01234566 0.2687772
000100 10 95 42 be e6 ea 28 3e 54 cb f4 bd c6 c3 89 3e
       -0.19002175 0.16495857 -0.11952844 0.26907176
000110 9b eb 40 3e 7a 3e d2 bc 4e 91 16 be 35 73 57 be
       0.18839876 -0.025664557 -0.14703867 -0.21040042
000120 45 05 7b be c0 be a2 3d 8a 75 9f 3e d8 47 0d be
       -0.24513729 0.07946539 0.31144363 -0.13796937
000130 b4 9a 7d 3e 7b f4 02 3d ac 63 30 bc 24 eb 02 3e
       0.24766046 0.031971436 -0.010765951 0.12785012
000140 2c b6 56 3e 45 c8 46 be 55 7f 19 be 10 86 a8 3d
       0.2096793 -0.19412334 -0.1498998 0.082286954
000150 84 1c 37 bc b4 5f 51 be 59 bc c7 3d d9 fa 90 bc
       -0.011176232 -0.20446664 0.09752721 -0.017697738
000160 a8 cf 86 3d b6 21 42 be 51 e0 1d bd 31 f5 01 3d
       0.06582576 -0.18958172 -0.038544003 0.031727973
000170 59 92 a0 3e 36 45 8c bc 18 22 71 3e f6 be 9c 3d
       0.31361654 -0.017122846 0.23548162 0.076536104
000180 80 73 b5 be f0 26 38 3e 9f 74 e1 bd 9a 03 b5 3d
       -0.35439682 0.17983603 -0.11008572 0.088385776
000190 36 e2 01 3e c5 17 9b be 18 ab db bd 92 0b 6d 3e
       0.12683949 -0.30291572 -0.10725993 0.23148945
0001a0 07 f1 0b 3e 0a 93 5b bd b5 16 e8 be 51 0a a6 bd
       0.13666163 -0.053607024 -0.45329824 -0.081074364
0001b0 ff e3 86 bd 2a c3 90 be 78 2a 9c be ca 3c 95 be
       -0.065864556 -0.28273898 -0.3050115 -0.2914794
0001c0 89 59 92 be cc 30 43 bd 97 6a 33 be 3a d8 22 be
       -0.28583935 -0.04765396 -0.1752113 -0.15902796
0001d0 41 50 08 be fd 1b 3a 3d 2c 34 91 3e bb 26 4f be
       -0.13311864 0.045436848 0.28360116 -0.20229618
0001e0 be aa c3 3d b9 73 6c bd 63 90 2b 3e c9 c0 23 3d
       0.09554051 -0.05772755 0.16754298 0.039978776
0001f0 4f 5c 56 3c ac 11 61 3e 76 38 0d 3e 0c 7a 47 be
       0.0130835315 0.21979398 0.1379107 -0.19480151
000200 cc 99 98 3e 51 d0 04 be 0e 32 36 be 6e 6a 7a bd
       0.29804838 -0.12970091 -0.17792532 -0.061136656
000210 14 dc b4 bd ef cb 9b 3e b4 fa 7e be 90 cf fd bd
       -0.08831039 0.30429026 -0.24900323 -0.12393105
000220 15 72 af bd 64 db 29 3e 75 5f 80 be 13 35 ca bd
       -0.08566681 0.16587597 -0.25072828 -0.09873404
000230 0a f2 bb 3c 75 f2 07 bd ee 92 d9 3d 68 c0 84 be
       0.022942562 -0.03319021 0.10623728 -0.25928044
000240 db 03 e8 be d7 4c 43 be 3e 5e dd bd e3 73 81 be
       -0.4531544 -0.19072281 -0.10808991 -0.25283727
000250 b1 d4 c6 bd d6 de 6a bd 10 e7 19 3e 01 f2 16 be
       -0.097085364 -0.05734142 0.1502955 -0.14740755
000260 f7 1b 90 be 23 fb 46 be db fb 96 be 38 b4 7f 3e
       -0.28146335 -0.19431739 -0.29489025 0.24971092
000270 4d e2 93 bd 8d 14 22 3c 71 89 04 3f fd 33 67 bd
       -0.07220898 0.009892595 0.5177222 -0.056446064
000280 89 de f8 3d c2 bc 8c bc 72 f8 1d be 23 c6 f1 be
       0.1215182 -0.01717985 -0.15426806 -0.4722148
000290 31 6e 16 bd 62 19 2c be 3c 57 f8 bc c9 6d f2 3a
       -0.03672618 -0.16806558 -0.030315034 0.0018495853
0002a0 f6 be 0a 3e 7a 26 cc be 00 8e ef bc 99 d6 8d 3b
       0.13549408 -0.39873105 -0.029242516 0.0043285605
0002b0 04 65 c7 3d 7f 40 92 b9 8a a6 7a 3e e7 ea 4b be
       0.09736064 -0.00027895343 0.24477592 -0.19913827
0002c0 b2 d6 f6 3d 41 17 2d be 3a 37 97 3e 99 21 50 3c
       0.12052669 -0.16903402 0.29534322 0.012703323
0002d0 55 79 80 be 76 3e 1e 3e 91 37 b1 3c e2 ac f2 bd
       -0.2509257 0.15453514 0.021632941 -0.11849381
0002e0 e9 a2 49 bb de bb 45 3d 0f a8 01 3f 23 fd 03 3d
       -0.0030767268 0.048274867 0.5064706 0.03222383
0002f0 26 66 4d 3e 6a d8 91 be 5d 18 17 be 13 0f fe bd
       0.20058498 -0.28485423 -0.14755388 -0.12405219
000300 43 78 16 be 57 c2 16 be 7a 8f 07 be 23 93 89 be
       -0.14694314 -0.14722572 -0.13238326 -0.2687007
000310 ff bb 15 be b2 eb f4 bd b8 9e c3 be 8d 5e 8d 3c
       -0.14622496 -0.11959018 -0.3820703 0.017257
000320 87 05 14 3e 3e df 97 3d ed b3 80 3d 64 38 a7 bd
       0.14455234 0.07415627 0.06284318 -0.081650525
000330 e4 bd fd 3d c3 18 46 be 9e e4 9e 3e 62 1c 63 be
       0.123897344 -0.19345383 0.31033796 -0.22178796
000340 9c ab d3 3c 7e 34 e6 3c 06 33 08 be b6 7c 94 bd
       0.025838666 0.028101202 -0.13300714 -0.07250349
000350 71 92 f8 bd 5d df 46 bc a0 f2 23 be a7 d4 30 3d
       -0.121373065 -0.012138215 -0.16010523 0.04317155
000360 1a 02 f2 bd 69 da 8a bd 80 5a 0e be ed 7d e9 bd
       -0.11816807 -0.0677994 -0.1390171 -0.114009716
000370 8a 46 5d be 42 fa 03 3e 87 15 cf bd 04 e6 91 bc
       -0.2160894 0.12888435 -0.10111528 -0.017809875
000380 14 6e e5 3e d9 48 07 be 34 ec bb 3d 1a 71 ad 3d
       0.44810545 -0.13211383 0.091759115 0.08468838
000390 8c 23 c0 bd ae e1 78 bd 47 aa dc bc 1d ca 11 3c
       -0.0938178 -0.0607621 -0.026936663 0.008898285
0003a0 a0 ec 6b bd f2 4f 66 be 5b 35 0a be 2d a4 24 be
       -0.05759871 -0.22491434 -0.13496916 -0.16078253
0003b0 22 19 c6 3e b6 47 89 be 8a ed 99 be 34 78 f9 3d
       0.3869105 -0.26812524 -0.3006404 0.1218113
0003c0 33 64 1b 3c cf a2 eb 3d 80 19 11 3d 94 32 39 3e
       0.009484339 0.11505663 0.03542471 0.180857
0003d0 42 fc c1 be 3d 4a 56 3e c4 4c 77 bd f5 3b a2 3e
       -0.3788777 0.20926757 -0.060375944 0.3168637
0003e0 37 1e 51 3d 96 6c 26 be 76 eb 5e bd fe 5b b1 bd
       0.051054206 -0.1625236 -0.05442377 -0.08660124
0003f0 25 99 92 be c6 ff 1f 3c d4 53 0b bd 30 09 7f bd
       -0.28632465 0.009765571 -0.03401549 -0.06226462

bias f4 [12]
000000 41 62 74 3c 32 b6 44 bb 55 ac cb 3c f4 2e 0e 3d
       0.014916004 -0.0030015823 0.024862448 0.034712747
000010 86 7e c3 3c 0f 35 fc bb 82 b7 91 3b 52 d7 d4 ba
       0.023864042 -0.0076967548 0.0044469247 -0.0016238487
000020 da 73 e6 3b 64 0e e7 bc 32 8c d6 bc 2a ac b4 3d
       0.0070328536 -0.028205104 -0.026189897 0.088219

weight f4 [12, 12, 3, 3]
000000 37 f5 87 be 3e e8 fb 3b 10 e1 8d bd 39 cb 0f be
       -0.26554272 0.0076875975 -0.06927693 -0.14042367
000010 eb 1c 06 3e 5b bd ea bd e4 89 c0 3d 8a 75 bd 3e
       0.13096969 -0.11461898 0.094013005 0.37003738
000020 88 02 30 be 37 d9 ae bc ad 63 39 bd 5a 1f e7 3d
       -0.17188466 -0.02134381 -0.045261074 0.11285277
000030 d1 93 b5 bd fb f7 58 bc 39 65 93 be 05 dd 22 3e
       -0.08866084 -0.013242717 -0.28788164 0.15904625
000040 b0 04 11 3e ee 67 e8 3d d5 76 04 3d 8a 24 9b 3c
       0.14161944 0.11347948 0.03233989 0.018938322
000050 0d e6 18 be aa e4 04 be 03 a0 a5 bd 97 b0 9f 3e
       -0.14931507 -0.12977853 -0.080871604 0.31189415
000060 7b 75 45 3e 92 1f 40 bd d1 f2 f4 bd 4e a6 21 be
       0.19283096 -0.046905108 -0.11960376 -0.15786096
000070 8e 57 a3 be 16 42 df 3d 87 4a 2d be ec 2d 88 be
       -0.31902736 0.10901277 -0.16922961 -0.26597536
000080 22 23 aa bd 89 80 7b bd 40 06 34 be 4b 87 70 3e
       -0.08307482 -0.061401878 -0.17580509 0.2348911
000090 c3 62 47 be c9 de 82 3c db 53 68 3d cd 6b a4 3d
       -0.19471268 0.015975373 0.056720596 0.08028374
0000a0 e3 83 4b 3c fe 1c 3e 3d 1f 59 1e 3e c4 4e d2 be
       0.012421581 0.046414368 0.15463684 -0.41075718
0000b0 f4 fa 74 3e b3 4e e0 3d 9d d4 fc 3c f4 31 3e bd
       0.23923856 0.10952511 0.0308631 -0.046434358
0000c0 02 9f 6b bc 60 d8 37 be 17 9d 3a 3e fe 92 86 3d
       -0.014381172 -0.17953634 0.18223988 0.06571005
0000d0 40 95 56 3e 70 07 1a 3e 84 e7 b6 bc 76 3f ef 3d
       0.20955372 0.150419 -0.022327192 0.11682026
0000e0 62 50 65 3e 83 4e 06 3e 2b 55 58 be 59 36 fc 3d
       0.22393945 0.13115887 -0.21126239 0.123150535
0000f0 65 68 d9 bd e9 85 82 3d e3 8f 8c be b1 f1 9d be
       -0.10615615 0.063731976 -0.27453527 -0.30848458
000100 83 df 4f be f5 57 10 3e 84 bf e4 bc 3e 5d 8f 3e
       -0.20300107 0.14096053 -0.027923353 0.28000826
000110 c0 03 d8 3d ea 14 63 3d 5f 00 21 3e a5 bd 89 be
       0.1054759 0.055439867 0.15722798 -0.269025
000120 f3 93 d9 3d 42 30 b4 3e d9 80 c8 3d 5a 7b 13 bf
       0.10623922 0.35193068 0.09790201 -0.57610095
000130 97 7c 5b bd da 02 b9 be 4b 6e ed 3d 01 a8 55 3e
       -0.053585615 -0.36134988 0.11593302 0.2086487
000140 cc 40 8b 3c ca 8a 7a be 30 a0 d0 3d 43 ca 7e 3d
       0.016998671 -0.24467006 0.10186803 0.06220461
000150 9e e2 8c bd 21 dc 14 3e a5 87 fa 3d 90 22 db 3d
       -0.06879161 0.14537098 0.122329034 0.10699952
000160 77 55 96 be 8f cb 7c be ef 4f d7 3e 29 b9 63 be
       -0.2936208 -0.24687026 0.42053172 -0.22238602
000170 68 34 a9 be e8 8d 55 bd ef d3 29 3e 32 25 46 3e
       -0.33047795 -0.052137285 0.16584753 0.19350126
000180 95 0a 66 be 60 30 9e 3c 04 52 6c 3c c7 4a f9 be
       -0.22464974 0.019310176 0.014423851 -0.48689863
000190 d9 6e a6 3c e2 f4 d0 3d c6 6f 47 3e b6 6d 0c be
       0.020316528 0.10202958 0.19476232 -0.13713726
0001a0 54 b8 2a be 2a f6 dc 3e d0 36 49 3e f0 37 a0 3e
       -0.16671878 0.43156558 0.19649816 0.31292677
0001b0 8d 31 ad 3e 22 3a 8b 3e 79 34 d2 3d 33 2c 37 bd
       0.33826867 0.2719279 0.102639146 -0.044719886
0001c0 65 c1 d0 bc 69 84 8e bc 64 39 bc bd 2b 1b f4 3d
       -0.025482843 -0.017397122 -0.09190634 0.119192444
0001d0 0c 73 a1 bd 84 51 ed 3d 63 b6 75 3c 33 a3 8a 3c
       -0.078832716 0.115878135 0.014997098 0.016923523
0001e0 b5 1e 8b bd e1 e2 bd 3e 71 9e ad bc dc 99 ec 3d
       -0.06792966 0.37087157 -0.021193715 0.11552784
0001f0 9f 18 26 be 4d 66 87 3e d0 88 9f 3e eb 45 39 3c
       -0.1622033 0.26445237 0.31159067 0.011308174
000200 cb aa 07 3e ba 93 98 3c 53 2a 8f bd 71 c3 d1 3d
       0.13248746 0.018625129 -0.069904946 0.102423556
000210 5f e4 ef 3e cd 90 2c 3e 28 40 c0 bd 88 98 ce 3d
       0.4685392 0.16852112 -0.09387237 0.10087687
000220 a4 bc 16 3e d4 1a 80 3e 5e 5c 68 3e a1 e8 d6 bd
       0.14720398 0.25020468 0.22691485 -0.10493589
000230 80 95 3b be 5f c5 aa 3e d4 84 79 3e 89 51 5a 3e
       -0.18318748 0.33353707 0.24367076 0.21320166
000240 6f ab 59 be 74 63 f8 bd 31 ac 5f bd 18 50 28 be
       -0.21256803 -0.12128344 -0.054607574 -0.16436803
000250 13 b0 4c be 50 d3 c0 3d a4 17 1c bd a4 4c 40 3e
       -0.19989042 0.09415305 -0.038108483 0.18779236
000260 f3 6a ef 3c 1e 0e 9c be 63 73 9e 3e e4 20 68 3e
       0.029225802 -0.3047952 0.30947408 0.22668797
000270 9a f5 28 bd 10 15 78 be b3 2f 60 be 3d 89 af 3d
       -0.04124985 -0.24226785 -0.21893196 0.08571098
000280 25 38 18 be f2 a5 17 bd a3 89 81 3e b4 42 4f 3c
       -0.14865167 -0.037023492 0.2530032 0.012650181
000290 81 7e 6c be 57 0e 84 3c ad ec 31 be a5 d9 69 3d
       -0.23095132 0.016120119 -0.17375441 0.057092328
0002a0 18 39 15 be f4 f0 15 3d a0 2f 9e 3c 3b 23 01 3d
       -0.14572561 0.036606744 0.019309819 0.03152774
0002b0 3f 54 d4 3e 9b c3 a1 be d5 e4 1e be f2 fb 50 bd
       0.41470525 -0.31594548 -0.1551698 -0.051021524
0002c0 3a 83 34 be 72 ed 52 3d 15 44 02 ba 0d 03 6f bd
       -0.17628184 0.051495977 -0.00049692515 -0.05835252
0002d0 95 60 da bd d9 79 d4 3d 1b 83 9f be ea 57 1e 3d
       -0.10662953 0.10374803 -0.31154713 0.03865806
0002e0 f9 40 88 bd bc 69 71 3e 00 e3 77 bd 4e d5 c8 bd
       -0.066530176 0.2357549 -0.06051922 -0.0980631
0002f0 6c 84 15 3e 09 1d a2 3d a6 44 fc bd e5 c2 57 be
       0.14601296 0.07915694 -0.12317781 -0.2107044
000300 49 f0 e1 3e b6 55 29 be f9 27 0f 3e 0c ef 19 3f
       0.44128636 -0.16536602 0.13980092 0.6013038
000310 bf 41 a4 bc ae 26 89 bc 0b f2 47 bd aa a2 2e bd
       -0.020050881 -0.016742077 -0.048814815 -0.042635597
000320 12 b7 8f 3e fb 17 e3 3d fc 6b cc 3d 8e df b0 bc
       0.2806936 0.11088558 0.09981534 -0.021590974
000330 29 89 7f bd 3d e0 a4 bd c2 f2 cb be 98 cf c6 3e
       -0.062386665 -0.080505826 -0.39833647 0.38830256
000340 24 a6 60 3c 8b c2 9d 3d 7f 96 5a 3e c0 c0 e2 bd
       0.013711486 0.07703122 0.21346472 -0.110719204
000350 23 f1 42 3b 7a f1 57 3e 0c ac 7e bd b8 a5 bc 3c
       0.002974578 0.2108821 -0.062175795 0.02302824
000360 04 e4 b6 bd 1e a0 b4 bc f2 eb 35 3d 28 da 99 3e
       -0.08930209 -0.022049006 0.044414468 0.30049253
000370 4d 00 26 be cc 32 98 bd b4 8a 0a be 52 18 09 be
       -0.16211052 -0.07431564 -0.13529474 -0.13388184
000380 7b ad 5b 3e 8b 6a ed bc 8f df f9 3d 7d 30 3d 3c
       0.21452896 -0.028981468 0.122008435 0.011547205
000390 86 2e 83 bd 58 28 83 3e d7 8f 66 3e 65 1d f8 3d
       -0.06405358 0.25616717 0.22515808 0.121149816
0003a0 46 42 d7 bd 81 60 e9 3b 46 61 14 bd 99 e9 08 3e
       -0.105106875 0.0071221 -0.03622558 0.1337036
0003b0 59 b1 3a be 71 30 04 3d 82 3d ca be f0 b9 26 be
       -0.18231715 0.03227276 -0.39500052 -0.16281867
0003c0 c1 6c 49 3d c9 70 0f 3e 93 9c 3b be ac ef 3b 3d
       0.04917598 0.14007868 -0.18321447 0.045882866
0003d0 96 3c 82 3e b2 fc 34 bd 1a 44 4b 3e 61 c0 c3 bd
       0.25436848 -0.0441863 0.19850197 -0.09558178
0003e0 e9 b6 bc bc 2c 0d 97 be 96 c8 50 3e bc 1b 86 3e
       -0.023036437 -0.29502237 0.20389017 0.26193035
0003f0 8f 23 19 be 2f b3 1e bd 9b fe 65 bd 21 20 fe bd
       -0.14954971 -0.0387451 -0.056151014 -0.12408472

bias f4 [12]
000000 2f 6c 21 bc 2d 02 5c 3c 66 a2 80 3c 49 d4 27 3d
       -0.009852453 0.013428253 0.015702438 0.040973935
000010 32 b0 33 bc 99 ba 87 3c eb fb 50 bc 1f 47 df 3c
       -0.010967301 0.016568469 -0.012755374 0.027255593
000020 f5 2d 3e 3b 6b 36 b6 bc 29 0c 23 bd 10 3c cd bc
       0.0029019092 -0.022242745 -0.03980652 -0.025053054

weight f4 [12, 12, 3, 3]
000000 81 bb 91 3c 54 72 0a 3c 38 2c b7 3e 50 c9 9c 3d
       0.017789604 0.0084501095 0.35775924 0.07655585
000010 56 b2 51 be 58 41 4e be 89 6f cc bc 59 66 79 3d
       -0.20478186 -0.20142114 -0.024955528 0.060888622
000020 f8 29 5b bd 71 69 7a 3e d8 08 32 3e b4 c8 9d be
       -0.05350682 0.24454285 0.17386186 -0.30817187
000030 b8 37 f8 3c de 44 60 3d d1 28 5e 3d 98 eb e8 3d
       0.030300006 0.054753177 0.054238144 0.11373061
000040 b6 ef 33 be 7c a5 4d 3e 39 b8 08 bd 18 a1 91 be
       -0.17571911 0.20082659 -0.033378813 -0.28443217
000050 b4 36 be be 80 f3 59 bc e1 d9 fa be cc f0 4b 3e
       -0.3715111 -0.013302684 -0.48994353 0.19916075
000060 14 e6 aa bd 98 e2 37 3d 68 70 fa be 24 ed 00 bc
       -0.08344665 0.04489383 -0.48913884 -0.007869039
000070 ba bd d0 bd ee 97 cc 3e 6b 37 cb 3d 4e 7b 9f 3d
       -0.101924375 0.39959663 0.099226795 0.077871904
000080 43 22 1d bd 4a f1 b5 be 4f e3 01 bd 37 35 32 bc
       -0.038362753 -0.3553565 -0.03171092 -0.010876945
000090 a4 ea 0a 3e c8 5b de bc 88 16 99 3e c9 69 73 3d
       0.13566071 -0.027143374 0.29900002 0.059427056
0000a0 98 60 75 3d ae 2a d0 3d 56 04 0e 3d 04 10 1e 3e
       0.059906572 0.101643905 0.034672104 0.15435797
0000b0 2e c8 31 3e 3b c1 4d be c5 03 3f 3c 8c 51 67 be
       0.17361519 -0.20093243 0.011658614 -0.22589701
0000c0 e8 b6 98 3e 9d f9 d2 bc b7 56 25 3d 95 58 52 be
       0.29827046 -0.02575379 0.0403659 -0.20541604
0000d0 55 84 3c bd 6f 0e 70 3d be f9 8e be dd 04 83 bd
       -0.04602464 0.058607515 -0.27924913 -0.06397412
0000e0 27 39 93 3d 84 f5 a9 bb 53 04 c5 be 2f fe a9 3e
       0.07188635 -0.0051867384 -0.38479862 0.3320174
0000f0 9c 26 23 be 09 5f f8 3e 81 de 46 be 0f 32 ae bd
       -0.15932697 0.48510006 -0.19420816 -0.08505642
000100 36 f7 40 be 25 5c 74 be 5e 0a 80 bd 57 d8 81 3e
       -0.18844303 -0.23863275 -0.062519774 0.25360367
000110 c4 05 32 bc 84 a8 30 3e 15 7f 70 3c 3b 1f 8a be
       -0.010865632 0.17251784 0.014678736 -0.26976952
000120 5d 8c 47 3e 9a d9 f1 be 83 b2 46 3d f4 ce f1 3d
       0.19487138 -0.4723633 0.048510086 0.11807051
000130 da 88 65 3e 18 55 db bc 0f f4 e8 3d 75 c3 f0 bd
       0.22415486 -0.026773974 0.113746755 -0.117560305
000140 65 49 2e 3e 5b 7f cc b9 5a cd 19 3e 4e df a5 be
       0.17020185 -0.000390048 0.15019742 -0.3239693
000150 28 c2 f5 3e 3b 5f 0e be 94 99 19 3d be 78 c6 3e
       0.47999692 -0.13903515 0.03749998 0.38763994
000160 fc de 83 bd a1 82 f4 bd a9 e8 bc bd 90 fb 76 3d
       -0.06439015 -0.11938978 -0.09224064 0.060298502
000170 e3 5e 1e 3e 7e 12 b8 be c5 f9 1e 3d 34 a7 44 3e
       0.15465884 -0.35951608 0.038812418 0.19204408
000180 0a f5 86 3e 73 e7 b3 3c 7d 0c cb bd ea 40 ad be
       0.26358825 0.02196095 -0.09914491 -0.33838588
000190 bb e7 88 3e 2b 30 c6 3d 60 17 ab 3e 08 c3 2d 3e
       0.26739296 0.09677156 0.3341627 0.1696893
0001a0 d4 29 64 3a 68 42 f0 bd f8 99 9b 3d 2f b3 ac be
       0.00087037426 -0.11731416 0.075977266 -0.33730456
0001b0 f3 f9 b7 be 15 bc 32 be 4e d6 65 3d 56 56 38 bd
       -0.35932884 -0.1745456 0.05611258 -0.04500421
0001c0 e0 bb 78 3e 24 17 52 be 4c 05 79 3e 30 c4 32 bd
       0.24290419 -0.2051664 0.24318427 -0.04364413
0001d0 c4 a6 83 3c b6 38 04 be 13 36 47 be 3d 57 f8 3d
       0.016070731 -0.12912259 -0.19454221 0.121260144
0001e0 ab 9a 88 be 23 3c d5 bd d4 ac 91 be 04 bb 2d 3e
       -0.26680502 -0.10411861 -0.2845217 0.16965872
0001f0 2c 9b 8d 3b c4 a0 8d be e6 cd 4d 3e 79 51 c9 bc
       0.0043214764 -0.27661717 0.20098075 -0.024574982
000200 41 8b fb 3d 5e 1f c6 3c c3 f5 76 3e d8 b3 c6 3e
       0.1228242 0.024184879 0.24117188 0.38809085
000210 7b bb 07 bf 73 9d 58 3e df 06 f0 bd 8f 16 d3 be
       -0.5302045 0.21153812 -0.117200606 -0.41228148
000220 7f 73 60 be ca 09 ca 3d 4a 95 19 be df a7 15 3e
       -0.21919058 0.09865148 -0.14998356 0.14614819
000230 0e f5 1c 3e 8c 36 f7 bb 26 a2 de bd 20 94 d2 3e
       0.15327856 -0.0075443443 -0.10870771 0.41128635
000240 16 c0 4c be 34 f6 df 3d 95 4b e6 bd 9e 39 a3 bc
       -0.1999515 0.109356314 -0.11244885 -0.019924935
000250 82 c7 02 be 24 01 31 3e e2 f7 97 3e f4 70 d3 bc
       -0.12771419 0.17285591 0.29681307 -0.025810696
000260 34 bd fa 3d 13 84 49 bd f5 76 57 be 4b 77 83 3d
       0.12243119 -0.04919822 -0.21041472 0.06419238
000270 10 91 88 3d fa 0d 28 be 7b 7b 01 3e de ea a0 3c
       0.066682935 -0.16411582 0.1264476 0.019643243
000280 c3 ae d0 3d 02 d2 03 3e 74 a5 93 3e 03 4f 2c 3e
       0.10189583 0.1287308 0.28837168 0.16827016
000290 b9 c6 d3 3e a5 07 06 bd 81 58 1d be e3 5b 07 3e
       0.4136255 -0.032722134 -0.15365793 0.13218646
0002a0 ab e4 9a bd a0 49 08 be 3f 3e 12 bc 73 5d 3d 3e
       -0.07563146 -0.13309336 -0.008925973 0.1849268
0002b0 ef ec db 3d 7c a3 af be 0f 37 84 3c 8f 93 8c 3e
       0.10738551 -0.34304416 0.016139535 0.27456328
0002c0 f1 57 e8 3d 40 97 be 3e 6f 44 9a 3c f8 76 58 be
       0.113448985 0.3722477 0.01883146 -0.21139133
0002d0 38 a0 90 be aa 7d 27 be 6a 9d 34 be d7 8b 3f be
       -0.28247237 -0.16356531 -0.17638174 -0.18705688
0002e0 11 2f 9a 3e a2 39 db bd f7 b0 2b bd e1 ad 1a 3e
       0.30114034 -0.10704352 -0.041916814 0.15105392
0002f0 2a 9a 8c be ec a1 c8 3e 0b 96 8b be 67 99 64 be
       -0.27461368 0.39186037 -0.2726291 -0.22324143
000300 51 41 a0 3e 7c b4 0d bd 22 13 26 be 13 39 ef 3d
       0.31299832 -0.03459595 -0.16218236 0.11680808
000310 45 6a f6 3e 69 87 a3 bd ec 92 8e bd 9f f6 9d 3c
       0.48127952 -0.07984812 -0.06961617 0.019282637
000320 be 9b 3f 3e ad f8 3c be fe 46 84 3b f3 0b 0a 3e
       0.18711755 -0.18454237 0.0040367832 0.13481121
000330 9d 61 22 3e c5 ef b1 be b3 4d 44 3c 48 22 1e 3d
       0.15857549 -0.34753242 0.011981416 0.038606912
000340 52 7d 76 3e 46 22 86 be 68 d7 32 3e e4 2a 4b 3e
       0.24071243 -0.26198024 0.17464983 0.1984058
000350 86 04 93 3d f3 33 45 be 78 99 f1 bd 86 c7 ca bd
       0.07178597 -0.19258098 -0.1179685 -0.09901337
000360 98 91 1e 3e 0f dc 3c 3e ce 93 db be 68 34 13 be
       0.15485227 0.1844332 -0.42886204 -0.1437546
000370 4e 85 1f be 3a 20 37 be 83 41 2f 3e 9f 01 86 be
       -0.15578195 -0.17883387 0.17114834 -0.26173112
000380 18 47 47 be 62 2b 99 be 86 d5 17 3e 9e 6e b5 be
       -0.19460714 -0.2991591 0.14827546 -0.35435957
000390 fa fe 0d 3f 5c b0 24 be 22 b9 04 be 66 2c 8c bd
       0.5546719 -0.16082901 -0.12961248 -0.06844406
0003a0 de 06 fd bd a6 d6 1c 3e 5e 60 91 3c d6 98 c4 3e
       -0.123548254 0.15316257 0.017746147 0.38397855
0003b0 e0 0a b5 3e f1 83 a9 be b4 ea 75 3e 1b 6a 74 be
       0.3535986 -0.33108476 0.24015313 -0.23868601
0003c0 43 e5 81 be 74 77 c8 3e e2 0d c3 bd 0d b6 c3 3c
       -0.25370225 0.39153636 -0.09524132 0.02389052
0003d0 a4 68 8c 3e c3 7f 0c be 38 24 84 bd 90 5a c7 bd
       0.27423584 -0.13720612 -0.06452221 -0.0973407
0003e0 f7 3a 6b bd ff 3d 2b be 51 98 8f bd fe db be 3e
       -0.05742928 -0.16722868 -0.07011474 0.37277216
0003f0 e8 b5 52 3e 27 3f 7a 3d 04 88 3b 3d ad ba a4 3d
       0.20577204 0.061095383 0.04578401 0.08043418

bias f4 [12]
000000 25 3d 02 3d d2 91 8c 3b 9e 54 4c 3c 8c 72 1a 3d
       0.031796593 0.004289844 0.012471346 0.037706897
000010 ae df dc ba e5 b9 90 bc 02 ba 05 3c ce 44 2f bc
       -0.001685133 -0.017666766 0.0081620235 -0.010697557
000020 4f 83 84 bc 72 e4 3e bc b7 90 94 bc a0 5f 0a bb
       -0.016175894 -0.011651145 -0.018135412 -0.0021114126

weight f4 [12, 12, 3, 3]
000000 9a 59 8a 3c fe f3 c7 bd 7e 5e 06 3c 2e a7 6b bd
       0.016888428 -0.09763335 0.00820124 -0.05753248
000010 61 87 a2 3c 66 df 5f 3e b2 83 e8 3c ac cf 93 3d
       0.019839944 0.21862563 0.02838311 0.07217345
000020 6f 76 bb 3d dd a5 5e bd 99 1c cc 3e 9f d3 93 bd
       0.09153449 -0.0543574 0.39865568 -0.07218098
000030 13 1a e9 be 05 fa c4 3e e7 5f e5 3d ab a5 08 3f
       -0.45527706 0.38472 0.111999325 0.5337779
000040 fd 78 93 3d 96 cf 6f 3e 93 c9 05 3e 8e 39 c0 bd
       0.07200811 0.23419032 0.13065176 -0.09385978
000050 50 38 a5 3e 06 a3 75 3e 84 f5 1d 3e 26 8a 89 bc
       0.32269526 0.2398797 0.15425688 -0.016789507
000060 e9 03 cc 3a 76 83 c1 3d 02 97 ac bd e9 9d 5e 3d
       0.001556513 0.09448902 -0.0842724 0.054349814
000070 87 16 41 be ab 7b ca be 9e 51 1f 3e d6 8e e3 3a
       -0.1885625 -0.39547476 0.15558478 0.0017361294
000080 9b e1 df 3d 48 f2 97 3e a6 15 9b bc 8b c6 47 be
       0.10931703 0.29677033 -0.018931221 -0.19509332
000090 66 04 87 be ae c3 5b 3d 95 b8 31 3e 34 6e c2 3c
       -0.26370543 0.05365341 0.17355569 0.02373419
0000a0 e7 ef 00 3e 42 6b 9b bc 65 69 c4 3d b1 be 2f be
       0.12591515 -0.018972043 0.09590415 -0.17162587
0000b0 2d 9c 69 bd 85 eb 87 bd 62 0c 09 be fc ad 91 bd
       -0.057033706 -0.06636719 -0.1338363 -0.07113263
0000c0 2b 92 30 be 4d 7f 12 3d bf 27 b8 3d 2c bb 0f 3e
       -0.17243259 0.035765935 0.08991956 0.14036244
0000d0 1b e8 35 be 72 e4 1f bf b2 91 af 3e f0 35 88 3d
       -0.17764322 -0.62457955 0.34290844 0.06650913
0000e0 59 19 4f bd 01 d2 fe bb fa b8 ea bd 80 f8 9b 3e
       -0.050561283 -0.0077764993 -0.11461063 0.30463028
0000f0 2a ec 13 be 1f a2 50 be 35 42 1d be 0c 87 8e 3e
       -0.14445558 -0.20374344 -0.15357287 0.27837408
000100 67 1d a1 be c9 1d e7 bc 05 46 97 3e 09 7b 01 3e
       -0.31467745 -0.028212445 0.29545608 0.1264459
000110 be d5 92 be 12 27 1c 3d 1c 9c 6b 3e 1f 1e c5 3e
       -0.28678697 0.038123198 0.2300877 0.38499543
000120 8e 4d a8 3e 45 00 24 3e 05 bd 3d bd a2 e7 f3 3d
       0.3287167 0.16015728 -0.04632284 0.11909415
000130 d6 98 be 3e 39 6a 9c be 04 32 7e bd 1d 30 2c be
       0.3722598 -0.3054979 -0.062059417 -0.16815229
000140 c9 a1 a3 bd 06 e0 03 3d 72 5e 72 3e 58 d2 3b be
       -0.079898424 0.032196067 0.2366884 -0.18341959
000150 db 1a 69 bd 77 4f 38 bd 00 77 9d be ef eb 5c 3d
       -0.056910377 -0.04499766 -0.30754852 0.05393594
000160 42 04 03 be c3 ad 93 3e d4 e7 47 be c5 0c 8f bd
       -0.12794593 0.28843507 -0.19522029 -0.069848575
000170 e7 1e 76 be 30 73 ce 3d b1 2b 5e 3e dd 77 c1 be
       -0.24035226 0.10080564 0.21696354 -0.3778676
000180 c3 c8 10 be e1 28 e8 bd 7a 70 d1 3e 18 4f af 3c
       -0.14139085 -0.11335922 0.40906125 0.02140002
000190 fb fe c1 be 6b 31 59 3e 39 9b 2b bd 7d ff af 3e
       -0.37889847 0.21210258 -0.04189608 0.3437461
0001a0 e7 79 19 3e c6 d2 37 3d 00 ea 78 3c c0 4a 04 be
       0.14987908 0.044878744 0.015192509 -0.1291914
0001b0 7f 12 cf 3c ca dc 25 be 31 6d 99 3e 37 7d 17 3d
       0.025277374 -0.16197506 0.2996612 0.03698465
0001c0 22 bd e0 3d 82 2f 04 be 98 34 86 3e 52 60 91 3e
       0.10973574 -0.12908748 0.26212 0.283938
0001d0 8e e8 8e 3e 4c 9a 8b 3e 0b 9c 65 3c 28 a7 8f 3c
       0.279118 0.27266157 0.014014254 0.017535761
0001e0 10 ba b6 be 0f 8a 64 3c 18 b0 c3 3c 08 1d ac 3d
       -0.3568883 0.013948931 0.023887679 0.08403975
0001f0 24 e7 38 3e 17 06 13 be 92 d2 93 3d 55 99 ae bd
       0.18056923 -0.14357792 0.072178975 -0.085253395
000200 0d de 34 3e ef e1 d4 3c 07 9d 26 3e f3 7f c5 3d
       0.1766283 0.02598664 0.16270839 0.09643545
000210 97 55 b7 bd 4a 81 14 3e a2 07 d7 3e 47 25 a9 3e
       -0.08951872 0.14502445 0.4199801 0.33036253
000220 15 04 5f bd 72 5e 18 3e c7 d3 fb bd f6 af 6e 3d
       -0.054447252 0.14879778 -0.12296253 0.05827328
000230 80 1f 98 3e a6 ee df 3e 41 e6 9d be f3 fe a3 3c
       0.29711533 0.43736762 -0.30839732 0.02001903
000240 d7 21 2b be 36 79 4b 3e cd fc a9 be 16 76 24 3d
       -0.16712128 0.19870457 -0.33200684 0.040151678
000250 88 3e 1b 3e 14 eb de 3e 46 4c 03 be 8f 10 f4 bd
       0.15160573 0.43538725 -0.12822065 -0.11917221
000260 3c 7a 1e bd b4 69 c5 3c b8 a3 16 be d8 0b 20 3e
       -0.03869079 0.024098255 -0.14710891 0.15629518
000270 47 a8 4e bd 9e a6 45 be f8 12 76 be be aa 49 3e
       -0.05045345 -0.1930184 -0.24030674 0.19694039
000280 93 81 7a 3e 03 2e 8f 3e 10 01 0b be b1 92 5f bd
       0.24463491 0.27964792 -0.13574624 -0.054583255
000290 ba 8d 20 3e 54 aa 69 bb 6b bc 96 bd 5b c3 4c be
       0.15679064 -0.0035654502 -0.073601566 -0.19996397
0002a0 db bd b2 3d 5d ba bf 3e 1b c6 88 bc 78 c5 87 be
       0.08727618 0.3744687 -0.016696027 -0.26517844
0002b0 08 5f 8b 3e ee 56 41 be e0 2e 9b 3d bb 1b de 3e
       0.2722094 -0.18880817 0.075773 0.43380532
0002c0 aa 9f 3a be be a6 49 be 66 d0 a7 3e 95 71 55 3d
       -0.1822497 -0.19692513 0.32776183 0.052110273
0002d0 f8 b2 9d be d8 92 2b be 47 fb 78 bd 04 48 e1 3e
       -0.30800605 -0.16755235 -0.06078651 0.44000256
0002e0 bf f6 45 3e a5 12 d1 bd 8c 19 83 bc a6 32 bb 3d
       0.19332407 -0.10208634 -0.016003393 0.0914052
0002f0 16 d7 14 3d a5 f1 46 3d 30 23 0c 3e ac 49 c7 bd
       0.036337934 0.048570294 0.13685298 -0.09730849
000300 d9 31 70 3d 2e e2 1c 3d ad 69 c5 bd af df 3e 3d
       0.05864129 0.03830164 -0.09639297 0.04660004
000310 19 85 23 be 34 79 38 3e 5f 90 43 3e ac 09 6d 3d
       -0.15968741 0.18014985 0.19098042 0.057870552
000320 a6 0f 99 3e f0 ef 19 3e ea a9 b5 be 32 a0 12 be
       0.2989475 0.15032935 -0.35481197 -0.14318922
000330 c9 7e c2 3e c5 2b 02 bf bb 71 2f 3e 02 77 0b bf
       0.37987354 -0.50848037 0.17133228 -0.54478467
000340 36 e0 93 3d 6e ee 3e bc 53 f8 4d 3e d4 59 c7 bd
       0.07220499 -0.011653526 0.2011426 -0.0973393
000350 c3 9a 0c be 06 25 a2 3e 13 80 86 3e ab 1e 82 3e
       -0.13730912 0.31668872 0.26269588 0.25414023
000360 bd 5e da 3e 9e 14 0a be 1f f4 57 be cb ca bd 3c
       0.42650405 -0.13484427 -0.21089219 0.023167988
000370 7c e7 8d be 28 ad 89 3e 5c 33 f4 3e b0 bb 92 3d
       -0.2771567 0.2688992 0.47695434 0.07164705
000380 17 d7 d5 be ae 9a db 3e e3 f7 61 be ae 37 b9 bd
       -0.41765663 0.4289145 -0.22067218 -0.09043823
000390 17 a4 bd 3e d5 5a 32 3d 8d 5e a7 3e d8 33 0e 3c
       0.37039253 0.043543655 0.32689324 0.008679353
0003a0 c3 ed 86 bd ec ec 0d 3c 18 1b 41 3e 28 e1 02 3e
       -0.06588318 0.008662444 0.18857992 0.12781203
0003b0 b6 2c fb bd 7c ea ce bd e7 76 be 3d 4a d3 b6 3d
       -0.12264387 -0.10103318 0.093000226 0.08927019
0003c0 70 02 03 be 54 10 0d be 19 08 35 be df 23 9a be
       -0.12793899 -0.1377576 -0.1767887 -0.30105492
0003d0 22 9b 94 bd 74 d4 74 bd e7 44 5e 3e 88 9c 04 be
       -0.07256152 -0.059772924 0.21705972 -0.12950337
0003e0 46 70 2b 3e df 3c 53 3e c9 65 cf 3e ea 76 36 3e
       0.16742048 0.20628689 0.40507343 0.178188
0003f0 2f d3 80 be f1 4e 2f bd 60 99 41 bd ea 54 b3 3e
       -0.2516112 -0.042799894 -0.04726541 0.35025722

bias f4 [12]
000000 36 8c cf 3c 0b 0c 38 3d 30 2d 22 3c bd c9 7f 38
       0.025335412 0.04493336 0.009898469 6.098462e-05
000010 58 3f 96 3c a1 c4 45 3d 4d 9b 02 bd f0 0a 4a bb
       0.018340752 0.048283223 -0.031886388 -0.0030829273
000020 a6 c2 cc bc 7c 25 fa ba d7 52 45 3b 4b e8 69 3b
       -0.02499516 -0.0019084658 0.003010919 0.0035691436

weight f4 [12, 12, 3, 3]
000000 87 e7 ea 3d e4 2b 64 be 9f f4 4d be 13 9f 95 3e
       0.114699416 -0.22282368 -0.20112847 0.29222926
000010 68 61 5e 3c 6f 7b ea 3d 78 ad 20 be 92 76 b4 bd
       0.013573028 0.11449324 -0.15691173 -0.08811678
000020 30 07 b3 bd 3f 69 ef bd f2 03 04 3f 5c 1b e5 3c
       -0.08741605 -0.11689996 0.5156852 0.027967148
000030 78 b4 09 bc a4 f3 8f bc 99 cf 8a be 21 e3 ff bd
       -0.0084048435 -0.017572232 -0.2711151 -0.12494493
000040 2d af b8 3c c1 74 69 3e 1d 37 24 bb c5 16 f8 3d
       0.022544468 0.22798444 -0.0025057264 0.12113718
000050 a9 9e 23 3e 6e 81 4b be e7 f6 f6 bd a2 49 ae be
       0.15978493 -0.19873592 -0.12058812 -0.34040552
000060 ae fd d0 3d 5d d5 a6 bd 0b c3 cd ba 24 05 01 3e
       0.102046356 -0.081461646 -0.0015698386 0.12599617
000070 b9 e6 c1 bd 22 c3 6e bc 68 65 32 bc b3 aa 13 be
       -0.09467835 -0.0145728905 -0.010888435 -0.14420585
000080 e0 22 f2 bd b7 7f 60 3e f3 68 97 be ec 35 de bd
       -0.11823058 0.2192372 -0.29572257 -0.108501285
000090 80 26 17 be e3 9f 1e 3d 65 ee 8a be 57 35 c9 3d
       -0.1476078 0.0387267 -0.27135006 0.09824627
0000a0 40 03 b1 bd e8 45 3d be 74 ac 64 3e a9 fc 86 be
       -0.08643198 -0.18483698 0.2233141 -0.2636464
0000b0 67 aa fd bd d7 b0 2d 3e 26 a4 8f 3e b0 13 16 be
       -0.12386017 0.1696199 0.28054923 -0.14655948
0000c0 1b ed 3e bd fc 03 a9 3d 6e 67 2d bc ae b4 8e ba
       -0.04661284 0.08252713 -0.010583742 -0.0010887587
0000d0 bb c5 cd bd 81 55 a1 be 79 b4 89 be af 02 49 bd
       -0.1004748 -0.31510547 -0.26895502 -0.049074825
0000e0 0b 55 1e 3e bd 1c 5a be d7 d2 74 3e de 48 c3 bd
       0.15462129 -0.21300025 0.23908554 -0.09535383
0000f0 20 0f d1 bd 24 bf 9f bd a4 bd 4f 3e a2 3b 9b 3e
       -0.10207963 -0.07800129 0.20287186 0.30318934
000100 0b 0b 54 3e da 29 27 be c0 a0 89 be 5c 39 11 be
       0.20707338 -0.16324559 -0.26880455 -0.14182037
000110 fe 68 23 be ad cb 16 be ce 9a 52 be 6a 1a 89 bd
       -0.1595802 -0.14726134 -0.20566866 -0.06694491
000120 84 75 93 be 7e 33 bc bc 56 d3 95 3d 4a fd 35 3e
       -0.28800595 -0.022973772 0.073157 0.17772403
000130 90 98 6d 3e 90 e5 80 be 25 07 15 be 8d 5b 01 be
       0.23202729 -0.25175142 -0.14553507 -0.1263258
000140 b4 e4 80 3e 8d 56 89 3d d9 d5 2d 3e bd 75 3b be
       0.25174487 0.067059614 0.16976108 -0.18306632
000150 cc 4d df 3e 29 4e 6a 3c 4f ef ca bd b4 85 a1 3c
       0.43614042 0.014300861 -0.09908926 0.019717075
000160 ac 55 a8 3d 94 3e 1e 3e d8 84 2c be 50 1e 8d bd
       0.082194656 0.15453559 -0.16847551 -0.06890547
000170 8f 4f 07 3e eb 92 44 be e6 7b be 3d b8 9f fe bd
       0.13213943 -0.1919667 0.093009755 -0.12432808
000180 13 54 ce bd 89 02 8d bd 5d d7 eb bc 0c 21 04 be
       -0.1007463 -0.06885249 -0.028789217 -0.12903231
000190 12 5e 86 3e 7f 66 bd 3d 02 48 e6 be b6 1a a9 3d
       0.26243645 0.09248065 -0.44976813 0.08257048
0001a0 4c cb 92 3e 53 67 71 bc 99 92 50 be 4c 51 64 3c
       0.28670728 -0.014734107 -0.20368423 0.013935398
0001b0 db 98 1c be b8 1b ef be ce 67 85 3d f7 8a 55 3d
       -0.15292685 -0.46700835 0.0651394 0.05213448
0001c0 cf fd 48 bd d6 4d 4b 3e 01 4e f2 3d 7d e1 48 be
       -0.049070176 0.19853911 0.11831284 -0.19617267
0001d0 bf a5 52 3c 4e e3 47 be 90 ac 71 be 6d 46 1f 3d
       0.0128569 -0.19520304 -0.23600984 0.038885523
0001e0 ec 2d ce 3c c7 dc c6 3d cd ba 9b bd cb 84 5d be
       0.025168382 0.09710079 -0.07603989 -0.21632688
0001f0 2e c5 4e 3e cb 7e db 3d ca f5 9f bd d3 85 d7 3c
       0.20192406 0.10717543 -0.078105524 0.02630893
000200 b5 ee 7e 3d 1f ac ec 3d 0a 00 90 be 96 2c ab 3d
       0.062239368 0.11556267 -0.2812503 0.083581135
000210 13 d7 78 bd f4 62 9b 3e af 15 9b bd 07 d5 ab bd
       -0.060751986 0.30348933 -0.07572495 -0.08390241
000220 0f 73 32 3c 3f 75 15 3e b4 31 42 be c5 6a e3 3d
       0.01089169 0.14595507 -0.18964273 0.11104349
000230 8b 77 ca bd 42 dd 06 3e db a2 03 be 08 be 26 be
       -0.09886082 0.1317034 -0.12855093 -0.16283429
000240 7d af b8 3d fe 1d 1f be 75 1d 00 be fb 79 93 bc
       0.09017847 -0.15538785 -0.12511237 -0.0180025
000250 f4 00 4b be 09 0f 25 be 79 dc 1a 3e 4c a4 aa bd
       -0.19824582 -0.16119017 0.15123166 -0.083321184
000260 07 be 2f 3e e4 da 73 3d 14 8e 6c 3d f8 60 5e be
       0.17162333 0.059534922 0.057752684 -0.21716678
000270 77 26 77 bd 21 e6 73 be d6 23 c7 3d ff 83 70 be
       -0.060339417 -0.23818256 0.09723632 -0.23487853
000280 84 90 58 be bd 7e 7c bc 51 78 9a 3e b5 cc be bd
       -0.21148878 -0.015411076 0.3016992 -0.093163885
000290 e8 3f d7 bd 89 ff 30 be f5 fa cd 3d 52 a9 49 3e
       -0.10510236 -0.17284979 0.10057632 0.19693497
0002a0 7a 20 19 3c 0b f2 eb 3c 82 6a ad bd 06 4b b9 be
       0.009346122 0.028801939 -0.084675804 -0.3619005
0002b0 8c 40 36 be 35 2d 60 be d4 d5 8e 3d bc b0 1c be
       -0.1779806 -0.21892245 0.06974378 -0.15301794
0002c0 81 77 72 be c4 71 eb bd 77 6d a0 3d 95 f5 31 3d
       -0.236784 -0.114963084 0.07833379 0.043447096
0002d0 b7 f3 8a bd 1d fc 8d bd 7d 47 ad 3d 92 e3 8f 3e
       -0.06784766 -0.069328524 0.08460901 0.2810331
0002e0 89 f3 83 3e fc 9e 38 3e cd ff e3 3d 8e cc 3f bd
       0.2577174 0.18029398 0.111327745 -0.046825938
0002f0 31 4d 3e 3d 04 dd 24 bc f4 ee ea 3b 29 de 7f 3e
       0.046460334 -0.01006246 0.0071695987 0.24987091
000300 4e c0 83 be 09 d0 b0 3d fb e9 8a 3d 63 94 0f be
       -0.25732654 0.086334296 0.067829095 -0.14021449
000310 5c 0d 6c be 94 c8 bf be e6 ff a0 bd 76 a1 11 bd
       -0.23051971 -0.37457716 -0.07861309 -0.03555437
000320 7a 08 91 3d e2 30 e8 3e e2 ff a8 3d 37 ef 21 3e
       0.07081695 0.45349795 0.08251931 0.1581391
000330 ce 4e a4 be 4d 8d ca 3e ae 17 c7 bb e8 fd eb 3d
       -0.32091373 0.3956093 -0.006075821 0.11523038
000340 68 b0 0b 3e 45 12 a8 bd 76 bc 84 3e e3 9f 04 3e
       0.13641512 -0.0820661 0.25925034 0.12951617
000350 7d be 34 be 52 23 bd bd e0 2a cd ba 13 fc 26 3d
       -0.1765079 -0.092352524 -0.0015653037 0.04076774
000360 88 00 ec 3d 0d b2 84 bc bd 0c d6 bc 81 f5 dc be
       0.11523539 -0.016198182 -0.026129121 -0.43156055
000370 e4 4e b0 bc d4 10 8c be f8 f6 32 be 3d dd 5c be
       -0.021521993 -0.2735659 -0.17477024 -0.2156877
000380 67 42 b3 3d c5 f6 2e 3e 4a 07 46 bd f6 79 8a 3e
       0.087528996 0.17086323 -0.048346795 0.27046174
000390 8a 8d ee 3e 8c ac a8 3c 0f e3 ca bd fb 9a dd 3d
       0.4659236 0.02059009 -0.09906589 0.10820576
0003a0 4f 7c cd bd d4 19 6d 3e d3 26 4e be fb 77 fe bd
       -0.100334756 0.23154384 -0.20131998 -0.12425228
0003b0 29 dd 7b 3d b1 d9 6c be bd f3 a9 3d c2 7a 2c bd
       0.06149021 -0.23129918 0.082984425 -0.04210926
0003c0 e1 f6 f5 3b 47 99 d4 3d dc f7 e3 bc 75 dd 26 be
       0.007506237 0.10380798 -0.02782815 -0.16295417
0003d0 df 7c 6c 3d 96 cb d6 bd da c6 72 be 4e 46 34 bd
       0.057736274 -0.1048805 -0.23708668 -0.04401236
0003e0 04 37 e8 bd 9b 99 33 be e1 f5 cb 3c 42 05 7c be
       -0.113386184 -0.17539065 0.024897518 -0.2461138
0003f0 a7 69 08 be 68 64 2c 3e 67 d2 96 3d 27 27 de 3c
       -0.13321553 0.16835177 0.0736435 0.027118279

bias f4 [12]
000000 d0 fc 0d bc 5b 35 8c ba 56 f3 9b ba 07 db be 3d
       -0.008666232 -0.0010697054 -0.0011898081 0.0931912
000010 c4 69 3d bc 75 06 49 bd e7 6a 68 bc 0d fd 8e bc
       -0.011560861 -0.049078424 -0.014185644 -0.017454648
000020 33 04 9c bc 6f 76 24 bb 26 19 a1 bd 88 25 02 bd
       -0.019044971 -0.0025095006 -0.07866125 -0.031774074
