model/epoch_239.pt (torch, 65657 bytes, 15 tensors)

weight f4 [64, 1, 5, 5]
00000000: f236 283e 8921 aabc 49dc 77bc 64ac 703d
00000010: da61 7bbe b1dd 443d 82bc 5b3e 2417 e8bd
00000020: 0faf c5bd bbcf d13e 3072 f4bd ce48 a83d
00000030: eb0c 5e3d 661b 233e 8942 6ebe 1064 973e
00000040: b47c e63d 93f9 0abe aee3 44be f2c3 31bd
00000050: eae1 703e 25ee e23d 1b4b debc e884 a83e
00000060: 1784 c4be 22bf 19be 49c5 e63c 9f3e b7bd
00000070: cc63 c53b 6ce4 303e 3b56 223e d00e ccbd
00000080: 4a42 15be 2978 333e af63 a2be a4ce a3bc
00000090: 7df8 e33d 98d7 f1bd 0cf1 ae3d 0bc8 c63d
000000a0: 2085 3dbd 7575 313e 952e b73d cb32 2b3d
000000b0: 0213 0f3e 63aa f13c 540e 25be 02f6 493d
000000c0: dbaa 5dbe c09a 813e 8cd8 d1bd 4853 8c3d
000000d0: 7172 fe3d fb08 f8bc 391f 263e 1762 423c
000000e0: aa1b 453e 6873 8abe c28d 9cbe 040b 9a3e
000000f0: 3320 c73d bee3 393e 02d7 49be 709a d4be
00000100: ded2 293e f821 bdba 4dd3 25bd 6946 c6bc
00000110: e4cb 963e 71c7 88be 9b5c db3d 2094 29be
00000120: 821b b13b 6ed0 25bd 18b1 00be adb6 7a3e
00000130: ad81 3fbd 1bd8 a33d 349d 9ebe 6547 7b3e
00000140: e3de 873d 75cf 603c cadd 333c 3a61 c83d
00000150: 9492 38be 17fd a8be 020c 0dbf 74d9 4e3d
00000160: 22dd 2c3e e523 e7bd 3ef6 be3d 5965 96bc
00000170: f175 353d 9683 1d3e 7522 d43d a9c9 34be
00000180: f8e5 03be 91d0 383d dbae ce3d eec3 df3d
00000190: c66e 02bf 6932 11bf b990 663e 10e5 6b3d
000001a0: ab26 81bd 29a3 923e a7b0 ee3e c72e f2bc
000001b0: 3cbc 5a3d b2a9 b2bb 8864 943e 2269 08be
000001c0: 8247 fdbd f259 27be c5e2 393e d50d a6be
000001d0: 6ed0 25be 6520 38bd 1426 c0be b90b f8be
000001e0: 5cb7 56bd 1f2c 7c3e b9ed a23a 3a52 c43e
000001f0: 7959 373d 1132 e93d 49db 22be d5ab ffbc
00000200: 35da 88be 039a 25be 2157 a43d cb44 a9be
00000210: f11b 863e 66ac fdbd 5ee7 79bd 9423 aabc
00000220: 14cb 003e 7894 433d 0c30 b2be 5d86 52be
00000230: fb54 94bd 8f72 85be 53c3 c43d d39c 89ba
00000240: dfe0 45bd 3774 b5bd ad42 0a3d f0ab 9e3e
00000250: 7a30 eabd 4195 e53e e30f e4bc 865b 73bc
00000260: 09fd 093c b8bb 613e 8c97 7abe 2139 8cbe
00000270: 40f5 1d3c 2171 07be 37e2 d8be 6cd5 11be
00000280: 74ac 64be 68cc f63d de57 f73d ba46 96bd
00000290: 312b 5bbe dc49 d1bd 1155 14be 813a b6bd
000002a0: 8748 023e 6ed3 f23d 2e2f 8e3e 4d77 a83e
000002b0: 8bff c5be 010d 1c3e 8cb9 aebe 850a aebe
000002c0: 911f 893d 381e 1d3f fe87 163e 380f 013d
000002d0: 063e 05bf d688 cc3d 0f16 74be 9fb0 18be
000002e0: a7d3 093e 6ebf f83e fc12 513d 425f d8bc
000002f0: 5e83 51bb f291 db3d 05af 113d d9d6 043e
00000300: 97ee 58bd 179e 9f3d cc04 dd3a 0dad a4bd
00000310: bb9d 1abe b4c7 3d3b d727 0d3c 1c4b 0e3d
00000320: a9ae ac3c 23b3 3cbe 34b9 2b3e 8ef8 bebc
00000330: 55be b83d f3eb b9bd d1e6 1abd 3c94 5f3e
00000340: 6588 be3e c4f8 03bb 0d8a b2bd 2bf9 80bc
00000350: 860c a2be 2a8f 943b 2648 183d 52ef 72be
00000360: 5439 49be 78a5 d5bd c8b2 99be ae60 05be
00000370: 9363 2dbe a35c c8be afea b6bd 208f 78bd
00000380: d095 c33d c0a5 b1bc 1759 843e d1d6 9abe
00000390: 46ac 8bbd 472b 91be 3676 72be 13a3 263d
000003a0: 1f3f 9a3c 33ca 9a3d 1fd7 a9be 84c9 db3d
000003b0: 142b b8be 5735 78be 96d1 573d a546 59be
000003c0: 841c 02be 6d9b 66be e6bf 543e 811d 93bd
000003d0: fdd3 61be c3c8 a1bd 6484 da3d 8824 54bd
000003e0: 36a3 363e b6ee 593e d47e 1d3c 57ab 013e
000003f0: c33c 3c3e 6853 24be 50fb 09bd 97d8 2fbf
0.1642721 -0.020767944 -0.015128204 0.058758155 -0.24549046 0.048062984 0.21458629 -0.11332539
-0.096525304 0.40978798 -0.11935842 0.082170114 0.05421154 0.1592842 -0.23267569 0.2956853
0.11254254 -0.13571768 -0.19227478 -0.04339976 0.2352368 0.11080579 -0.027135422 0.329139
-0.38382027 -0.15014318 0.028170245 -0.08947491 0.0060238596 0.17274636 0.15853207 -0.09963763
-0.14576069 0.17526306 -0.31716678 -0.019995995 0.1113138 -0.11808699 0.0854207 0.09706124
-0.046269536 0.17329963 0.08944432 0.041796487 0.13972095 0.029500192 -0.16118747 0.049306877
-0.21647207 0.25313377 -0.10246381 0.06851822 0.12424172 -0.03027772 0.16222848 0.011864207
0.19248834 -0.27041173 -0.30576903 0.3008653 0.097229384 0.18153283 -0.19710925 -0.41524076
0.16584346 -0.0014429679 -0.040484715 -0.024203496 0.2945243 -0.26714662 0.107110225 -0.16560411
0.0054048905 -0.040481977 -0.12567556 0.24483748 -0.046754528 0.08000203 -0.3097931 0.24538954
0.06634309 0.013721337 0.010978172 0.097841695 -0.18024665 -0.33005592 -0.5509645 0.05050035
0.1688123 -0.11286143 0.09324311 -0.018358873 0.04430193 0.15382227 0.10358135 -0.17655052
-0.12880695 0.04512078 0.10091945 0.109260425 -0.50950277 -0.56717545 0.22516145 0.057591498
-0.063062035 0.28640106 0.4661915 -0.02956332 0.05340217 -0.005452358 0.2898295 -0.13321355
-0.12367155 -0.16342905 0.18152912 -0.32432428 -0.16192791 -0.04495277 -0.3752905 -0.48446444
-0.05242096 0.24626206 0.0012430466 0.38343984 0.044763062 0.113865025 -0.15903963 -0.031209866
-0.2672898 -0.16172032 0.08024431 -0.33060297 0.26193193 -0.12386398 -0.061011665 -0.020768918
0.12577468 0.047749013 -0.34802282 -0.20559068 -0.07242771 -0.26063964 0.09607568 -0.0010499008
-0.048310157 -0.08860057 0.033754993 0.30990553 -0.114350274 0.44840434 -0.027839607 -0.014853364
0.008422145 0.22044265 -0.24471873 -0.27387336 0.009640992 -0.13226749 -0.42360088 -0.1424157
-0.2233141 0.12050706 0.12077306 -0.07337709 -0.21403195 -0.10219166 -0.14485575 -0.088978775
0.1272298 0.11856733 0.2777037 0.3290352 -0.38671526 0.15239336 -0.34125936 -0.339924
0.06695474 0.61374235 0.14700314 0.031508654 -0.52047765 0.09987037 -0.2383654 -0.14911126
0.13459645 0.4858355 0.051043496 -0.02641261 -0.003196917 0.10721196 0.035567302 0.12972583
-0.052961912 0.07793825 0.0016862391 -0.08040819 -0.15099232 0.0028958144 0.008615456 0.0347396
0.021079378 -0.1842771 0.16769868 -0.02331188 0.09020678 -0.09078207 -0.03781778 0.2183389
0.37213436 -0.002013729 -0.08717737 -0.015743813 -0.3165018 0.004533668 0.03717818 -0.23724106
-0.19650775 -0.10431951 -0.30019212 -0.13025162 -0.16932516 -0.39133176 -0.08931481 -0.06068337
0.09550059 -0.021685481 0.2584922 -0.30242017 -0.06819968 -0.2835333 -0.23677906 0.040682863
0.018828927 0.07558098 -0.33171937 0.107317954 -0.35970366 -0.24239098 0.05269011 -0.21218355
-0.1270619 -0.22520228 0.20776328 -0.07183362 -0.22053523 -0.078996204 0.10669783 -0.05179265
0.17835698 0.21282467 0.009612758 0.12663017 0.18382554 -0.16047442 -0.033686936 -0.68689865

bias f4 [64]
00000000: a790 f73c c564 6bbd 95e2 913b 99f4 883c
00000010: e32a 88bd d651 913c df04 3dbd bd3b dcbc
00000020: c901 16bd 10cb c1bc 754a f03c 784e ddbc
00000030: 31b1 7a3c 86b3 36bd 31d5 4c3c 29b5 5bbd
00000040: d162 113b ddb5 863d 1ed6 ee3c 1620 97bd
00000050: cdf9 1fbd de01 933c a422 fd3c 1200 42bd
00000060: 9ced 86bd 0cf0 b33c 2fe3 7bbd 042f ebbc
00000070: 2ddc 59bd 9bd3 653d 08a8 d2bc eb09 2aba
00000080: a48c 8e3d d7b1 133d cdc4 ffbc b2fc ca3b
00000090: 1c97 9fbc fc55 2e3d c281 86bd d1d5 18bb
000000a0: 38fa fe3c bafa 3f3d 89e5 2b3c 10c0 733d
000000b0: a389 523c b534 e9bc c8f4 c7bc 808e ac3c
000000c0: 2640 1f3d 5551 18bd 22a0 fe3c 6484 243d
000000d0: e790 1abc 99fb 5abc 3d5f 09bd 667d ab3d
000000e0: 1eb0 23bd 5b73 9dbd f57c d2bb 8e13 313d
000000f0: d7fd 45bd 71a2 39bd 29b3 18bd de5b 2a3d
0.030220343 -0.05746915 0.0044520595 0.016718196 -0.06648805 0.017739218 -0.046147224 -0.026883954
-0.036622796 -0.023656398 0.029332379 -0.027014956 0.015301035 -0.0446048 0.012502001 -0.053639565
0.0022184143 0.065776564 0.029154833 -0.07379167 -0.039056588 0.017945226 0.030900307 -0.04736335
-0.06588289 0.02196505 -0.061495956 -0.028708942 -0.05318849 0.056110006 -0.02571489 -0.0006486463
0.06960419 0.036058273 -0.031221772 0.0061946744 -0.019481234 0.04256247 -0.06567718 -0.0023320804
0.031125173 0.04686997 0.010491737 0.059509337 0.012850198 -0.028467515 -0.024408713 0.021064043
0.038879536 -0.03718694 0.031082217 0.04016532 -0.0094339615 -0.01336565 -0.033538092 0.08373527
-0.03996288 -0.07688018 -0.0064235874 0.04323154 -0.048337784 -0.04532093 -0.037280235 0.041591518

weight f4 [12, 64, 1, 1]
00000000: e295 523e b17e a6bd 8534 15bd ed60 ad3e
00000010: b390 4e3e 8ae9 ed3d 338c 13bc f6b0 62be
00000020: 2ff2 6dbc 123a 083e 3189 dcbd 694a 99be
00000030: ee02 6f3d 13b1 74be 3f6f 8dbe 251f a63d
00000040: c9c6 263c 0048 753e ec25 8b3e f309 55be
00000050: 7ff1 3cbe 0429 02bf 7416 9fbc f5c8 a53d
00000060: fa0f d93d 062e e3bd 9425 85be 1bbb a0bd
00000070: 45c4 303d 0f58 5a3c 1280 87bd 2347 ce3d
00000080: 195c 1dbc d585 ddbd 3ed5 f13d 357a acbc
00000090: 0b4b 6a3d 62d7 7f3e eaba c73d 9e17 403c
000000a0: d67c a3bc 4920 84be 56fc d73d 1df5 613e
000000b0: 9076 d23d 8682 0bbe b298 40be 8eeb 233e
000000c0: c080 57be afbf d2bd 1e04 0ebd 4906 15be
000000d0: 8419 b4bd 3a38 2bbe 7e92 1e3d 96f9 da3d
000000e0: e231 e0bc 335e bc3e dc13 913e f7b7 0cbe
000000f0: 973c 623e a9af 703e 01bf 18bc 9b2e 883e
00000100: db8a 4cbe 8ac6 143e 4d1a 2cbe d84d 5a3e
00000110: c3cb 413e 567f 5fbc 5086 0cbe e3ac 3dbe
00000120: 0949 7fbe e98e ad3d 62d7 883e 04e0 07be
00000130: 4344 803e 3d89 4f3d 28d2 00bc 565d fd3d
00000140: 5f77 503e 2a0d 3dbe cd92 1bbe 218e 9d3d
00000150: 2ead bfbb 7fe0 4bbe 4eca 953d 8248 47bc
00000160: 1655 f43c c036 31be 33b9 61bd 707c b93c
00000170: 9956 9d3e 0500 523c 9fef 453e 59a5 7a3d
00000180: f598 d7be a80f 213e 7483 02be 4364 a73d
00000190: cfdf fc3d 2577 96be caef 01be 1e27 4e3e
000001a0: 7131 f03d 874b 69bd bdd7 e0be 39b6 e3bd
000001b0: d338 80bd 3de7 8dbe 81d7 9bbe 07db a0be
000001c0: cb63 97be f282 02bd 40d7 34be b4c4 4abe
000001d0: b400 f3bd 96b3 083d 900c 863e 3d84 5cbe
000001e0: 3b8d c53d 60f9 00bd 372d 073e 4907 973b
000001f0: 19c7 2e3c 478b 553e 742e fa3d 2640 33be
00000200: cfc2 933e 7350 1fbe ebe0 38be 3614 03be
00000210: dfdd a4bd cfdd 9a3e 753a 79be b2ab e9bd
00000220: 1292 b0bd e904 2a3e 9db5 94be 39aa cebd
00000230: e523 a43c 662e fcbc bde1 d33d 40ff 7ebe
00000240: 0895 ebbe d741 40be b58f ccbd c01d 7dbe
00000250: 4a48 c5bd 3e5b 72bd 6691 103e e8f1 0dbe
00000260: 5be3 90be 8f37 5cbe e8fe 97be 8588 813e
00000270: 2ad7 97bd 460d 133c 391b 043f 0cc8 6cbd
00000280: 1f84 0c3e fd70 febc e4df 1dbe 6b59 f1be
00000290: 7a81 2cbd 92ee 35be b23e b4bc 5c42 6e3b
000002a0: 455b f13d b3c9 c8be 8b35 be3a df19 803b
000002b0: 8897 ca3d bad9 e5ba a901 823e 1a9f 42be
000002c0: 08a7 f83d cd37 2ebe a7dd 923e 348a 293c
000002d0: 2011 7fbe 9722 193e 3191 0b3d 3a9a f1bd
000002e0: 538e bbbb 77d5 3b3d e903 013f c661 c43c
000002f0: 4e48 4b3e 32e5 91be 56dc 14be 6a04 01be
00000300: 0e38 1cbe 23c4 2ebe b939 08be 0267 babe
00000310: 5cf0 10be 0ded fdbd 8039 c2be f561 e83c
00000320: 6f8a 113e 9fcb 903d ccb3 083d 1e2c a5bd
00000330: bd7f fc3d c2f1 3fbe c8d6 9b3e 7581 5abe
00000340: 3912 b93c 3d6d cd3c 186b 01be cd99 8bbd
00000350: 24e0 f2bd 0e1a 35bc f820 29be d891 423d
00000360: 585c f1bd 99be f0bd b461 0dbe 4eef d6bd
00000370: 5087 59be 49d8 003e c139 e6bd 5815 9fbc
00000380: e943 e43e bb1d 1dbe 9ea1 c63d a430 b23d
00000390: 27f9 c6bd fe65 8cbd bda6 bfbc 7522 6c3c
000003a0: 65af b6bd 04c0 3fbe 81ce e1bd 2985 2fbe
000003b0: 9246 c63e c795 88be c2f3 95be 01ee f63d
000003c0: 64c2 fd3b c9e7 ee3d 2ef2 883c 6165 313e
000003d0: 8ef4 c0be f238 4f3e 230f 5dbd ed4e a63e
000003e0: 637f 5a3d f933 25be 5676 6ebd 5b02 eabd
000003f0: 4cb5 91be 9722 613c 43a2 f1bc 7c32 85bd
0.20564988 -0.08129633 -0.03642704 0.3386301 0.20172386 0.1161681 -0.009005594 -0.22137818
-0.014523073 0.13303402 -0.10768355 -0.29939583 0.058352403 -0.23895673 -0.27623937 0.08111409
0.01017923 0.23953247 0.2717737 -0.20804577 -0.18451498 -0.50843835 -0.019419886 0.0809497
0.105987504 -0.11092763 -0.26005232 -0.078481875 0.043155927 0.013326659 -0.06616224 0.10072162
-0.009604477 -0.10816542 0.11808251 -0.021054367 0.057200473 0.24984506 0.09752448 0.011724381
-0.019956987 -0.25805882 0.10546176 0.2206616 0.1027652 -0.1362401 -0.18808249 0.16007826
-0.21045208 -0.10290467 -0.034671895 -0.14553179 -0.08793929 -0.16720667 0.038713925 0.10692136
-0.027367536 0.36790618 0.28335464 -0.13742052 0.22093426 0.23504509 -0.009322883 0.26598057
-0.19974844 0.14528862 -0.16806908 0.21318758 0.18925385 -0.013641199 -0.13723111 -0.18522982
-0.24930204 0.084745236 0.26726824 -0.13269049 0.2505208 0.05066799 -0.007862605 0.12371318
0.20358036 -0.18462053 -0.15192719 0.076931246 -0.005849502 -0.19909857 0.07313977 -0.012163283
0.029825728 -0.17306042 -0.05510826 0.022642344 0.3073013 0.0128173875 0.1932969 0.061192844
-0.42108884 0.15728629 -0.12745458 0.0817342 0.123473756 -0.29387775 -0.12689129 0.2013211
0.1172818 -0.056956794 -0.43914595 -0.111187406 -0.06260838 -0.27715483 -0.30437854 -0.31417105
-0.29568323 -0.03186316 -0.17660236 -0.19801599 -0.118653685 0.03337439 0.2618146 -0.2153482
0.09646078 -0.031487823 0.13200842 0.0046090228 0.010667586 0.20853911 0.122158915 -0.1750494
0.28859565 -0.15558033 -0.1805455 -0.12800679 -0.08050131 0.30247352 -0.24338706 -0.114097014
-0.08621611 0.16603436 -0.2904481 -0.10091061 0.020036647 -0.030783843 0.103457905 -0.24902058
-0.4601214 -0.18775116 -0.099883474 -0.2471838 -0.09632929 -0.059169047 0.14117965 -0.13861811
-0.28298458 -0.21505569 -0.29686666 0.2529947 -0.07414086 0.008975333 0.5160404 -0.057807967
0.13722275 -0.031059736 -0.15417439 -0.47138533 -0.042115666 -0.17766789 -0.022002552 0.0036355471
0.117849864 -0.39216384 0.0014511807 0.003909334 0.098921835 -0.0017536201 0.25391892 -0.19006005
0.12141234 -0.17013474 0.28684732 0.010347892 -0.24908876 0.14954601 0.034074012 -0.117969945
-0.0057237535 0.045857873 0.5039659 0.023972403 0.19851801 -0.28495175 -0.14537176 -0.1259934
-0.15255758 -0.17067008 -0.1330327 -0.36406714 -0.1415419 -0.123987295 -0.37934494 0.028367022
0.14212964 0.07070088 0.033374593 -0.08065055 0.12329052 -0.18744567 0.30437303 -0.21338446
0.022591697 0.025076503 -0.1263851 -0.068164445 -0.11859158 -0.011053575 -0.16516483 0.04750237
-0.11785191 -0.117551036 -0.13806802 -0.104948625 -0.21243024 0.12582506 -0.112414844 -0.019419357
0.4458306 -0.15343373 0.09698795 0.08700684 -0.09715491 -0.06855391 -0.023394937 0.014412512
-0.089201726 -0.18725592 -0.110257156 -0.1714064 0.38725716 -0.2667677 -0.29287535 0.120571144
0.0077441204 0.11665303 0.016717043 0.17323829 -0.3768658 0.20236567 -0.053969514 0.3248209
0.05334414 -0.16133107 -0.058218323 -0.114262305 -0.2845863 0.013741157 -0.029496318 -0.0650377

bias f4 [12]
00000000: 9e8c d73c 98b2 2a3a 19c5 0e3d fbc3 2e3d
00000010: 439c d53c c62c 53b9 1651 813c 9719 cf3a
00000020: b813 21bc 142e 21bd 03c3 bebc b3ab fe3d
0.026312169 0.0006511598 0.034855936 0.04266737 0.026075488 -0.00020139207 0.015785735 0.0015800473
-0.0098313615 -0.039350584 -0.023286348 0.12435093

weight f4 [12, 12, 3, 3]
00000000: 1a20 8abe 647d 97bb 6b17 68bd d534 0dbe
00000010: ff56 003e 9ad9 e7bd a723 d63d b33c c03e
00000020: f49e 28be 2563 433d f4a5 3abd e137 f93d
00000030: 43e9 29bd 60f7 66bc cfd5 7bbe 2a1a b53d
00000040: 14b8 033e b4d3 003e 9906 e13c 0da8 583c
00000050: a31d 1cbe e83f 0ebe 14ab b6bd ba1a 983e
00000060: 0034 4b3e 9082 45bd d169 f2bd baac 22be
00000070: dd1f a8be 11ba c53d 6c2c 32be bd92 8abe
00000080: ab4e b2bd 6899 3ebd 4a57 2cbe 97dc 6e3e
00000090: dcb5 4cbe eba7 683c b1e1 253e 267d 0f3e
000000a0: 8b07 383d 72f0 a33d 0c85 173e b0b2 d9be
000000b0: 09ac 533e 96c5 933d d04b d9bc 9446 e4bd
000000c0: 87ba 39bc 4fa1 29be c80a 503e d7b6 013e
000000d0: b6de 9e3e 368d b13d 5288 abbd 9897 0d3e
000000e0: dd8c 703e 1deb 023e 33a5 85be a04d a43d
000000f0: a14d b7bd 7ca3 8d3d 484e 87be 5651 9abe
00000100: 0e3d 46be 945f 3b3e 33fd d6bc e7b1 7a3e
00000110: f3f5 9a3d c777 223d 501d 293e c9be 9ebe
00000120: c1fe b13d d0ea ad3e 01ce cb3d eeea 11bf
00000130: bbc1 53bd d497 bcbe 170c f23d e7d3 5b3e
00000140: ad34 643c 0ba5 76be ec32 f63d 8919 623d
00000150: f945 84bd 18bd 1b3e f0a2 0b3e ecb8 de3d
00000160: 9eed 96be 7786 7bbe 8702 ca3e a989 73be
00000170: c7c5 b2be fb9c 7cbd c394 323e a9e4 4d3e
00000180: e477 4cbe 89e1 613c 898f b43b 7875 f1be
00000190: c959 503d 716c ea3d 63f1 823e 5841 08be
000001a0: 0bcc 03be 2b5f e23e 5f20 723e 195f 783e
000001b0: 9b3a ad3e e227 8b3e fed5 d23d 2c58 36bd
000001c0: 78db cdbc 1378 88bc 8786 bbbd 052b f93d
000001d0: a2ea 9fbd 64cd e93d 0b8c f43b d2f9 8d3c
000001e0: 9c68 6fbd 5739 bd3e 8f42 64bc 0888 fb3d
000001f0: 4449 2cbe 1c4c 813e c6f2 9f3e d07c 483c
00000200: 17cc 083e 0251 a03c 2700 8cbd b106 d43d
00000210: 957c f13e 1984 2d3e 60da bcbd cac2 d53d
00000220: d942 183e 8de6 803e a55a 6c3e 1038 cfbd
00000230: 98ab 39be 90f8 ac3e 0552 7d3e a0aa 5c3e
00000240: 263a 58be 78f5 d4bd 33a5 1bbd 6ef8 1ebe
00000250: d762 37be 88e0 f03d 33a6 34bd 6e8a 4c3e
00000260: fa68 243d 8cab 9bbe b311 a03e 507b 623e
00000270: 1076 39bd 6a8e 84be af54 69be 0737 c63d
00000280: 2d65 0fbe 68e9 20bd fe06 673e 18e8 d5bb
00000290: 29bf 58be bf4b c4bb f9ed 32be 857d 953d
000002a0: 8ec9 eebd 6b45 d03c 6aae e0bb 03aa 0c3d
000002b0: b87a d53e c13a 9fbe 2ee6 1dbe ad9e 52bd
000002c0: 780a 31be e9a7 553d a5dd 843a 5aaa 72bd
000002d0: e453 ddbd 3ca7 d03d 29cf 9fbe 5679 213d
000002e0: 5669 87bd ba53 703e 8826 7abd bb8b c9bd
000002f0: bdca 143e 224e a83d 6094 f5bd 75cb 54be
00000300: af80 e23e c625 26be 1f0b 123e a631 1a3f
00000310: 5824 9abc 4279 61bc 55a6 4bbd 742b 32bd
00000320: 4d92 8e3e de14 d73d 4c3e c93d f6c1 b5bc
00000330: d85e 81bd 9af9 a9bd 2378 ccbe 9d1a d23e
00000340: 675a 453d 643a d63d bfdf 6a3e af67 b0bd
00000350: 3119 763c 6311 7b3e 5bf3 b5bc 6666 5f3d
00000360: 01f9 cabd 53a6 c0bc 57e2 253d 1760 8c3e
00000370: 4e6f 31be 0561 b3bd 8df9 21be 1ac5 18be
00000380: 6cd0 433e e003 43bc 35fd ce3d 26f1 74bc
00000390: bc60 7fbd b238 773e e5e8 4c3e 8b2d 233e
000003a0: d343 a8bd 5463 ec3b 1026 21bd a511 023e
000003b0: 4400 46be 469e 1a3d 4a6c ccbe db24 3cbe
000003c0: f6cf 4a3d 20b3 003e ce03 58be 33d1 2b3d
000003d0: fdcd 7e3e bbd9 50bd a6f4 383e 5358 fdbd
000003e0: ddfe 2ebd 66c9 a5be 6050 2a3e 7a47 6b3e
000003f0: 7214 08be 8db0 65bc f676 25bd 8d4e ecbd
-0.26977617 -0.004623102 -0.056662958 -0.13789685 0.12533186 -0.11320801 0.10456019 0.3754631
-0.16466886 0.047701973 -0.04556842 0.12168861 -0.04148222 -0.014097065 -0.2459328 0.08842881
0.12863189 0.12580758 0.027468966 0.01322366 -0.1524568 -0.13891566 -0.08919349 0.2970789
0.19844055 -0.048220217 -0.11836589 -0.15886202 -0.3283681 0.0965463 -0.17399758 -0.27065077
-0.08706411 -0.04653302 -0.16830173 0.23326336 -0.19991249 0.014200191 0.16199376 0.14012584
0.04492907 0.08004846 0.14796847 -0.4251914 0.20671095 0.07215421 -0.026525408 -0.11146274
-0.0113359755 -0.1656544 0.20316613 0.12667404 0.3102929 0.08669512 -0.083756104 0.1382736
0.23491235 0.12785001 -0.261026 0.08022618 -0.089503534 0.06915948 -0.2642691 -0.3014018
-0.19359228 0.18298179 -0.026243782 0.24481927 0.07566442 0.03966501 0.16515088 -0.31004933
0.086911686 0.3396821 0.099514015 -0.569991 -0.051698428 -0.36834586 0.11818712 0.21467553
0.0139285745 -0.24086396 0.12021431 0.055200133 -0.06458659 0.15208852 0.13636374 0.10875115
-0.29478163 -0.24563013 0.39455053 -0.23782982 -0.34916517 -0.061673146 0.1743956 0.20106758
-0.1996761 0.013786682 0.005510275 -0.47159934 0.050866876 0.11446465 0.25574788 -0.13306177
-0.12870805 0.44213232 0.23645161 0.24255027 0.33833775 0.27178866 0.10294722 -0.04451768
-0.025129065 -0.016658818 -0.091565184 0.121664084 -0.078084245 0.11416128 0.0074629835 0.017331038
-0.058449373 0.3695781 -0.013931884 0.12281805 -0.16824824 0.2525338 0.3123991 0.012236789
0.13359104 0.019569878 -0.068359666 0.10352839 0.4716536 0.16944923 -0.09221339 0.10437544
0.1486925 0.25175896 0.23081453 -0.10118115 -0.18131864 0.33783388 0.24738319 0.21549463
-0.21115932 -0.10398382 -0.037999343 -0.15524456 -0.17908798 0.11761576 -0.044103812 0.19974682
0.040139176 -0.30404317 0.31263503 0.22117352 -0.04527861 -0.25889903 -0.2278621 0.096784644
-0.14003439 -0.039285094 0.22561261 -0.006527912 -0.21166672 -0.005990475 -0.17473592 0.072993316
-0.11659537 0.025423726 -0.0068567293 0.034341823 0.4169519 -0.31099513 -0.15419838 -0.051420856
-0.1728915 0.052162085 0.0010136856 -0.05924449 -0.108070165 0.101881474 -0.31212738 0.039422356
-0.06611888 0.23469439 -0.061071903 -0.098411046 0.14530464 0.08218028 -0.11991191 -0.20780738
0.44238803 -0.16225347 0.14262055 0.6023201 -0.018816158 -0.01376182 -0.049719173 -0.04349847
0.27845994 0.10502027 0.09826335 -0.022187214 -0.06316918 -0.08299561 -0.39935407 0.4103593
0.048181918 0.10460356 0.22936915 -0.08613526 0.015020655 0.24518351 -0.022210767 0.054541014
-0.09910775 -0.02351681 0.040499058 0.2741706 -0.17327616 -0.087587394 -0.15817852 -0.14918938
0.19122475 -0.011902779 0.10106889 -0.014950072 -0.062348112 0.24142721 0.20010717 0.15935342
-0.082160614 0.0072139893 -0.03934294 0.12702043 -0.19336039 0.037748598 -0.39926368 -0.18373434
0.049514733 0.12568331 -0.21095201 0.041947555 0.24883266 -0.050988894 0.18062076 -0.12370362
-0.042723525 -0.32380217 0.16632223 0.22976485 -0.1328905 -0.014019144 -0.040396653 -0.1153842

bias f4 [12]
00000000: bb99 a5bb 51fb a53c 1eeb 773c e3e6 493d
00000010: 0b41 b2ba 9ee6 073d 1f1e 9bbc ae99 083d
00000020: 27f9 243c 4549 fdbc 7fdc 42bd c83e a5bc
-0.0050537265 0.020261439 0.01513174 0.049292456 -0.0013599707 0.033178918 -0.018935261 0.033349685
0.010069168 -0.030918727 -0.047573563 -0.020171538

weight f4 [12, 12, 3, 3]
00000000: 402c 0fbd fdfe 293c 8994 af3e 3974 c63d
00000010: a280 59be 74ab 85be 8d85 13bd 3800 e1bc
00000020: d33c 79bd 6543 8c3e 110b 0c3e b111 9ebe
00000030: bed6 483d 2dec 393d 4572 3d3d 30c8 1b3e
00000040: 9eb4 22be f068 003e b78c 90bd 62fb 82be
00000050: 5205 b7be 48ff 39bc 66c4 efbe 13f3 433e
00000060: 8245 12bd b0f2 823d 6981 e1be a3a4 0e3d
00000070: 6200 b5bd 9635 d53e eb79 f93d 7023 803d
00000080: d556 3abd d87c abbe e5de 483c d41c a13c
00000090: 63f7 343e 8f7a 7cbd a6e3 9e3e f028 633c
000000a0: 2703 723d d20f fe3d f02a 5abc 1ed4 003e
000000b0: 1bd6 2b3e d91e 7dbe c62e 193b 99c1 3dbe
000000c0: 40dd 9d3e 7654 99bd f62b bd3d 1af8 54be
000000d0: b1d9 97bd 83b0 ce3d c965 7dbe 6217 4abd
000000e0: 4b44 b43d e86c cc3c ad0b b6be 5325 b73e
000000f0: e8ed 0dbe b92a 023f ed27 2bbe 9cb0 a3bc
00000100: 247f 16be 00b6 5bbe 7693 babc 13a1 943e
00000110: e518 5f3d 6f69 563e 2313 1c3d 8311 59be
00000120: 3a1a 2d3e 626c fdbe 9900 c03c 7c6f cd3d
00000130: c927 543e 5b27 2dbd a0ab c63d a30b 06be
00000140: cef2 1f3e 6cb3 d53c 252c 1e3e a9e9 97be
00000150: 737a 013f 7729 02be 4805 4d3d 797a cd3e
00000160: 5213 43bd 9edc c6bd 0aa7 0dbe a36e f03c
00000170: f438 003e 2587 c8be 9a2d 063d d681 403e
00000180: 709b 7b3e 27e8 fc3b 1084 b9bd d230 b6be
00000190: ee2c 8b3e bf9d 693d 1036 a33e 24e4 263e
000001a0: 7b97 fcbc 393d bdbd 4566 dd3d adcf acbe
000001b0: c725 a9be 0538 15be 0eba 903d 403c 07bd
000001c0: 2e2d 873e 6f3e 4abe 3b1c 753e 690c 02bd
000001d0: 338b df3c 2f86 08be 275e 52be 4b78 e93d
000001e0: 71ac 89be c6a9 ddbd 99c1 95be 63ef 2a3e
000001f0: 741b 6d3b dc28 90be be35 523e dcc3 a7bc
00000200: f14a 023e 446e e03c 0e20 723e c62b c43e
00000210: 3824 08bf 722f 5f3e be84 f0bd 11ce d3be
00000220: 206c 5bbe 633f c23d da11 0ebe ac5b 193e
00000230: 4542 053e 0039 83bc a4c9 0bbe 7c42 c23e
00000240: 1db4 5fbe b467 ab3d 948a 07be c457 23bd
00000250: 964f 1cbe a945 183e 19c2 943e e79e 49bd
00000260: 3f1c c73d 6ab3 48bd 2c4a 5dbe 49aa 983d
00000270: cc3c 8f3d 9a23 29be 3e51 143e 07dc cd3c
00000280: f4b0 d43d e738 163e 123a 933e 546f 2b3e
00000290: 7a73 d33e 71d9 07bd 1fca 1dbe ecf1 063e
000002a0: cd74 9cbd cb44 09be 3036 22bc 36ab 373e
000002b0: 55b0 cd3d 626e b3be 376d e33b 4294 883e
000002c0: 82e1 cd3d f938 b83e 6027 253c 81db 60be
000002d0: ea8f 91be 7805 29be 901f 34be 0c9f 41be
000002e0: 2c50 993e 6f5b dabd a379 35bd d7a5 183e
000002f0: 5476 8cbe 99b9 c63e 7730 8dbe fabc 67be
00000300: 5832 9e3e b60f 1abd fb39 29be 5b2b e73d
00000310: 9ac1 f43e dd96 aabd b956 96bd cb93 803c
00000320: ff3c 463e 3e27 41be e11e 0d3b a3a8 0a3e
00000330: 9080 2a3e 3041 aabe 8581 cc3c b289 fd3c
00000340: 31a1 713e c680 8abe a744 2d3e 5fd4 463e
00000350: 3dfe 8a3d 380a 4ebe 46c0 f8bd 329f d1bd
00000360: 9efd 0c3e 640c 263e c675 e9be 6439 01be
00000370: 5dd0 13be 9abd 2ebe 900f 4f3e 92cb 89be
00000380: 5b10 52be 3ab8 8abe 8293 193e ee7b b3be
00000390: 9799 0e3f 9893 22be b41d 04be 6195 9fbd
000003a0: c074 fabd 78c2 1d3e 633e 1e3c c1b5 ce3e
000003b0: b365 b23e bd84 b3be 7c71 893e 0001 8bbe
000003c0: 54af 62be d099 b63e b6f2 2bbe f8ea 653d
000003d0: 9c3d 9e3e c781 eabd 3d26 78bd 242a e1bd
000003e0: 4b00 84bd ca3b 3abe 5000 33bd 8cb5 bf3e
000003f0: a7cf 493e 7257 573d 097f 413d 5c6f ae3d
-0.03495431 0.010375735 0.3429301 0.096901365 -0.21240476 -0.2610737 -0.036016036 -0.027465925
-0.060849022 0.27395168 0.13676096 -0.30872872 0.04903292 0.04539125 0.046251554 0.15213084
-0.15889212 0.1254003 -0.07058089 -0.25582415 -0.35746247 -0.011352368 -0.46829528 0.19135694
-0.03571082 0.06393945 -0.44044045 0.03482498 -0.08837964 0.41642445 0.12181457 0.06256759
-0.045492966 -0.33493686 0.012260173 0.019667067 0.17672496 -0.06164032 0.31033057 0.013864741
0.059085038 0.12405361 -0.013315901 0.12580916 0.16780894 -0.24718799 0.0023373826 -0.18530883
0.30832863 -0.07486813 0.092369005 -0.20797768 -0.07414568 0.10092261 -0.24745859 -0.049338706
0.08802088 0.024954274 -0.35555783 0.35770664 -0.13860285 0.5084644 -0.16714449 -0.019981675
-0.14696938 -0.21456146 -0.022775393 0.2902914 0.0544671 0.20938657 0.038104188 -0.21198086
0.16904536 -0.49496752 0.023437785 0.100310296 0.20718302 -0.04227386 0.097007036 -0.13090377
0.15619966 0.026086532 0.15446527 -0.29670456 0.5057747 -0.1271113 0.050053865 0.40132502
-0.047625847 -0.09710048 -0.13833252 0.02934963 0.12521726 -0.39165607 0.032758333 0.18799528
0.24571013 0.0077181044 -0.09058392 -0.35584122 0.27182716 0.057035204 0.31877184 0.16297966
-0.03083395 -0.09240193 0.10810522 -0.33752194 -0.33036634 -0.14572151 0.07066737 -0.033016443
0.26401657 -0.19750379 0.2393655 -0.031750116 0.027288055 -0.13332437 -0.20543729 0.11399897
-0.26889375 -0.10823397 -0.29249266 0.16692881 0.0036179693 -0.28156173 0.20528314 -0.020479135
0.127239 0.027396329 0.2364504 0.38314646 -0.53180265 0.21795443 -0.117440686 -0.41368154
-0.21427965 0.09484746 -0.13873997 0.14976376 0.13013561 -0.01601839 -0.13651139 0.3794135
-0.21846052 0.08369389 -0.13236457 -0.03987862 -0.15264735 0.14870323 0.29054335 -0.049223807
0.097221844 -0.048999228 -0.21610326 0.07454354 0.06994018 -0.16517487 0.14484116 0.025129331
0.10385314 0.14670144 0.28755242 0.16741687 0.4129904 -0.033166353 -0.15409134 0.13178223
-0.076394655 -0.13405149 -0.009900615 0.17936406 0.10043398 -0.35045153 0.0069405097 0.26675612
0.10052778 0.35980967 0.0100801885 -0.21958734 -0.2843011 -0.16505992 -0.17590165 -0.18908328
0.2994398 -0.10661971 -0.044305455 0.14907013 -0.27434027 0.38813475 -0.27576038 -0.22630683
0.30897784 -0.03761264 -0.16526024 0.11287566 0.47803956 -0.08329556 -0.0734076 0.015695473
0.19359206 -0.18862626 0.0021533298 0.13540892 0.16650605 -0.3325286 0.024964103 0.030949447
0.23596646 -0.2705137 0.1692072 0.1941695 0.06786773 -0.20121086 -0.12146048 -0.10235442
0.13768622 0.16215664 -0.45597667 -0.12619549 -0.14434953 -0.17064515 0.2022078 -0.26913124
-0.20514052 -0.2709368 0.14997676 -0.35055488 0.5570311 -0.15876615 -0.12901956 -0.07792164
-0.122292995 0.15406215 0.009658429 0.40373042 0.34843215 -0.3506221 0.26844394 -0.271492
-0.22137195 0.35664225 -0.16791806 0.056132287 0.3090638 -0.11450534 -0.060583342 -0.10994366
-0.064453684 -0.1818687 -0.04370147 0.37443197 0.1970812 0.05257363 0.04724029 0.08517334

bias f4 [12]
00000000: 8620 323d 7ccf 373b b9c4 62ba d5b9 1b3d
00000010: df6d d7bb fbf8 bebc 412f c3bb 6397 9ebc
00000020: f1d9 fcbc af47 b7bc 6d70 32bc bfc9 bdbb
0.043488048 0.0028047254 -0.000865053 0.03801902 -0.006574377 -0.023312083 -0.005956561 -0.019359296
-0.030865641 -0.022373049 -0.010891062 -0.0057918723

weight f4 [12, 12, 3, 3]
00000000: b1d1 03b9 cb15 c9bd c54e 98bc 73a6 87bd
00000010: 621c 8e3c f840 553e 7f71 d83c 62b6 8e3d
00000020: 3a04 943d 0d25 62bd c77d cb3e cf44 95bd
00000030: 8184 e9be d16b c43e 0e17 e43d 6958 083f
00000040: 5549 913d 979d 6e3e 6886 093e 773c b6bd
00000050: dcb1 9f3e 0ecc 723e 9deb 1c3e 4319 8dbc
00000060: cbfd 00bc 3aa5 ba3d 2e11 b0bd 551b 5e3d
00000070: 9b89 4ebe 61dc cabe 7a29 133e 5863 84bc
00000080: 7ab1 df3d 2cec 873e ed47 3ebd e682 50be
00000090: c2fe 79be 0e06 103d ebd6 283e eb97 2f3d
000000a0: 427f fd3d 3f33 83bc a073 bc3d e4b1 32be
000000b0: 4738 80bd 7604 9cbd 1c6f e1bd 3d82 53bd
000000c0: 71e3 3bbe 7682 4f3d 88c3 ae3d 6bd9 093e
000000d0: b170 13be 9180 1dbf fd72 a63e fc19 e33c
000000e0: 7471 a6bd e68e 6dbc e5dd 0cbe 6152 943e
000000f0: 9c13 1fbe fb5f 60be 8a37 2dbe bd4c 8c3e
00000100: 065a a3be d66a 02bd 0d5f 943e 45c4 f63d
00000110: 67f3 94be f94d 083d abc0 653e 6311 c33e
00000120: 8604 ab3e ff73 233e 0c38 56bd b937 043e
00000130: 34d4 b93e 47e0 9fbe 7d1e 8dbd 6e35 38be
00000140: 6499 b6bd a10e 053d f0cb 643e 8969 49be
00000150: bcf1 7ebd d535 41bd e5ec 9fbe 0d80 513d
00000160: 8715 10be bdc2 8b3e a1ba 44be d7cc a4bd
00000170: 7b2c 69be 2970 c23d 0d16 5b3e 8671 b8be
00000180: ea1e 0ebe c746 efbd d424 d13e 21c4 9a3c
00000190: 3621 c4be 4667 553e 88b7 36bd 2c2e ad3e
000001a0: 90b8 143e 2941 2c3d f395 323c 804a 09be
000001b0: b1d6 313c b55d 2bbe 676e 913e 902a e73c
000001c0: 607e dc3d 9deb c3bd 6849 6e3e 02bb 803e
000001d0: 42e3 863e b742 8e3e 1ee3 cc3c 7e6f 1a3d
000001e0: a5a0 b7be 6c67 c23c 850a eb3c 72eb b03d
000001f0: 612c 3e3e 3dfd 01be adc3 123d e93e 9fbd
00000200: ec04 373e 87cc 4abc 651e 153e 53d1 a13d
00000210: d481 b5bd bd6a 393e 274f d23e fe02 c53e
00000220: 9a3a 0ebd 8ebc 3b3e fbf0 04be ab5c be3d
00000230: 18bd 8b3e 2b52 dd3e 03c0 8abe ad6f 04bd
00000240: 1f9f 55be 6f2c 2a3e fedb a3be 98c1 66bc
00000250: d839 f83d 8e94 d43e c7b5 5abe 5369 22be
00000260: 250f 17bd 3380 d43c e740 26be ef03 fe3d
00000270: 7c91 4dbd ea8c 77be c2b1 8bbe b597 433e
00000280: 7603 593e 5b03 823e 7f0a 28be 8680 69bd
00000290: beb7 bf3d ac06 1b3b 7f4d b2bd 83dc 57be
000002a0: 7cef be3d 7e59 c33e b5f2 eabb 4537 90be
000002b0: 947a 873e baf6 39be 187b 733d bcff de3e
000002c0: aa6a 37be 1bf4 56be 99b0 af3e 3d18 a13d
000002d0: 0639 9cbe a01f 20be 4f2b 0cbd 578e cb3e
000002e0: b51e 3f3e d847 1ebd 9592 1e3c fbc0 c23d
000002f0: 083f fd3c 24eb 413d 2e1d 433e 60fe 81bd
00000300: cfd5 da3d 1d9a c83d 742a 92bd 713e be3d
00000310: 089b 1abe 88de 313e 81bd 3f3e 4646 643d
00000320: 5553 843e 4d61 1c3e 6669 b9be d5b7 1abe
00000330: ce86 af3e c985 fdbe 7f01 243e 5aac 07bf
00000340: 01de 643d 63bc a1bc d575 363e 0f23 02be
00000350: df9e 17be 1be7 9d3e a0d9 653e 08af 803e
00000360: c92c cd3e 52af 13be e704 68be aa38 1bbb
00000370: 41ad 8fbe f2b2 823e 363c df3e 68d7 523d
00000380: 88cb ddbe e2a0 db3e 00f8 61be 9f70 b9bd
00000390: 949d bd3e 3cc3 313d 5938 a73e d9c3 313c
000003a0: 8054 87bd 0100 0c3c afac 343e 496c 043e
000003b0: c2b2 efbd 4989 e8bd f46e b13d c9e0 b83d
000003c0: b1ec 0ebe 6a15 15be 39a2 2abe 0da6 99be
000003d0: 3f94 a1bd 3fde 83bd 2135 563e b088 10be
000003e0: 8982 1e3e 3637 443e 9166 c73e 3365 283e
000003f0: 3c49 68be 3056 cbba 6e3b f3bc 6957 bd3e
-0.0001257125 -0.0981861 -0.018592248 -0.066235445 0.017347518 0.20825565 0.026421307 0.069683805
0.07227369 -0.055211116 0.39744398 -0.07288515 -0.45608905 0.38363507 0.1113721 0.53259903
0.07094065 0.23302303 0.13430178 -0.088982515 0.31190383 0.23710653 0.15324254 -0.01722396
-0.007873009 0.09113546 -0.08597027 0.054225285 -0.2016968 -0.3962126 0.14371291 -0.016160652
0.10922523 0.26547372 -0.046455313 -0.20362434 -0.24413589 0.035162024 0.16488235 0.04286949
0.12377788 -0.016015647 0.09201741 -0.17450672 -0.06260734 -0.07618038 -0.110075206 -0.051637877
-0.18348481 0.050661527 0.085333884 0.13461845 -0.14398457 -0.615243 0.32509604 0.027722351
-0.08127108 -0.014499402 -0.13756521 0.289691 -0.15534824 -0.21911614 -0.16915718 0.27402297
-0.3190462 -0.031840168 0.28978768 0.12049154 -0.2909195 0.033277486 0.22436778 0.38099203
0.3340189 0.15962218 -0.052299544 0.12911882 0.3629471 -0.31225798 -0.06890581 -0.17989132
-0.08915976 0.032484654 0.22343421 -0.19669165 -0.062242255 -0.04717048 -0.31235424 0.05114751
-0.14070712 0.2729701 -0.19211818 -0.080468826 -0.22770874 0.09494049 0.2139513 -0.36024112
-0.1387898 -0.116834216 0.4084841 0.01889235 -0.38306588 0.20840177 -0.044608623 0.3382429
0.1452353 0.04205433 0.0109000085 -0.13407326 0.010854409 -0.16734965 0.28404543 0.028218538
0.107662916 -0.09566424 0.2327019 0.25142676 0.2634526 0.27785274 0.025010642 0.037703983
-0.3586475 0.023730956 0.02869154 0.08638658 0.18571617 -0.12694259 0.035831142 -0.07775671
0.17872971 -0.012377865 0.14562376 0.079012536 -0.088626534 0.18107124 0.41076013 0.38478845
-0.034723856 0.18333647 -0.12982552 0.09295019 0.27292705 0.43226752 -0.27099618 -0.032333065
-0.20861481 0.16618513 -0.32003778 -0.014084242 0.12120408 0.41519588 -0.21358405 -0.1586049
-0.036879677 0.025940036 -0.16235696 0.12403094 -0.050187573 -0.24174848 -0.27284056 0.1910084
0.21192726 0.25393185 -0.16410254 -0.057007335 0.09361218 0.00236551 -0.087061875 -0.21080212
0.09323022 0.38154215 -0.007170046 -0.28167167 0.26460707 -0.18160525 0.059443563 0.43554485
-0.17911783 -0.20991556 0.3431442 0.07865951 -0.30512255 -0.15637064 -0.03422099 0.39757034
0.18664058 -0.038642734 0.009678503 0.09509464 0.030913845 0.04734339 0.190541 -0.06347346
0.10685312 0.0979502 -0.071370035 0.092892535 -0.15098202 0.17370045 0.18724634 0.05573108
0.25844827 0.15271492 -0.36213225 -0.15109189 0.34282535 -0.49516132 0.16016196 -0.5299736
0.055875782 -0.01974315 0.17818387 -0.12708686 -0.14806698 0.30840382 0.22446299 0.25133538
0.4007323 -0.14422348 -0.2265812 -0.0023684897 -0.2806187 0.2552715 0.43600625 0.05147496
-0.43319345 0.4289618 -0.2206726 -0.09054684 0.37034285 0.04339908 0.32660177 0.010849916
-0.06607914 0.008544923 0.17643999 0.12931933 -0.11704017 -0.1135431 0.08663741 0.09027249
-0.13957478 -0.1455895 -0.16663446 -0.300095 -0.07889604 -0.064388745 0.20918705 -0.14114642
0.15479483 0.19161686 0.3894544 0.16444854 -0.22684187 -0.0015513357 -0.029691424 0.3698075

bias f4 [12]
00000000: 7191 d53c 83c2 563d ce76 3c3c 96a5 5e3b
00000010: 8141 e43c d51a 823d c3f4 f8bc b4e4 e03a
00000020: 2421 74bd cb32 a9ba 2c1a 3e3a 2017 fc39
0.026070328 0.052431595 0.011502935 0.0033973209 0.027863266 0.06352774 -0.030390149 0.0017158003
-0.059601918 -0.0012908814 0.0007251825 0.00048082415

weight f4 [12, 12, 3, 3]
00000000: 63f9 e03d 08a2 67be 4a16 51be aede 913e
00000010: ea81 1b3c e80f e23d ab92 26be cde1 bebd
00000020: 41a1 b9bd 6dc4 f3bd ae1f 043f c252 063d
00000030: b0fb 8cbb 8478 56bc 5713 89be 089e fdbd
00000040: 9052 da3c 6945 6c3e 8626 bcbb 6419 f23d
00000050: 3f33 203e bdce 4ebe b597 fdbd d014 b0be
00000060: 608c c63d b929 aebd f9ed 84bb b4f4 0a3e
00000070: e95b acbd c961 e93b 03aa d4bb eaa6 fcbd
00000080: 81ec d2bd 6d15 6f3e eb21 85be c83a bbbd
00000090: 2b3b 28be 52d7 103d 7aef 92be dd57 b13d
000000a0: 79da a4bd dac0 48be 9d20 4b3e 9492 83be
000000b0: 48ff 04be cd09 2e3e a9d0 8c3e 7f1d 14be
000000c0: f559 33bd 1294 b03d 163b f0bb f9cc 14ba
000000d0: 2f6c cfbd 50ee 9ebe 5d25 93be a6e8 88bd
000000e0: 7a1d 043e e304 68be d053 703e 09c8 eabd
000000f0: 014a bdbd e4ac 55bd 05f6 483e 0cf2 963e
00000100: 45c4 533e c526 23be 3957 89be c9cc 14be
00000110: 883c 30be 737a 10be 2ba1 56be 0549 84bd
00000120: 43da 93be f49e c9bc ad69 563d a061 2b3e
00000130: b6d4 4f3e 4bbc 8ebe 06d0 2dbe 9470 2abe
00000140: 21e0 4c3e 99d5 8f3d 9409 323e 7b50 37be
00000150: 38ef e03e 33f8 9b3c d288 c6bd 90bb b93c
00000160: e269 b33d bd99 223e ed48 26be b6d1 82bd
00000170: d1b2 0c3e 6da9 3cbe d30c cb3d d383 f2bd
00000180: e7b1 bcbd 8892 7cbd 0562 b7bc c480 febd
00000190: 9e6a 883e 397f c73d 9331 e3be 8f99 b53d
000001a0: 3a60 943e e107 bebb 5dfa 46be 0b1d 813c
000001b0: 618d 0bbe 9fd4 e2be 9b4a b43d 6c88 553d
000001c0: 1dc1 3abd 5d9d 5e3e 07b3 dd3d af9f 42be
000001d0: 8b8d 293d efe5 3bbe d547 7dbe 1afe 033d
000001e0: af0e ab3c 2750 d33d 2a50 58bd 6eb0 49be
000001f0: 6104 3e3e a2da e93d dc58 aabd cb9d 423d
00000200: dacf 9e3d 6c36 df3d 9577 8abe 800d ce3d
00000210: b2d1 9dbd 5346 9c3e 7bbe 77bd 34cb adbd
00000220: 22a7 9b3c 7763 173e f5d8 35be 53a1 fb3d
00000230: acea 01be 3978 113e 7fb2 e0bd a616 03be
00000240: 47b2 903d 4f41 35be 85e8 06be 3f90 763a
00000250: ef0f 4cbe bb66 1fbe 08b7 023e e601 7dbd
00000260: 309e 3c3e cc16 d13d ab11 b23d 2ac8 45be
00000270: 5619 31bd d197 85be 8c2c c83d 097e 6cbe
00000280: 1e68 5abe fa70 9cbd 1732 9a3e b778 f6bd
00000290: 2e46 03be c60b 21be 2011 a23d 6cb7 213e
000002a0: 4bd3 663c 5e1e 51bc ccd4 1dbd d480 aabe
000002b0: 996b 2fbe 8d20 48be cf42 8e3d de5f 11be
000002c0: 24de 5fbe 6c0a fabd 17ab c13d 852c 843d
000002d0: 48e7 0dbe bfd4 cabd 4f4b b03d d1b5 843e
000002e0: 73d5 693e 195d 223e bdcf ac3d 6d0c a3bd
000002f0: 655b 86bc 94eb b8bc bad8 f9bb 5c81 893e
00000300: 3451 7ebe 6b66 993d 96bd 863d 5fba 11be
00000310: 8536 5fbe 8a54 c2be 2d3d 97bd 81ed 07bd
00000320: 3af4 7b3d e4c5 ed3e 5368 ba3d d68b 2c3e
00000330: d47b a6be 4782 c13e d9a4 17bc acea e43d
00000340: 1112 283e 8a5e 59bd a38c 6a3e 2f0f 0d3e
00000350: 7d05 30be 2f29 cdbd eb34 1c3c 8899 a23d
00000360: 4046 ed3d 00d9 9bbc 4e3f 06bd d9dd dbbe
00000370: 2a66 a9bc 3ae6 8dbe 8fa5 30be 9a1c 5cbe
00000380: 0441 a43d be4e 303e 8c48 25bd 162d 853e
00000390: 7d57 de3e 0e8f e93c ecc6 99bd 68c6 d33d
000003a0: ae67 c4bd 5570 653e 14b8 4cbe 007f 04be
000003b0: 5720 6b3d 4df5 66be f50d 9b3d 693f 45bd
000003c0: 2622 563c 4fa6 c43d bae1 e3bc 345d fdbd
000003d0: 46e6 733d 0f75 93bd 0ad2 1cbe 70f4 15bd
000003e0: f6eb 65bd 5fd9 01be 3cc7 613d 8091 13be
000003f0: d2e2 eabd c4aa 2f3e 2c46 853d 3232 353c
0.10985067 -0.22620404 -0.20418659 0.28490204 0.009491423 0.1103819 -0.16266887 -0.09320412
-0.0906396 -0.119026996 0.5161084 0.032793768 -0.0043024644 -0.013090257 -0.26772568 -0.12383658
0.026650697 0.23073353 -0.005741897 0.11821249 0.15644549 -0.20196052 -0.123824514 -0.3439088
0.09694743 -0.08504052 -0.004056689 0.1356991 -0.08415968 0.0071222526 -0.0064899935 -0.12336524
-0.10299016 0.23348017 -0.2600244 -0.09142071 -0.16428821 0.035361595 -0.2869833 0.08659337
-0.08049483 -0.19604817 0.1983666 -0.25697768 -0.12988007 0.16995926 0.27502945 -0.14464377
-0.04378696 0.08621992 -0.0073312623 -0.0005676295 -0.10128056 -0.31041193 -0.28739443 -0.06684999
0.1290187 -0.22658114 0.23469472 -0.11463935 -0.09242631 -0.052166834 0.19625099 0.29481542
0.2068034 -0.15932758 -0.26824358 -0.14531244 -0.17210591 -0.1410921 -0.20959918 -0.0645924
-0.28877458 -0.024611928 0.052346874 0.1673646 0.20295987 -0.2787803 -0.16973886 -0.16644508
0.20007373 0.070231624 0.17386466 -0.17901795 0.4393251 0.019039249 -0.09694065 0.022672445
0.0876043 0.15878959 -0.16238756 -0.063876554 0.13740088 -0.18424006 0.099145554 -0.1184155
-0.0921362 -0.06166318 -0.022385607 -0.12426904 0.26643842 0.09741063 -0.4437376 0.088671796
0.28979665 -0.005799279 -0.19431444 0.01576092 -0.1362815 -0.44302842 0.08803292 0.052132055
-0.045594323 0.21739717 0.108251624 -0.19006227 0.04139475 -0.18349431 -0.24734433 0.032224752
0.020881025 0.10318022 -0.052810825 -0.19696209 0.18556358 0.11418654 -0.0831773 0.047513764
0.07754488 0.10899052 -0.2704436 0.10061169 -0.07706012 0.30522403 -0.06048439 -0.084860235
0.019000594 0.14784037 -0.17758544 0.122866295 -0.12687176 0.14206018 -0.109715454 -0.12801608
0.07065254 -0.17700695 -0.13174637 0.00094056496 -0.19927953 -0.15566532 0.12765133 -0.06176939
0.18419719 0.10209426 0.08694776 -0.19314638 -0.043237053 -0.2609239 0.09774122 -0.23094954
-0.2132878 -0.07638736 0.3011634 -0.12034743 -0.1281974 -0.15727147 0.079134226 0.15792626
0.014088462 -0.012763588 -0.038533017 -0.33301413 -0.17130889 -0.19543667 0.069463365 -0.14196727
-0.21862084 -0.12209019 0.09456461 0.06453804 -0.13857758 -0.09903859 0.08608114 0.25919965
0.2283533 0.15855826 0.084380604 -0.079613544 -0.016401002 -0.02257327 -0.007624713 0.26856506
-0.24835664 0.07490238 0.065791294 -0.14231251 -0.21798141 -0.37955123 -0.07384715 -0.033185486
0.06151221 0.4644004 0.091019295 0.16850218 -0.32516348 0.37794706 -0.009255611 0.111775726
0.16413142 -0.053068675 0.22905211 0.13775323 -0.17189594 -0.10017621 0.009534101 0.0793944
0.11585665 -0.019024372 -0.032775216 -0.42942694 -0.020678598 -0.2771471 -0.17250656 -0.21495286
0.08020213 0.17217538 -0.04035239 0.2601096 0.43426123 0.028510597 -0.075086445 0.10340577
-0.09590088 0.22406133 -0.19992095 -0.12939072 0.05740389 -0.22554512 0.075710215 -0.048156176
0.013069665 0.09602033 -0.027817596 -0.12371293 0.059545778 -0.072000615 -0.15314499 -0.036610067
-0.056133233 -0.12680577 0.055121645 -0.14410973 -0.11469044 0.17154986 0.06507525 0.011059331

bias f4 [12]
00000000: 692b 52bc 854e a53c d86c 77bc 8efd ff3d
00000010: db2b d13b a4b9 4abd 8cda aebc 38ba c1bc
00000020: 5fed 1dbd e6a4 e3bb 3769 a6bd 1b09 0bbd
-0.012827733 0.020179043 -0.015101634 0.124995336 0.006383402 -0.049493447 -0.021344446 -0.023648366
-0.038556453 -0.0069471477 -0.08125537 -0.03394423

weight f4 [64, 12, 1, 1]
00000000: ac0e 5e3e c278 7cbc 257f e33d 8a0b 013e
00000010: d583 773e 0d8e 883e 9a99 983e ebed 1ebe
00000020: 4984 df3d fadf 0cbb c121 35be ef2a 13bd
00000030: d525 ef3c 713b e43d 3542 473d 305f 19be
00000040: 66c9 d1be f399 e53d 1d7a 85be f780 623e
00000050: 2c4c 0abe 9073 8e3d 61d4 f33d 19f2 ba3d
00000060: d479 d5bd 17db 46be 88f3 4b3b 28be 73bd
00000070: 2017 203d 3ab0 e03c b2f6 413e b266 f43d
00000080: 2210 5d3e d1a0 a13c 84ed f43d f5c5 afbd
00000090: 71e0 95be ee7f 4b3d 496f c93b 8e32 ffbb
000000a0: 8eae 71be 5d96 adbe 8a17 88be a865 15bd
000000b0: c773 1f3e 9a7a ac3e 9697 e6bd 3b42 66bc
000000c0: 37f7 2fbe 41e3 f43d f718 ccbc f147 53be
000000d0: 4409 a6bc 1e1f 4c3d 9cba 493d 3226 b93d
000000e0: c948 aa3d 9948 e03d ca42 0d3e 31fd 76bd
000000f0: 2a01 6b3b 4bca 26be c059 1cbe e895 683e
00000100: d8e7 80bc 681c 3d3e 7f77 cabe 0a25 eb3c
00000110: 0e42 083e 2c17 d53b 33bf 10bf 0f1b 2abd
00000120: ef23 b53d 80d0 ed3d b34a afbe 7c2c 87be
00000130: c5a2 9cbe de4c e83c 4447 d23d bb2b 33be
00000140: d9e3 a3bd 8cbb 123e de7c 91bd 9507 913e
00000150: 89c7 ff3d 0e6b 9abe d96e 423d b6b2 49be
00000160: c976 fd3b f69e 04be 4888 14be 2e73 f93d
00000170: 38d0 c6be 94fa 6e3e a7cf 733e 6f5c ba3e
00000180: 13b5 c33d 3611 ad3e ee9c 793e cc82 44be
00000190: e010 653e 5d58 983c 32df 98be b1db 593d
000001a0: 4ed9 11bf 27a8 c23e 9103 b7be de94 be3e
000001b0: f825 37bd c68a 56bd f95c bf3d 62d9 09bf
000001c0: ff41 1c3e f7c2 66bd 912f bb3e 8624 cfbd
000001d0: 9e6a 3a3c 0695 1b3e 0ea4 51bd 7f3b 5b3d
000001e0: 877d 3cbe c8f8 b03e c354 1dbd b0d3 67bd
000001f0: aa93 56bc ba32 4a3e 812c 9dbe 60a0 963d
00000200: 07eb a03e f17f 82be baaa 75be 747f 84bd
00000210: 7e3b b73d 3de2 17bc 8294 533e 83c1 25bd
00000220: 1568 77be a516 29be 772e 8e3d fd23 823d
00000230: 44fc e0bd 906c a63c bc03 df3c fa73 d73d
00000240: 1bc1 53bd 4047 5c3c 4181 b1bd bd4f f3be
00000250: 9101 07be cd67 6b3e bbcc b4bc 862c c8bd
00000260: cd8d fb3e d626 123e bbc4 ce3d db6a 04bd
00000270: 434c dabd c924 3abd c473 823d b1cc 90be
00000280: 49d5 143e 147e a7be dce1 1e3e 3198 3a3e
00000290: d1a3 c23d e326 dc3a 0a58 94bd d405 223d
000002a0: 740a 453e d6d1 e7bd 4022 f63d 107c 1c3d
000002b0: e28a 313e 39ad 2d3e 6a0c 873e 2658 a1be
000002c0: e1bb 3abe f722 943d de90 52be 9028 a2be
000002d0: e1be 93be 11eb fdbc c1de 243e 8a88 9c3c
000002e0: ad86 153e 4fb0 35be 7405 e4bb 6340 8bbc
000002f0: 538b 7cbe 96ea 953e 2140 7e3d a3a9 18bd
00000300: 8c92 103d 3a37 01bf f2da d5bc a4fb ac3c
00000310: 2bf3 45bd 5e7c 34bd e17f 4a3c 3ec5 20be
00000320: c70d a43d 5e6a 8b3d f610 63bc 953c 793d
00000330: 7731 b8bb 15c0 5fbe 0a85 59be 0209 f63d
00000340: be0f a6be f4e1 73bd 6039 7a3e fdc4 89bd
00000350: 7ed7 f4bd 0736 333d daf4 d03e 535a 013e
00000360: 7e78 45be a404 a8bd 329e 35be 516b 10be
00000370: b1e3 173e f4e8 c73d 6174 94bd 8a12 a3bd
00000380: 9ba3 983b b8eb a4bd 1a08 893e 3e76 9b3e
00000390: e142 a23e 4d3f 80bd f168 8c3c 0e61 e53d
000003a0: ce0f 97be cbec d43d d762 8abd d86a 05bd
000003b0: d1f6 b3bd acc0 eebe 924f 703e 34d4 c6bd
000003c0: 8236 023b 04fc 81be 8cf1 1b3e 1505 c6bd
000003d0: 99e4 febd 8349 f03b d09d 153e 2ad9 4cbe
000003e0: a4dd 4ebe 167a 2b3e e5e0 61bd 9786 dfbd
000003f0: 7a63 7dbd 6953 c5be 1604 753e 29ea d4bd
0.21685284 -0.01540965 0.11108235 0.12602058 0.24171384 0.26670876 0.2980469 -0.15520446
0.10913903 -0.0021495805 -0.17688657 -0.035929617 0.029192844 0.1114415 0.048647124 -0.14977717
-0.40973967 0.11211004 -0.26069728 0.22119509 -0.1350562 0.069556355 0.119057424 0.09128208
-0.104236275 -0.19419514 0.0031120498 -0.05950752 0.039084554 0.027427781 0.18941763 0.1193365
0.21588185 0.019730004 0.11959365 -0.08582679 -0.29272798 0.04968255 0.0061472994 -0.007788009
-0.23601744 -0.3390378 -0.2658046 -0.0364739 0.1557151 0.33687288 -0.112593815 -0.0140538765
-0.17184149 0.11957408 -0.024914248 -0.20632912 -0.02026809 0.049834363 0.04925023 0.09040488
0.08314664 0.10951347 0.1379501 -0.060300056 0.0035858848 -0.16288106 -0.15268612 0.22713435
-0.015735552 0.18467867 -0.39544293 0.028704185 0.13306448 0.0065030064 -0.56541747 -0.04152971
0.088447444 0.11612034 -0.34236678 -0.26401126 -0.30592933 0.028356966 0.10267499 -0.1749715
-0.08002443 0.14329356 -0.07103895 0.28326097 0.1248923 -0.301598 0.047468994 -0.19697079
0.0077351076 -0.12951264 -0.14505112 0.12180172 -0.38830733 0.23337775 0.23809682 0.36398646
0.095560215 0.33802193 0.2437627 -0.1919052 0.22369719 0.018596822 -0.29857785 0.05318803
-0.56972206 0.38018915 -0.35744908 0.37222952 -0.044713944 -0.05237844 0.09343905 -0.53847325
0.1525955 -0.056338277 0.36559728 -0.10114388 0.011377959 0.15193567 -0.051181845 0.053523537
-0.1840726 0.34564805 -0.038410913 -0.056598365 -0.013096729 0.19745913 -0.30698016 0.07354808
0.31429312 -0.25488237 -0.23990908 -0.06469622 0.08946894 -0.009270248 0.2066212 -0.04046775
-0.24160798 -0.16512544 0.06942456 0.063545205 -0.10985616 0.020315439 0.02722346 0.10520168
-0.05169783 0.013444722 -0.08667231 -0.47521773 -0.13184191 0.22988816 -0.02207028 -0.09774117
0.49131623 0.14272627 0.10096117 -0.032328468 -0.10659077 -0.045445237 0.06369737 -0.28281167
0.14534487 -0.32713377 0.15515846 0.18222119 0.09503902 0.0016796257 -0.072433546 0.03955634
0.19242269 -0.1131932 0.120182514 0.038204253 0.17338136 0.1696061 0.2637666 -0.31512564
-0.18235733 0.072332315 -0.20563075 -0.31671572 -0.28856567 -0.030995877 0.16100599 0.019108076
0.14602156 -0.17743038 -0.006958658 -0.016998475 -0.24662523 0.29280537 0.062072877 -0.037271153
0.035296008 -0.50474894 -0.026105378 0.021116085 -0.048327606 -0.04406392 0.01235959 -0.15700242
0.0801044 0.06807397 -0.013859024 0.06084879 -0.005621131 -0.21850617 -0.21242157 0.12013437
-0.32433885 -0.059541658 0.2443595 -0.06727026 -0.119551644 0.043752696 0.40811807 0.12632112
-0.19284245 -0.0820401 -0.17736128 -0.14103438 0.14832951 0.09761229 -0.0724876 -0.079625204
0.004658175 -0.08052772 0.26763994 0.3036365 0.3169165 -0.06262074 0.017139884 0.11200152
-0.29504246 0.10396727 -0.067571335 -0.032572597 -0.08787311 -0.46631372 0.23467854 -0.09708443
0.0019868915 -0.25387585 0.15228862 -0.09668938 -0.12445945 0.007332982 0.14610982 -0.20004717
-0.20201737 0.16745791 -0.055146117 -0.10914343 -0.061862446 -0.385402 0.2392734 -0.10396225

bias f4 [64]
00000000: 7aa6 d63c 2ea3 3abd 99d6 c838 d83f 153c
00000010: 2390 10bc 675a 7e3c cf51 a1bb 7f18 50bd
00000020: 1bdd 0cbd 7778 463c d42a 033b 96d8 77bd
00000030: fe00 d1bb 8aa1 7b3c c18d 98bc 42a8 8f3d
00000040: 8d67 a43b c3e1 8cbd 81d4 103d 0fcd c7bc
00000050: 8aaf 413d 1afd 34bb aaf6 6bbc e621 46bc
00000060: 2982 3bbc 7761 903b 5f4f 16bd c042 7dbd
00000070: 7e99 ab3c 1d9f 3a3d f13a 953d b8ee bcbd
00000080: 52c6 163d c93e 56ba 9b06 dfbb 8837 df3d
00000090: b1e2 183c 7154 ca3c e466 99bc 31e7 df3a
000000a0: 58bd 06bd 6b49 df3c ea64 a4bd efbc 423c
000000b0: 3569 33bb c646 96bb 3179 81bc f7ae 3b3d
000000c0: 5f93 6d3d 6160 ca3d ad8c cb3c e16e 9dbd
000000d0: d97d 2cbd a7ac 42bd 5136 083c fe4b 003d
000000e0: 70ea debc 6ffd 6c3c ae58 8bbc a216 e23b
000000f0: 5575 40bb 751e 2cbc ad2a 14bc 59dd 803c
0.02620243 -0.045565777 9.576715e-05 0.00910946 -0.008823427 0.015524483 -0.0049230824 -0.05080461
-0.03439055 0.012113682 0.0020014541 -0.060509287 -0.006378292 0.015358338 -0.018622281 0.070145145
0.005017227 -0.06878998 0.03535891 -0.024389772 0.047286548 -0.002761668 -0.014402071 -0.012093043
-0.011444607 0.00440615 -0.036696788 -0.061831236 0.020947214 0.0455619 0.07286633 -0.092252195
0.036810227 -0.0008172808 -0.0068062074 0.108992636 0.009331391 0.024698468 -0.01872582 0.001708245
-0.032895416 0.027256688 -0.0802706 0.011885866 -0.002737594 -0.0045860736 -0.015804859 0.045821156
0.058001872 0.09881664 0.024847353 -0.07687164 -0.042112205 -0.047527935 0.008313731 0.03132247
-0.027211398 0.01446472 -0.01701006 0.0068996707 -0.002936681 -0.010505308 -0.009043378 0.015730547
