model/epoch_79.pt (torch, 65617 bytes, 15 tensors)

weight f4 [64, 1, 5, 5]
0.17619349 -0.0067887176 0.0030543397 0.073316194 -0.2339639 0.05700973 0.22563027 -0.10055471
-0.08256028 0.41847682 -0.10704755 0.096194334 0.06919243 0.17498894 -0.2201608 0.30661955
0.1234026 -0.12511721 -0.18434542 -0.03488261 0.2487096 0.12996829 -0.012217711 0.33960444
-0.37632796 -0.13753262 0.11106317 -0.0153791895 0.079478994 0.21579641 0.1362638 -0.06972718
-0.13632847 0.20020393 -0.31273422 -0.006973484 0.17478862 -0.051679444 0.11563033 0.092153706
-0.05091604 0.21900848 0.08314714 0.016333388 0.10694455 -0.0060402607 -0.12541416 0.07401902
-0.23067673 0.26961824 -0.09572298 0.06671065 0.1483289 -0.0402942 0.18069072 0.026787953
0.21012591 -0.2364336 -0.29129198 0.31764802 0.120655075 0.2158257 -0.1513425 -0.40505806
0.18123245 0.061311066 -0.002274254 0.012238253 0.33192158 -0.23461883 0.11936625 -0.13034967
0.04339012 -0.03861571 -0.124118835 0.27015868 -0.024515223 0.10054872 -0.2879081 0.26769313
0.089159034 0.03370088 0.03142368 0.11804136 -0.15962267 -0.30861276 -0.52976644 0.07203072
0.18833554 -0.09526054 0.115077466 -3.334554e-05 0.05924924 0.17171195 0.11605648 -0.15464944
-0.11186958 0.06425962 0.116261475 0.12484528 -0.51054674 -0.5736769 0.22229573 0.054389454
-0.06345051 0.2956747 0.47064215 -0.025701106 0.05328011 -0.0015144845 0.2949304 -0.13654701
-0.12138055 -0.1690261 0.18593791 -0.3238541 -0.16076311 -0.041839514 -0.37243003 -0.4795775
-0.04477952 0.24685451 0.009366228 0.39238262 0.05412576 0.1499032 -0.120617695 -0.0004926119
-0.2562877 -0.15241696 0.10913182 -0.3013413 0.28885436 -0.113337785 -0.050474513 0.010112412
0.15772069 0.07631377 -0.3358425 -0.20128407 -0.048889894 -0.23911454 0.112302564 0.00032231526
-0.04778592 -0.061703503 0.06589995 0.33785683 -0.11280775 0.44930676 -0.047035016 -0.011457099
0.005968448 0.21527751 -0.2463333 -0.29209054 0.0027049007 -0.1446695 -0.43891135 -0.14861204
-0.2377307 0.10245212 0.0962193 -0.09381108 -0.2333589 -0.12895058 -0.17492113 -0.1251586
0.07097688 0.06268465 0.2373539 0.31333926 -0.4087472 0.1142708 -0.37644896 -0.3482316
0.06536801 0.6136105 0.1450285 0.025001425 -0.52932906 0.09615819 -0.2438132 -0.15316807
0.12764473 0.4795759 0.049046207 -0.03346876 -0.007272191 0.09934527 0.03125496 0.12523101
-0.057128973 0.06652989 -0.006680892 -0.092608735 -0.1589816 -0.0056175967 -0.00029656774 0.02545508
0.037440125 -0.16593194 0.20190868 0.016506746 0.12704048 -0.06737567 -0.027164184 0.24734579
0.40389097 0.035822585 -0.059401482 -0.0066432045 -0.289883 0.03265818 0.0677593 -0.23828992
-0.196027 -0.10288643 -0.3017765 -0.12620325 -0.1661249 -0.38053322 -0.08301927 -0.055848382
0.10051826 -0.010136468 0.2725026 -0.29099736 -0.05687886 -0.2722856 -0.22561638 0.05208429
0.028862605 0.08679024 -0.323361 0.11502868 -0.35032314 -0.23376921 0.06270012 -0.20347911
-0.11854963 -0.21599708 0.21774094 -0.06457925 -0.21404192 -0.07445402 0.11725535 -0.04125705
0.18606167 0.22126181 0.02366525 0.13513505 0.18287471 -0.16241272 -0.029153563 -0.6715175
00000000: 116c 343e e473 debb 512b 483b cd26 963d
00000010: 3c94 6fbe 0983 693d 9f0b 673e a1ef cdbd
00000020: 5d15 a9bd 9842 d63e bf3b dbbd 8901 c53d
00000030: c3b4 8d3d 4d30 333e d571 61be 3dfd 9c3e
00000040: 81ba fc3d ba1e 00be 0cc5 3cbe 11e1 0ebd
00000050: bbad 7e3e 6816 053e cb2c 48bc a2e0 ad3e
00000060: 0fae c0be 5ad5 0cbe 1675 e33d fff8 7bbc
00000070: e2c5 a23d bcf9 5c3e bd88 0b3e 20cd 8ebd
00000080: b199 0bbe 4202 4d3e b31e a0be d381 e4bb
00000090: cafb 323e d3ad 53bd 98cf ec3d 15bb bc3d
000000a0: 568d 50bd c243 603e 0c49 aa3d 99cd 853c
000000b0: bf05 db3d 61ed c5bb 926c 00be 4997 973d
000000c0: 8536 6cbe 670b 8a3e 690a c4bd 989f 883d
000000d0: 88e3 173e 880b 25bd fd06 393e 6972 db3c
000000e0: 3f2b 573e a61b 72be 3924 95be c3a2 a23e
000000f0: 021a f73d 6a01 5d3e 87f9 1abe c563 cfbe
00000100: 0095 393e 5021 7b3d a70b 15bb f482 483c
00000110: a0f1 a93e eb3f 70be 4b76 f43d 627a 05be
00000120: d7b9 313d 822b 1ebd 0432 febd 3d52 8a3e
00000130: 26d4 c8bc 7dec cd3d b168 93be 130f 893e
00000140: 0399 b63d ef09 0a3d 1eb6 003d abbf f13d
00000150: 2074 23be 7e02 9ebe c69e 07bf d884 933d
00000160: 08db 403e f517 c3bd bcad eb3d 80dc 0bb8
00000170: 55af 723d 42d5 2f3e 05af ed3d 6c5c 1ebe
00000180: e11b e5bd 8c9a 833d 7f1a ee3d e2ae ff3d
00000190: 31b3 02bf 7ddc 12bf 7ea1 633e 7ac7 5e3d
000001a0: 57f2 81bd ad62 973e 02f8 f03e 208b d2bc
000001b0: 3f3c 5a3d ab81 c6ba 1e01 973e fbd2 0bbe
000001c0: 5e96 f8bd 2e15 2dbe 8266 3e3e 34d0 a5be
000001d0: 169f 24be e95f 2bbd 26af bebe 2f8b f5be
000001e0: bb6a 37bd 6ec7 7c3e cf74 193c 60e6 c83e
000001f0: f9b2 5d3d 3980 193e 6906 f7bd a022 01ba
00000200: 2438 83be 3113 1cbe 8180 df3d 6849 9abe
00000210: b8e4 933e a41d e8bd 5dbe 4ebd 88ae 253c
00000220: 8881 213e 654a 9c3d 8cf3 abbe 691d 4ebe
00000230: c540 48bd 71da 74be e3fe e53d 6cfc a839
00000240: 2bbb 43bd d0bc 7cbd 8ef6 863d 92fb ac3e
00000250: c007 e7bd 890b e63e caa7 40bd 8eb6 3bbc
00000260: f892 c33b b571 5c3e cc3e 7cbe e48c 95be
00000270: b444 313b 3e24 14be fdb8 e0be c12d 18be
00000280: ad6f 73be 6bd2 d13d a00e c53d 0620 c0bd
00000290: a3f5 6ebe 9f0b 04be 861e 33be 9329 00be
000002a0: 545c 913d cf60 803d e70c 733e 016e a03e
000002b0: 5047 d1be cf06 ea3d ebbd c0be 6a4b b2be
000002c0: aadf 853d 9415 1d3f 5a82 143e cacf cc3c
000002d0: 1c82 07bf 96ee c43d 2baa 79be 17d8 1cbe
000002e0: 4db5 023e f98a f53e ade4 483d 8a16 09bd
000002f0: 8f4b eebb 8875 cb3d 3305 003d 8f3c 003e
00000300: 1200 6abd d340 883d 62eb dabb a6a9 bdbd
00000310: 13cc 22be d113 b8bb a67c 9bb9 2c87 d03c
00000320: d15a 193d 10ea 29be 26c1 4e3e 2839 873c
00000330: e616 023e 41fc 89bd 6c87 debc 3748 7d3e
00000340: ccca ce3e b4ba 123d f84e 73bd 3daf d9bb
00000350: 8b6b 94be 95c4 053d 63c5 8a3d 4602 74be
00000360: 4dbb 48be 1fb6 d2bd 7382 9abe 6d3b 01be
00000370: a51c 2abe 40d5 c2be 0206 aabd 46c1 64bd
00000380: 84dc cd3d 6e13 26bc 7685 8b3e 9bfd 94be
00000390: cff9 68bd 0569 8bbe fb07 67be 5656 553d
000003a0: 4571 ec3c 15bf b13d 938f a5be 2894 eb3d
000003b0: 8e5d b3be 3261 6fbe ec68 803d d45c 50be
000003c0: 26ca f2bd 572e 5dbe 7bf7 5e3e 2042 84bd
000003d0: ce2d 5bbe 597b 98bd 9323 f03d 27fd 28bd
000003e0: f386 3e3e 7592 623e a0dd c13c d860 0a3e
000003f0: 8243 3b3e 854f 26be 74d3 eebc 92e8 2bbf

bias f4 [64]
0.014066066 -0.03330135 0.012718008 0.004052891 -0.028811231 0.013436787 -0.026386645 -0.0037199664
-0.025078852 -0.044062518 0.013645578 -0.0031239975 0.006390801 -0.015217713 -0.01508307 -0.048384897
0.019965053 0.021984056 0.04079346 -0.04104436 -0.0025243694 0.028698113 0.021044401 -0.017653974
-0.029699493 0.017414952 -0.029313501 -0.015930777 -0.032862324 0.030525222 -0.027255367 -0.034509346
0.04293612 -0.0040849843 -0.009933212 0.00557634 -0.02405361 0.013707512 -0.028783366 0.02860858
0.006890421 0.0063065384 0.0036139814 0.0361033 0.020629277 -0.0007833404 0.0042316117 -0.018581683
0.022655461 -0.025673786 0.01522203 0.010856924 0.005057052 -0.015146429 -0.016975021 0.054811414
-0.041947357 -0.032973748 -0.022737788 -0.006242438 -0.00941473 -0.013459364 -0.007059008 0.01408618
00000000: 5b75 663c ff66 08bd 315f 503c 1dce 843b
00000010: 8805 ecbc f825 5c3c ce28 d8bc aeca 73bb
00000020: 2a72 cdbc e67a 34bd b491 5f3c fbbb 4cbb
00000030: ed69 d13b b753 79bc fb1e 77bc 3e2f 46bd
00000040: c08d a33c e817 b43c 0b17 273d 211e 28bd
00000050: e46f 25bb 4e18 eb3c 4f65 ac3c 119f 90bc
00000060: 5a4c f3bc cda9 8e3c de22 f0bc 4381 82bc
00000070: a59a 06bd 0810 fa3c a646 dfbc ac59 0dbd
00000080: c9dd 2f3d 55db 85bb e9be 22bc bbb9 b63b
00000090: 140c c5bc 7995 603c 18cb ebbc 8a5c ea3c
000000a0: 0ac9 e13b 14a7 ce3b 8cd8 6c3b 0ee1 133d
000000b0: bbfe a83c 1659 4dba 55a9 8a3b 9d38 98bc
000000c0: f297 b93c d551 d2bc d265 793c 3de1 313c
000000d0: a0b5 a53b ba28 78bc 330f 8bbc ef81 603d
000000e0: fed0 2bbd 7b0f 07bd 9944 babc 5e8d ccbb
000000f0: 3d40 1abc aa84 5cbc 404f e7bb b9c9 663c

weight f4 [12, 64, 1, 1]
0.2167874 -0.05096315 -0.01643913 0.4452075 0.1922546 0.13000937 -0.016610226 -0.24403685
-0.00676948 0.13811916 -0.04468212 -0.30037063 0.059140664 -0.24838142 -0.26710245 0.07289595
0.022152856 0.24388985 0.25865075 -0.21519384 -0.18842854 -0.5097705 -0.007554418 0.07032595
0.106460795 -0.07860323 -0.25977665 -0.09771116 0.03734593 0.021574894 -0.0405771 0.10518976
-0.0706539 -0.11587772 0.11232635 -0.02350831 0.0610669 0.26599562 0.08981521 -0.0026492502
-0.04923151 -0.25979292 0.06448554 0.31087494 0.110455215 -0.14022532 -0.2046245 0.17108822
-0.21046215 -0.10392074 0.05788723 -0.14465679 -0.098052025 -0.15970896 0.035391953 -0.004382228
-0.025014153 0.36793485 0.2897246 -0.16783531 0.21690887 0.22730161 -0.019660605 0.2744502
-0.1917283 0.15525532 -0.09551171 0.31148055 0.19180468 -0.0042696474 -0.15117143 -0.24148141
-0.2422703 0.080759116 0.340666 -0.14358324 0.24353117 0.038215633 0.0015220396 0.124930754
0.20938626 -0.19837706 -0.11169277 0.08712792 -0.003578989 -0.2144506 0.10910512 -0.016043346
0.0818496 -0.22531046 -0.033683132 0.063666664 0.33066326 -0.03248212 0.2255802 0.08589966
-0.23991907 0.20581236 -0.080628164 0.12270529 0.12873957 -0.31059396 -0.10414514 0.24977143
0.19974849 -0.06532193 -0.4306279 -0.041041575 -0.04041866 -0.2946735 -0.27365926 -0.2945424
-0.2832185 -0.043500822 -0.15785673 -0.15303762 -0.12294853 0.049255006 0.30446035 -0.191629
0.11557055 -0.067180015 0.19460194 0.03691677 0.014335599 0.23891553 0.15217678 -0.22035381
0.30931783 -0.114348404 -0.20888774 -0.0067133824 -0.10361281 0.35451 -0.25986847 -0.12345589
-0.08311565 0.16043417 -0.24181582 -0.091423616 0.02869738 -0.027250897 0.103133775 -0.27181187
-0.44524404 -0.19671428 -0.11505393 -0.25952876 -0.09281845 -0.05049995 0.16128722 -0.1578713
-0.27649558 -0.16530623 -0.28804478 0.25609073 -0.066995636 0.0067774802 0.51180065 -0.059156924
0.10258045 0.017511562 -0.14987043 -0.47139028 -0.030199623 -0.14879918 -0.05169715 0.0075189634
0.1613414 -0.35047153 -0.056915894 -0.008097059 0.05676643 0.0020585705 0.23081191 -0.21532154
0.112954974 -0.16194521 0.3831756 0.017216258 -0.2508546 0.1625684 0.0030542964 -0.08813166
0.0028195095 0.05666652 0.5070968 0.028121175 0.20452705 -0.2721254 -0.14500019 -0.11981173
-0.1409227 -0.13851504 -0.17002721 -0.23818669 -0.15246512 -0.112050354 -0.38525602 0.00618311
0.148885 0.0771105 0.08194507 -0.081690714 0.12498253 -0.19620983 0.3149977 -0.22721976
0.031552367 0.02912186 -0.13678208 -0.0767342 -0.12458267 -0.012313831 -0.15526897 0.03922266
-0.11738463 -0.012681443 -0.13838343 -0.12239323 -0.21797258 0.13012086 -0.07389062 -0.015685596
0.3565018 -0.07110092 0.08769832 0.08285318 -0.09281011 -0.051482506 -0.031060666 0.00369044
-0.0020029005 -0.21809326 -0.15291665 -0.15390979 0.37989503 -0.27028197 -0.30966666 0.12478661
0.009717486 0.11399438 0.16868313 0.18470144 -0.3834208 0.21566205 -0.06531634 0.27976215
0.052369647 -0.16256076 -0.050439376 -0.09116557 -0.2874983 0.0057074293 -0.038124826 -0.059187103
00000000: 84fd 5d3e bcbe 50bd 5bab 86bc 3df2 e33e
00000010: 64de 443e 2d21 053e 2b12 88bc cce4 79be
00000020: 84d2 ddbb 1c6f 0d3e 9904 37bd 2eca 99be
00000030: 7b3d 723d b357 7ebe a7c1 88be 794a 953d
00000040: e879 b53c 43be 793e df6d 843e c65b 5cbe
00000050: 69f3 40be 5280 02bf 0d8b f7bb 0d07 903d
00000060: 1e08 da3d bbfa a0bd 7201 85be ca1c c8bd
00000070: 0cf8 183d d5bd b03c 2c34 26bd bb6d d73d
00000080: feb2 90bd 4c51 edbd 5b0b e63d 8094 c0bc
00000090: 4921 7a3d 9430 883e 09f1 b73d 0b9f 2dbb
000000a0: fba6 49bd 9403 85be ff10 843d 002b 9f3e
000000b0: 5836 e23d 3a97 0fbe 1689 51be c031 2f3e
000000c0: 6483 57be 66d4 d4bd 291b 6d3d e920 14be
000000d0: 80cf c8bd bf8a 23be 27f7 103d cb98 8fbb
000000e0: 7bea ccbc f561 bc3e c856 943e 05dd 2bbe
000000f0: 5c1d 5e3e c1c1 683e 470f a1bc bd84 8c3e
00000100: 6c54 44be 40fb 1e3e a59b c3bd 617a 9f3e
00000110: 7268 443e 66e8 8bbb afcc 1abe e746 77be
00000120: b515 78be 0965 a53d c66b ae3e 7c07 13be
00000130: 3c60 793e ff87 1c3d 2d7f c73a b2db ff3d
00000140: 5a69 563e 5b23 4bbe 2ebf e4bd 1f70 b23d
00000150: 798d 6abb f098 5bbe 8172 df3d 566d 83bc
00000160: c3a0 a73d c9b7 66be 53f7 09bd ab63 823d
00000170: b24c a93e f90b 05bd 7ffe 663e 29ec af3d
00000180: 58ad 75be 7ac0 523e 6120 a5bd e94c fb3d
00000190: 4ed4 033e 2c06 9fbe 0c4a d5bd 15c4 7f3e
000001a0: de8a 4c3e 81c7 85bd 437b dcbe 361b 28bd
000001b0: 098e 25bd 72df 96be 111d 8cbe 43ce 96be
000001c0: 0402 91be eb2d 32bd 32a5 21be e5b5 1cbe
000001d0: 70cc fbbd 9ebf 493d 3ae2 9b3e 643a 44be
000001e0: 41b0 ec3d ad95 89bd bb45 473e 0a36 173d
000001f0: dcdf 6a3c 46a6 743e 3bd4 1b3e 6ea4 61be
00000200: e85e 9e3e 7f2f eabd abe6 55be effb dbbb
00000210: f432 d4bd 5682 b53e 7b0d 85be 71d6 fcbd
00000220: 8a38 aabd db48 243e 919e 77be 4e3c bbbd
00000230: c516 eb3c 463d dfbc cd37 d33d ed2a 8bbe
00000240: 07f7 e3be 786f 49be 65a1 ebbd f4e0 84be
00000250: 9917 bebd 09d9 4ebd 7a28 253e 04a9 21be
00000260: d490 8dbe 0946 29be 9b7a 93be 531e 833e
00000270: 0235 89bd a015 de3b 5e05 033f 884e 72bd
00000280: b315 d23d 6874 8f3c a277 19be 115a f1be
00000290: 3365 f7bc d05e 18be 64c0 53bd a361 f63b
000002a0: ae36 253e 0171 b3be a420 69bd 87a9 04bc
000002b0: eb83 683d 15e9 063b f559 6c3e 407d 5cbe
000002c0: f054 e73d f7d4 25be 982f c43e 1c09 8d3c
000002d0: 0470 80be 5578 263e 972a 483b 5f7e b4bd
000002e0: 85c7 383b 271b 683d 19d1 013f 615e e63c
000002f0: 8a6f 513e 0554 8bbe ee7a 14be da5f f5bd
00000300: 0a4e 10be e3d6 0dbe 9d1b 2ebe 36e7 73be
00000310: d11f 1cbe a87a e5bd 4740 c5be b09b ca3b
00000320: 4f75 183e 1cec 9d3d d1d2 a73d 764d a7bd
00000330: d7f6 ff3d 3beb 48be 6147 a13e 4cac 68be
00000340: 0e3d 013d f890 ee3c 9a10 0cbe d226 9dbd
00000350: 3325 ffbd f3bf 49bc d4fe 1ebe f1a7 203d
00000360: 5a67 f0bd d4c5 4fbc 63b4 0dbe 4da9 fabd
00000370: 3434 5fbe 673e 053e f753 97bd 147f 80bc
00000380: 6787 b63e 5c9d 91bd 2d9b b33d eeae a93d
00000390: 3a13 bebd 52df 52bd f072 febc 4fdb 713b
000003a0: 1843 03bb d753 5fbe 2f96 1cbe 879a 1dbe
000003b0: 9a81 c23e 6662 8abe a18c 9ebe 1f90 ff3d
000003c0: 1736 1f3c e375 e93d 45bb 2c3e 6022 3d3e
000003d0: bb4f c4be 83d6 5c3e 93c4 85bd fc3c 8f3e
000003e0: 8e81 563d 5476 26be 8599 4ebd 04b5 babd
000003f0: fa32 93be 6305 bb3b c728 1cbd 2d6e 72bd

bias f4 [12]
-0.001448563 -0.0015270372 0.01472784 0.019101225 0.009482529 -0.014944568 -0.009230531 0.003558596
0.001975597 -0.012245869 -0.023603456 0.034311727
00000000: b5dd bdba de26 c8ba 0a4d 713c 2c7a 9c3c
00000010: 9c5c 1b3c 10da 74bc a73b 17bc 5537 693b
00000020: 0579 013b e6a2 48bc 095c c1bc 748a 0c3d

weight f4 [12, 12, 3, 3]
-0.25610942 0.01866506 -0.060020193 -0.13336587 0.14713909 -0.09935886 0.092375435 0.3799568
-0.15637289 -0.005437359 -0.08511071 0.12090417 -0.058939394 0.0092437565 -0.24548812 0.17152837
0.15085812 0.15164697 0.05139972 0.024908569 -0.14195247 -0.1145469 -0.07166205 0.3270558
0.19828366 -0.041906986 -0.10795041 -0.14931896 -0.30879432 0.12013903 -0.16032022 -0.2532043
-0.06704784 -0.056280944 -0.1708089 0.25051385 -0.23032245 0.02026832 0.09524202 0.10799671
0.039102573 0.013328496 0.15667756 -0.411067 0.18137561 0.13291503 0.06454577 -0.006302868
-0.06092014 -0.19183296 0.152838 -0.024508866 0.13981035 0.1159102 -0.073723264 -0.0040937075
0.16248679 0.1328692 -0.17541166 0.20454815 -0.12307924 0.076910205 -0.20420858 -0.29657212
-0.1858352 0.087995656 -0.020106316 0.30656958 0.088512436 0.056281205 0.12854071 -0.25744584
0.117559835 0.35730955 0.09932543 -0.581577 -0.059190523 -0.34429714 0.12053624 0.21165544
0.039394945 -0.2573462 0.096029535 0.052297745 -0.07487575 0.13730727 0.10573922 0.10126902
-0.3008237 -0.26556194 0.42885196 -0.24290535 -0.34319448 -0.061344285 0.16146027 0.1713907
-0.27859506 0.011219268 0.005363975 -0.46685323 0.02524353 0.0927338 0.17093618 -0.09057968
-0.1945457 0.36011916 0.1842875 0.21184158 0.3395294 0.27324095 0.1038663 -0.043396063
-0.024530457 -0.018478656 -0.09271864 0.120471895 -0.07961103 0.106854446 0.0010266479 0.010431329
-0.07901679 0.36265528 -0.02684808 0.10778085 -0.16464846 0.25989914 0.3098895 0.010165042
0.13147055 0.01727454 -0.0745572 0.10132525 0.46679106 0.16759995 -0.09785406 0.09822646
0.14465936 0.2476718 0.2239474 -0.11000564 -0.18817593 0.32847956 0.23893946 0.20804706
-0.19812785 -0.13035388 -0.06827132 -0.15608737 -0.20247777 0.08922732 -0.02665773 0.18241248
0.0145387985 -0.31126162 0.30367404 0.21984197 -0.050383694 -0.245632 -0.22689073 0.07599046
-0.15629242 -0.043927405 0.2795078 0.04310806 -0.20370167 0.042222865 -0.1329874 0.10066861
-0.16945365 0.021357162 0.036573835 0.025747724 0.41444334 -0.32062456 -0.15938812 -0.052749664
-0.18028733 0.049786635 -0.0060733426 -0.05384701 -0.10581608 0.105480194 -0.31127802 0.03789502
-0.06640969 0.23588741 -0.062267747 -0.099201 0.14494279 0.07621793 -0.12678692 -0.21428952
0.43828377 -0.16860777 0.13651696 0.5984662 -0.023558788 -0.02041476 -0.04835783 -0.043960497
0.27962604 0.10922248 0.09737864 -0.023879362 -0.06294249 -0.08124417 -0.39804444 0.37693784
-0.018242205 0.049038894 0.17710935 -0.14074315 -0.045783877 0.16915831 -0.095770925 -0.0040887175
-0.091715835 -0.019817716 0.044090822 0.2978023 -0.16146259 -0.07532006 -0.13977057 -0.13249502
0.21477363 -0.038124513 0.14339416 0.010264138 -0.08105542 0.2588149 0.22403353 0.10098952
-0.10966923 -0.0037118038 -0.038207024 0.1334521 -0.18589613 0.031393744 -0.39665392 -0.16551009
0.04945993 0.14430793 -0.18478236 0.042973325 0.25147948 -0.04654687 0.19615746 -0.09770557
-0.026212383 -0.29618925 0.20503215 0.26122618 -0.14757222 -0.08767056 -0.089073464 -0.16513737
00000000: c620 83be 78e7 983c bcd7 75bd 1091 08be
00000010: a1ab 163e a87c cbbd 552f bd3d b389 c23e
00000020: 3720 20be e02b b2bb 864e aebd 9b9c f73d
00000030: 6f6a 71bd 2073 173c 3d61 7bbe 22a5 2f3e
00000040: 8d7a 1a3e 5849 1b3e 8388 523d 0e0d cc3c
00000050: fd5b 11be 9197 eabd 8ec3 92bd dc73 a73e
00000060: df0a 4b3e a9a6 2bbd 1b15 ddbd 12e7 18be
00000070: 4a1a 9ebe 740b f63d fc2a 24be fea3 81be
00000080: 6150 89bd d986 66bd 87e8 2ebe 5a43 803e
00000090: a6d9 6bbe bf09 a63c 400e c33d 612d dd3d
000000a0: 052a 203d c45f 5a3c 1570 203e 6077 d2be
000000b0: 87ba 393e e11a 083e 9330 843d 4a88 cebb
000000c0: 6687 79bd dc6f 44be 9181 1c3e d1c6 c8bc
000000d0: 722a 0f3e 5462 ed3d 39fc 96bd 8224 86bb
000000e0: f062 263e dd0e 083e 1d9f 33be 1275 513e
000000f0: f810 fcbd 1983 9d3d 0e1c 51be 4dd8 97be
00000100: 954b 3ebe 1137 b43d 00b6 a4bc b0f6 9c3e
00000110: 0246 b53d 1f87 663d 2da0 033e f1cf 83be
00000120: 36c3 f03d 47f1 b63e 226b cb3d 3be2 14bf
00000130: c371 72bd b747 b0be b4db f63d 34bc 583e
00000140: 985c 213d e2c2 83be 22ab c43d 2936 563d
00000150: 7558 99bd 479a 0c3e ce8d d83d 2266 cf3d
00000160: 9005 9abe bcf7 87be 7c92 db3e 2ebc 78be
00000170: 30b7 afbe 2544 7bbd d755 253e 0b81 2f3e
00000180: 03a4 8ebe 05d1 373c 49c4 af3b 6307 efbe
00000190: 85cb ce3c 38eb bd3d e509 2f3e d781 b9bd
000001a0: fd36 47be 8a61 b83e ddb5 3c3e 00ed 583e
000001b0: ccd6 ad3e 3de6 8b3e dbb7 d43d 12c0 31bd
000001c0: 19f4 c8bc 8d60 97bc 45e3 bdbd f8b9 f63d
000001d0: 1c0b a3bd 81d6 da3d 9690 863a 2ae8 2a3c
000001e0: 8ed3 a1bd f4ad b93e 81f0 dbbc 35bc dc3d
000001f0: 9b99 28be 8011 853e d6a9 9e3e 478b 263c
00000200: 37a0 063e 5683 8d3c 72b1 98bd 9d83 cf3d
00000210: 3dff ee3e 529f 2b3e b667 c8bd f42a c93d
00000220: 9521 143e ad9d 7d3e 7852 653e a34a e1bd
00000230: 31b1 40be 792e a83e 8cac 743e 4a0a 553e
00000240: 07e2 4abe 7d7b 05be d5d1 8bbd 5ed5 1fbe
00000250: 5556 4fbe d0bc b63d 5061 dabc 56ca 3a3e
00000260: 2434 6e3c af5d 9fbe 2a7b 9b3e 411e 613e
00000270: 225f 4ebd f486 7bbe 0b56 68be e3a0 9b3d
00000280: 1f0b 20be 39ed 33bd a51b 8f3e 1492 303d
00000290: 2c97 50be e2f1 2c3d d92d 08be 582b ce3d
000002a0: 4285 2dbe 37f5 ae3c 72ce 153d e4ec d23c
000002b0: eb31 d43e e728 a4be a436 23be 0810 58bd
000002c0: 3e9d 38be 12ed 4b3d e402 c7bb af8e 5cbd
000002d0: 1ab6 d8bd 0006 d83d d55f 9fbe cf37 1b3d
000002e0: ce01 88bd 788c 713e 770c 7fbd e529 cbbd
000002f0: e26b 143e 2518 9c3d 6ed4 01be b66e 5bbe
00000300: bb66 e03e 84a7 2cbe 1acb 0b3e 1535 193f
00000310: 5cfe c0bc db3c a7bc dc12 46bd ec0f 34bd
00000320: 252b 8f3e 09b0 df3d 746e c73d a79e c3bc
00000330: fee7 80bd 5863 a6bd 7bcc cbbe fffd c03e
00000340: ad70 95bc 02dd 483d 275c 353e f91e 10be
00000350: e087 3bbd d637 2d3e 8c23 c4bd a6fa 85bb
00000360: 83d5 bbbd c358 a2bc 9498 343d 8b79 983e
00000370: 7356 25be 6741 9abd 0420 0fbe c6ac 07be
00000380: 9eed 5b3e 7328 1cbd ebd5 123e ea2a 283c
00000390: 6200 a6bd 6383 843e 0c69 653e 98d3 ce3d
000003a0: 439a e0bd bc41 73bb f87e 1cbd aba7 083e
000003b0: 8e5b 3ebe ba96 003d 3916 cbbe 7a7b 29be
000003c0: 7f96 4a3d 75c5 133e 9637 3dbe cc04 303d
000003d0: ebc1 803e eea7 3ebd 80dd 483e dc19 c8bd
000003e0: 5abb d6bc 1ea6 97be f3f3 513e 70bf 853e
000003f0: 2c1d 17be 9f8c b3bd 266c b6bd c519 29be

bias f4 [12]
-0.00851893 0.0030709254 0.0063574463 0.0069643394 -0.0053617903 0.0004980754 -0.002265743 0.006833489
-0.003144127 -0.0077556036 -0.013865762 -0.005935372
00000000: fb92 0bbc 9441 493b 2052 d03b 1d35 e43b
00000010: f5b1 afbb 4691 023a dc7c 14bb 76eb df3b
00000020: b30d 4ebb b822 febb 392d 63bc 827d c2bb

weight f4 [12, 12, 3, 3]
0.06723176 -0.008442927 0.36751583 0.03694253 -0.21723795 -0.11810625 -0.054909464 0.08314553
-0.09153136 0.24723051 0.22867242 -0.2738606 0.0082446085 0.09271591 0.033833556 0.12317599
-0.14986615 0.22565563 -0.02421363 -0.2534212 -0.33506978 0.020243343 -0.47841913 0.24342757
-0.07757696 0.057422925 -0.47774565 -0.010007028 -0.10927731 0.43826923 0.08862823 0.08305311
-0.02098461 -0.36545014 -0.07209351 -0.019914702 0.0844605 -0.013785592 0.24114752 0.088278346
0.022403356 0.07344117 0.00049563183 0.18738066 0.14205216 -0.08794845 0.009198099 -0.20908925
0.3517594 -0.014335199 0.036383882 -0.1290161 -0.026544131 0.047802255 -0.30159974 -0.08099221
0.034684133 -0.013068692 -0.39502665 0.29066154 -0.1592777 0.48927733 -0.22538601 -0.0962229
-0.19652502 -0.2084585 -0.06778815 0.24845353 -0.040160455 0.17193761 0.033850014 -0.3381824
0.20323159 -0.45838946 0.075242445 0.124385394 0.23850591 -0.013870973 0.11958009 -0.116984874
0.16802458 -0.036665596 0.15234438 -0.35837337 0.45169926 -0.1493055 0.012653211 0.3808664
-0.07179403 -0.14678024 -0.036590308 0.06440011 0.111645624 -0.35063073 -0.06635452 0.22672273
0.20248167 0.027943159 -0.1590846 -0.29646793 0.25763425 0.12670942 0.32919016 0.17634496
-0.0080892695 -0.10612947 0.086415306 -0.3174085 -0.38843253 -0.20850971 0.034610104 -0.051515304
0.22435187 -0.21507517 0.24266833 -0.06517152 -0.014771684 -0.11577301 -0.18150245 0.13971515
-0.26163465 -0.092700064 -0.269434 0.17682442 0.012473576 -0.26447254 0.19352782 -0.032032166
0.11454643 0.01944038 0.23583035 0.38476893 -0.53754514 0.20517902 -0.12370963 -0.40423602
-0.21386209 0.09660208 -0.14554876 0.15042943 0.16602793 -0.00052690716 -0.08713974 0.42076695
-0.19395016 0.11665185 -0.09582475 -0.008786819 -0.12278652 0.19147484 0.3144218 -0.0021053618
0.15742384 -0.07000875 -0.22783123 0.049458258 0.040607676 -0.18728782 0.10589288 -0.0020698293
0.08451915 0.11212429 0.29085362 0.17253885 0.41792253 -0.030633144 -0.15113258 0.13559967
-0.07276767 -0.12967426 -0.005337751 0.17879997 0.111434415 -0.34573483 0.011223011 0.27846557
0.1122615 0.37138453 0.022965793 -0.21313573 -0.2845842 -0.16619724 -0.17936917 -0.18711445
0.3006874 -0.10780001 -0.04174415 0.1507652 -0.27535018 0.395549 -0.26947737 -0.21977694
0.3174996 -0.031444572 -0.1588578 0.12122495 0.48493183 -0.076229215 -0.060009766 0.0333629
0.17789577 -0.18157947 -0.006579198 0.11309565 0.15655261 -0.35344586 0.0034516398 0.03888736
0.23755522 -0.26541913 0.17330064 0.19813888 0.07638277 -0.19276863 -0.11814359 -0.09826349
0.21070938 0.18478283 -0.43711096 -0.13310929 -0.14021972 -0.17424875 0.15732183 -0.23410545
-0.16672482 -0.30157107 0.15656139 -0.32551673 0.588151 -0.1549743 -0.13511622 -0.013417127
-0.10093988 0.17110412 0.01637421 0.37741455 0.3706579 -0.35394868 0.21686439 -0.23363513
-0.27605575 0.37989175 -0.10933482 0.031381465 0.24500233 -0.15260045 -0.06134597 -0.09260236
-0.042663623 -0.15264487 -0.09164971 0.38495207 0.16164024 0.044464406 0.01581893 0.05096574
00000000: ceb0 893d 3454 0abc 092b bc3e 0d51 173d
00000010: a073 5ebe b1e1 f1bd bfe8 60bd 3448 aa3d
00000020: cb74 bbbd ff29 7d3e 1a29 6a3e 7537 8cbe
00000030: 6514 073c d7e1 bd3d 0e95 0a3d b243 fc3d
00000040: 8376 19be 4512 673e aa5b c6bc 6cc0 81be
00000050: 448e abbe 5ed5 a53c 5af3 f4be 1445 793e
00000060: abe0 9ebd 4d34 6b3d 149b f4be 84f4 23bc
00000070: c8cc dfbd d364 e03e b882 b53d c017 aa3d
00000080: ebe7 abbc 481c bbbe c3a5 93bd 2824 a3bc
00000090: a0f9 ac3d f7dc 61bc 60ef 763e 47cb b43d
000000a0: 3e87 b73c 5368 963d 4aed 013a b7e0 3f3e
000000b0: 1f76 113e 511e b4bd a0b3 163c 7e1b 56be
000000c0: cf19 b43e 2fde 6abc 4407 153d cc1c 04be
000000d0: 1473 d9bc 4ccc 433d 486b 9abe 3edf a5bd
000000e0: f310 0e3d 111e 56bc ef40 cabe 97d1 943e
000000f0: b219 23be 8f82 fa3e 97cb 66be 8310 c5bd
00000100: db3d 49be 2576 55be 83d4 8abd 9a6a 7e3e
00000110: 4a7f 24bd 6a10 303e 50a6 0a3d 3e26 adbe
00000120: f11b 503e 06b2 eabe b618 9a3d c5bd fe3d
00000130: e53a 743e 1443 63bc 68e6 f43d c495 efbd
00000140: a30e 2c3e aa2e 16bd 2a00 1c3e b77c b7be
00000150: 2045 e73e 8ae3 18be 6a4f 4f3c ec00 c33e
00000160: c008 93bd 8f4d 16be b8df 15bd 34e4 833d
00000170: 76a6 e43d df85 b3be e1e4 87bd 012a 683e
00000180: 5b57 4f3e 0de9 e43c 13e7 22be a5ca 97be
00000190: a3e8 833e 1dc0 013e 9d8b a83e c693 343e
000001a0: db88 04bc 685a d9bd 82fa b03d 5e83 a2be
000001b0: a1e0 c6be 9283 55be 53c3 0d3d b601 53bd
000001c0: 7fbc 653e aa3c 5cbe 0c7e 783e a578 85bd
000001d0: ef04 72bc 661a edbd c7db 39be 7d11 0f3e
000001e0: faf4 85be 88d9 bdbd 41f3 89be 7611 353e
000001f0: f85d 4c3c f268 87be 282c 463e 2934 03bd
00000200: 5297 ea3d 6f41 9f3c 837d 713e 6f00 c53e
00000210: 8f9c 09bf 731a 523e 795b fdbd 06f8 cebe
00000220: aafe 5abe 50d7 c53d bc0a 15be 2c0a 1a3e
00000230: 3a03 2a3e 2420 0aba 5276 b2bd c46e d73e
00000240: df9a 46be 2ae7 ee3d c43f c4bd 97f6 0fbc
00000250: 8077 fbbd fb11 443e e5fb a03e 1cfa 09bb
00000260: b733 213e bf60 8fbd 974c 69be be94 4a3d
00000270: 3c54 263d 61c8 3fbe 5ede d83d f9a5 07bb
00000280: 6018 ad3d 6ba1 e53d c4ea 943e 06ae 303e
00000290: f1f9 d53e 5cf2 fabc 80c2 1abe a4da 0a3e
000002a0: 3707 95bd 54c9 04be 4de8 aebb 5717 373e
000002b0: ba37 e43d 2804 b1be b8e0 373c 0a93 8e3e
000002c0: 5be9 e53d 1d26 be3e c222 bc3c 4140 5abe
000002d0: 05b5 91be 9c2f 2abe 8dac 37be ee9a 3fbe
000002e0: b3f3 993e 40c6 dcbd eafb 2abd 3162 1a3e
000002f0: b3fa 8cbe 6685 ca3e f0f8 89be 350d 61be
00000300: 4f8f a23e 06cc 00bd 9eab 22be c944 f83d
00000310: fc48 f83e 101e 9cbd cdcc 75bd 89a7 083d
00000320: 4f2a 363e f8ef 39be 5096 d7bb b19e e73d
00000330: 544f 203e dbf6 b4be e834 623b 5a48 1f3d
00000340: ad41 733e 04e5 87be b975 313e ebe4 4a3e
00000350: 926e 9c3d 2465 45be 44f5 f1bd 5e3e c9bd
00000360: 33c4 573e b637 3d3e 02cd dfbe cd4d 08be
00000370: c295 0fbe 446e 32be f918 213e 57b9 6fbe
00000380: e9b9 2abe 8667 9abe a151 203e 21aa a6be
00000390: 1091 163f 95b1 1ebe e85b 0abe 82d3 5bbc
000003a0: 91b9 cebd eb35 2f3e 3523 863c 7b3c c13e
000003b0: dfc6 bd3e c338 b5be b311 5e3e 0c3e 6fbe
000003c0: 2e57 8dbe 2c81 c23e efea dfbd da89 003d
000003d0: e4e1 7a3e 4b43 1cbe e945 7bbd 4ea6 bdbd
000003e0: 0dc0 2ebd f04e 1cbe d8b2 bbbd 7018 c53e
000003f0: 0585 253e 4f20 363d b396 813c 74c1 503d

bias f4 [12]
0.009407661 0.009381193 0.031831164 0.034796692 -0.007928969 -0.0038795033 -0.008463683 -0.0032832108
-0.0068090665 -0.0061631794 -0.016462943 0.0024002972
00000000: 9722 1a3c 93b3 193c 6561 023d fa86 0e3d
00000010: 82e8 01bc 443f 7ebb 42ab 0abc 232b 57bb
00000020: 971e dfbb 7ff4 c9bb 4bdd 86bc 4e4e 1d3b

weight f4 [12, 12, 3, 3]
0.024496797 -0.08558245 0.018838096 -0.057028536 0.025754228 0.21999085 0.022470653 0.0821443
0.10850034 -0.0549309 0.39927232 -0.07196125 -0.45607454 0.38497648 0.11215831 0.5335865
0.07231147 0.23481609 0.14018789 -0.07984121 0.33844328 0.25551227 0.15857857 -0.0070600556
0.02371798 0.09915065 -0.07821702 0.07634265 -0.16479026 -0.37951016 0.1771723 0.029461674
0.10979189 0.34113064 0.014300464 -0.1861406 -0.27121684 0.056472138 0.1592331 0.014361898
0.11621769 -0.03957204 0.084232375 -0.20552348 -0.08383348 -0.07175424 -0.17237294 -0.1208053
-0.17447175 0.021721734 0.064168535 0.15087804 -0.18215641 -0.64508003 0.3580859 0.08129544
-0.035653796 0.001316578 -0.105756216 0.3178977 -0.13212676 -0.19474661 -0.1395959 0.2869648
-0.3062333 -0.019570427 0.30457193 0.13527669 -0.27787283 0.046653055 0.23847337 0.3938226
0.33676264 0.16868362 -0.039062854 0.12763506 0.38047734 -0.2989584 -0.053731695 -0.16063495
-0.07314615 0.03804842 0.24746598 -0.17427392 -0.04957821 -0.036581594 -0.2986542 0.06179496
-0.11870744 0.29857427 -0.18249284 -0.03925374 -0.25386065 0.10944325 0.24143595 -0.40650296
-0.1305642 -0.07491092 0.42549086 0.019390177 -0.37647232 0.21481813 -0.042792227 0.34811834
0.15350616 0.046642896 0.01823065 -0.12548368 0.058526013 -0.13025896 0.2336666 0.050251998
0.08968572 -0.1499038 0.33174774 0.33299533 0.2646408 0.26353878 0.0031078358 0.00366499
-0.37991124 -0.007959678 0.020055624 0.064229876 0.16058214 -0.16688626 0.0907656 -0.09599096
0.21076049 0.011566024 0.12912036 0.09410114 -0.1999733 0.07761652 0.410643 0.3250704
-0.081719466 0.21598917 -0.10339645 0.0128837265 0.3399726 0.42359075 -0.3408144 0.14742215
-0.033109132 0.2500922 -0.3567709 0.12538087 0.21906343 0.43552613 -0.077905245 -0.012602783
-0.05993973 -0.011828812 -0.17097099 0.17417587 -0.073302604 -0.169352 -0.17025289 0.059355628
0.22347102 0.25785077 -0.104874805 -0.051615473 0.2910478 0.047939304 -0.022177178 -0.14166236
0.087751836 0.34781346 -0.0017294127 -0.27259174 0.26059976 -0.19593439 0.06037711 0.4053587
-0.20072049 -0.23467512 0.29314607 0.02399551 -0.31407356 -0.1672588 -0.056647267 0.4567135
0.19688468 -0.12251966 -0.04152051 0.07352841 0.04077501 0.04280717 0.09961672 -0.10897874
0.018839305 0.033532083 -0.07936027 0.049073596 -0.16431214 0.19140658 0.17376144 0.09159439
0.3185258 0.117575355 -0.35101324 -0.16711192 0.365894 -0.52159315 0.13758367 -0.58282274
0.06600046 -0.010255702 0.1789228 -0.097596884 -0.14769724 0.2772087 0.26587048 0.24633856
0.45477894 -0.12803361 -0.20591867 0.040449288 -0.2734914 0.28387126 0.5115143 0.084530994
-0.40131012 0.43053874 -0.21903186 -0.090497576 0.37236768 0.045444664 0.32927638 0.008908229
-0.06380465 0.011130504 0.20561348 0.1274311 -0.11762655 -0.08843575 0.10638953 0.098137155
-0.10633481 -0.118887365 -0.1713763 -0.3038342 -0.055727176 -0.048027437 0.221729 -0.103937864
0.18213302 0.21354888 0.42361373 0.19765763 -0.26529267 -0.062325936 -0.05478605 0.33129826
00000000: 82ad c83c da45 afbd 5a52 9a3c c196 69bd
00000010: 88fa d23c 4845 613e 6014 b83c 453b a83d
00000020: 6d35 de3d 39ff 60bd 6c6d cc3e 6b60 93bd
00000030: 9a82 e9be a31b c53e 42b3 e53d 2099 083f
00000040: 0918 943d a173 703e 6a8d 0f3e ca83 a3bd
00000050: 7048 ad3e 81d2 823e 6c62 223e 0a58 e7bb
00000060: 364c c23c 7f0f cb3d 3f30 a0bd 8959 9c3d
00000070: c7be 28be 284f c2be a86c 353e 9c59 f13c
00000080: 92da e03d ada8 ae3e 7e4c 6a3c a49b 3ebe
00000090: efdc 8abe 544f 673d 000e 233e 2b4e 6b3c
000000a0: 8a03 ee3d 4b16 22bd 0682 ac3d bf74 52be
000000b0: e3b0 abbd e3f3 92bd 8882 30be c568 f7bd
000000c0: b9a8 32be c7f1 b13c cb6a 833d c67f 1a3e
000000d0: 3687 3abe f723 25bf 0957 b73e 397e a63d
000000e0: b709 12bd 0791 ac3a b796 d8bd 7dc3 a23e
000000f0: 3d4c 07be a86b 47be 3af2 0ebe 0ded 923e
00000100: 9cca 9cbe 2952 a0bc daf0 9b3e f985 0a3e
00000110: 5945 8ebe 4617 3f3d 5d32 743e 1ea3 c93e
00000120: 276c ac3e 66bb 2c3e 5f00 20bd c4b2 023e
00000130: edcd c23e 1311 99be c415 5cbd 7d7d 24be
00000140: a6cd 95bd a9d8 1b3d b967 7d3e dd74 32be
00000150: 8512 4bbd 95d6 15bd 34e9 98be b61c 7d3d
00000160: e31c f3bd bade 983e 67df 3abe 88c8 20bd
00000170: 06fa 81be c823 e03d fc3a 773e 2821 d0be
00000180: 9fb2 05be e56a 99bd f0d9 d93e 26d8 9e3c
00000190: fbc0 c0be 49f9 5b3e e746 2fbd 913c b23e
000001a0: b830 1d3e 9f0c 3f3d 7258 953c cb7e 00be
000001b0: f9b8 6f3d 9b62 05be 4c46 6f3e 0ad5 4d3d
000001c0: 26ad b73d 6280 19be d7da a93e 5d7e aa3e
000001d0: 007f 873e 8eee 863e d5ac 4b3b 5430 703b
000001e0: ba83 c2be 4f69 02bc b14b a43c f48a 833d
000001f0: a56f 243e 3be4 2abe 51e3 b93d e996 c4bd
00000200: 99d1 573e 6c7f 3d3c 2138 043e 19b8 c03d
00000210: cdc5 4cbe 69f5 9e3d cd3f d23e a16f a63e
00000220: 895c a7bd 442c 5d3e 85c1 d3bd 4416 533c
00000230: e310 ae3e e3e0 d83e 3a7f aebe d5f5 163e
00000240: 719d 07bd 160c 803e adaa b6be d863 003e
00000250: 2a52 603e 48fd de3e c98c 9fbd e77b 4ebc
00000260: 5d83 75bd a2cd 41bc 0513 2fbe 295b 323e
00000270: ad1f 96bd 9c6a 2dbe c656 2ebe e31e 733d
00000280: 96d5 643e 0405 843e 9ac8 d6bd bf6a 53bd
00000290: 3804 953e 015c 443d eaac b5bc f00f 11be
000002a0: 3cb7 b33d 9b14 b23e 76ad e2ba 2591 8bbe
000002b0: 556d 853e 06a3 48be fd4d 773d 2d8b cf3e
000002c0: ac89 4dbe ad4e 70be 3e17 963e 3b92 c43c
000002d0: 40ce a0be e445 2bbe f706 68bd 5ad6 e93e
000002e0: 239c 493e 96eb fabd 6911 2abd 1096 963d
000002f0: b203 273d 9256 2f3d da03 cc3d 3f30 dfbd
00000300: e354 9a3c f058 093d a387 a2bd 6501 493d
00000310: 7141 28be 1600 443e 85ee 313e d795 bb3d
00000320: d015 a33e 59cb f03d 02b8 b3be 631f 2bbe
00000330: 7556 bb3e 2187 05bf bce2 0c3e df33 15bf
00000340: 402b 873d 8807 28bc 8a37 373e e0e0 c7bd
00000350: f23d 17be 4cee 8d3e 2d20 883e 2d40 7c3e
00000360: c9d8 e83e 3e1b 03be 58dc 52be 27ae 253d
00000370: 1107 8cbe 9357 913e 9af2 023f 961e ad3d
00000380: 8578 cdbe 936f dc3e e349 60be cb56 b9bd
00000390: faa6 be3e 2f24 3a3d ea96 a83e d2f3 113c
000003a0: 03ac 82bd b85c 363c 578c 523e 4c7d 023e
000003b0: 30e6 f0bd cd1d b5bd c1e2 d93d 22fc c83d
000003c0: 11c6 d9bd 387b f3bd 457d 2fbe 2890 9bbe
000003d0: 2e42 64bd 6bb8 44bd ed0c 633e 60dd d4bd
000003e0: 1481 3a3e 8fac 5a3e e6e3 d83e c366 4a3e
000003f0: 71d4 87be 7b49 7fbd 5667 60bd ed9f a93e

bias f4 [12]
0.025274433 0.0209125 0.011002157 -0.000923147 0.015607929 0.0117220655 -0.00933435 -0.009146087
-0.011010012 -0.0058332644 0.0039471122 0.0062826346
00000000: 540c cf3c b150 ab3c 6442 343c 59ff 71ba
00000010: 66b8 7f3c e80d 403c 1aef 18bc 78d9 15bc
00000020: 5663 34bc f824 bfbb c756 813b 8fde cd3b

weight f4 [12, 12, 3, 3]
0.11430204 -0.22471707 -0.2010924 0.29215217 0.012311206 0.115082376 -0.15591812 -0.08831024
-0.08807406 -0.12733616 0.49854612 0.0019989274 -0.010409431 -0.017921593 -0.27396178 -0.13997048
0.0030425675 0.20159303 -0.0073449793 0.1196113 0.15790969 -0.20082057 -0.12276062 -0.3420926
0.098850854 -0.08257423 -0.004928245 0.12175227 -0.09698546 -0.018047541 -0.00854774 -0.14235088
-0.12235288 0.21275824 -0.3022257 -0.115761 -0.15505928 0.03609681 -0.23800468 0.10540953
-0.083671674 -0.15729234 0.23264788 -0.26382872 -0.111302085 0.17820953 0.28320545 -0.15652843
-0.027554918 0.086320624 -0.004128666 0.011971841 -0.08900316 -0.3194589 -0.2631078 -0.041592307
0.15980376 -0.21338749 0.22870576 -0.09603703 -0.10976291 -0.095001675 0.19770832 0.2994154
0.19923066 -0.17142472 -0.27349204 -0.13988186 -0.15050723 -0.15584671 -0.19420798 -0.06471526
-0.28585935 -0.0029940503 0.10901322 0.18734762 0.25827685 -0.21374759 -0.123050086 -0.08481371
0.2984432 0.0700045 0.16994418 -0.1796823 0.43616512 0.013498379 -0.09426075 0.01820973
0.078620106 0.15463644 -0.19024578 -0.08823136 0.11417087 -0.20930704 0.08436821 -0.1349502
-0.12406634 -0.090620816 -0.043152906 -0.12837473 0.2709282 0.09710589 -0.46009338 0.078323394
0.27849922 -0.02731925 -0.21191512 0.006156081 -0.1511717 -0.47217584 0.03811502 0.051059663
-0.052923173 0.18371704 0.117381565 -0.20878172 -0.0036843445 -0.17609362 -0.17852552 0.04550932
0.036825113 0.10709391 -0.08136845 -0.2022647 0.23650154 0.10674594 -0.0709751 0.0027698926
0.03616766 0.12167659 -0.2891539 0.06582691 -0.052117623 0.29429853 -0.083094284 -0.078284524
0.010338781 0.13697337 -0.17617998 0.11191249 -0.06858222 0.13068698 -0.11248861 -0.17029531
0.069663174 -0.10170804 -0.11057251 -0.0586576 -0.24227722 -0.18660676 0.11564445 -0.117235444
0.18465737 0.041386515 0.08300527 -0.2534539 -0.11222451 -0.16386554 0.062649995 -0.17162538
-0.15665387 0.053228576 0.3053264 -0.08007086 -0.09497369 -0.15759471 0.12271309 0.2099326
0.024324253 0.03355828 -0.09861981 -0.3906245 -0.18047322 -0.23230366 0.07933244 -0.1462571
-0.25963506 -0.11518111 0.03983833 0.009663567 -0.042211976 -0.046396162 0.084296644 0.27904388
0.2771059 0.19180122 0.12106563 -0.041612543 0.06924096 0.00801503 0.060982797 0.26521295
-0.24946597 0.110815376 0.0930397 -0.14293882 -0.2316634 -0.36644277 -0.080275506 -0.042850435
0.0769043 0.4479193 0.06846053 0.14006211 -0.30552205 0.41803792 -0.0011730664 0.13153644
0.1170168 -0.14499804 0.2835851 0.10837177 -0.23412298 -0.05997141 0.006861624 0.012996166
0.10898896 -0.020619113 -0.030629529 -0.4385954 -0.029035524 -0.2786967 -0.18054602 -0.22123076
0.084724486 0.17081842 -0.058649763 0.2562474 0.47939038 0.024159793 -0.11246224 0.10462516
-0.107099384 0.21421014 -0.21245678 -0.13042736 0.05185566 -0.24320601 0.07661092 -0.048767045
-0.0032933704 0.099001065 -0.037902992 -0.18159166 0.05597135 -0.12388791 -0.2525501 -0.03930153
-0.13050988 -0.19151376 0.021982303 -0.2712008 -0.13858637 0.16864789 0.09340184 0.03897855
00000000: 3017 ea3d 3b1c 66be 2beb 4dbe f894 953e
00000010: f1b4 493c 4fb0 eb3d 00a9 1fbe 00dc b4bd
00000020: 2c60 b4bd 6964 02be 7041 ff3e 7000 033b
00000030: 518c 2abc 4ed0 92bc b844 8cbe 6c54 0fbe
00000040: d065 473b 676e 4e3e 27ae f0bb c5f6 f43d
00000050: 14b3 213e e8a3 4dbe ec69 fbbd c326 afbe
00000060: 5172 ca3d ae1c a9bd 1e7d a1bb 4159 f93d
00000070: 50a0 c6bd 70d8 93bc d20b 0cbc 6ec4 11be
00000080: 2694 fabd 4cdd 593e 54bd 9abe 1a14 edbd
00000090: dcc7 1ebe 40da 133d 80b7 73be f4e0 d73d
000000a0: 0e5c abbd 3e11 21be 3f3b 6e3e 8f14 87be
000000b0: 59f2 e3bd 8f7c 363e 4e00 913e fd48 20be
000000c0: daba e1bc dec8 b03d c349 87bb 8a25 443c
000000d0: 4a47 b6bd 1e90 a3be 11b6 86be b25c 2abd
000000e0: 99a3 233e 4082 5abe d831 6a3e 10af c4bd
000000f0: 60cb e0bd 3d90 c2bd 0d74 4a3e fa4c 993e
00000100: 1f03 4c3e f689 2fbe 2607 8cbe 313d 0fbe
00000110: 911e 1abe 4896 1fbe 75de 46be 6f89 84bd
00000120: 285c 92be d437 44bb 5342 df3d 0ed8 3f3e
00000130: dd3c 843e a6e0 5abe af01 fcbd cfb2 adbd
00000140: 8ccd 983e 855e 8f3d d905 2e3e a3fe 37be
00000150: 0951 df3e 4e28 5d3c c80b c1bd 922c 953c
00000160: 9403 a13d 0459 1e3e cacf 42be a5b2 b4bd
00000170: 6bd2 e93d 9654 56be 3dc9 ac3d 6330 0abe
00000180: 7e16 febd 6897 b9bd 1ac1 30bd aa74 03be
00000190: 1ab7 8a3e 74df c63d 5c91 ebbe 0468 a03d
000001a0: 7397 8e3e 9fcc dfbc 4700 59be f3b8 c93b
000001b0: c1cc 1abe 08c1 f1be 7f1e 1c3d f023 513d
000001c0: f8c5 58bd 5220 3c3e bf65 f03d e0ca 55be
000001d0: 0b75 71bb e351 34be 65cf 36be fb67 3a3d
000001e0: eed5 163d 0d54 db3d 80a4 a6bd 7a1e 4fbe
000001f0: 762d 723e 9e9d da3d 655b 91bd 1687 353b
00000200: 8a24 143d 9331 f93d fb0b 94be 42d0 863d
00000210: 4a79 55bd 4cae 963e 562d aabd a353 a0bd
00000220: fe63 293c bf42 0c3e 8668 34be 6032 e53d
00000230: d674 8cbd cfd2 053e 6e60 e6bd e561 2ebe
00000240: 91ab 8e3d 4e4c d0bd d773 e2bd f442 70bd
00000250: 8517 78be d815 3fbe ffd6 ec3d 2319 f0bd
00000260: d216 3d3e e884 293d abfe a93d b6c4 81be
00000270: f7d5 e5bd 5ecc 27be a44e 803d 90be 2fbe
00000280: df69 20be 3506 5a3d be53 9c3e 31fc a3bd
00000290: 9181 c2bd 8260 21be 0051 fb3d 92f8 563e
000002a0: a843 c73c 6874 093d 2ff9 c9bd efff c7be
000002b0: f9cd 38be 03e1 6dbe 0c79 a23d 6cc4 15be
000002c0: e3ee 84be 13e4 ebbd 842d 233d f053 1e3c
000002d0: 77e6 2cbd e709 3ebd b8a3 ac3d d7de 8e3e
000002e0: d3e0 8d3e 8a67 443e 42f1 f73d ea71 2abd
000002f0: 34ce 8d3d 7951 033c 19c9 793d fec9 873e
00000300: 0274 7fbe 2cf3 e23d 998b be3d 8e5e 12be
00000310: 2c39 6dbe 639e bbbe 7c67 a4bd f083 2fbd
00000320: 0080 9d3d ae55 e53e 0935 8c3d 716c 0f3e
00000330: 636d 9cbe 1109 d63e 94c1 99ba 7db1 063e
00000340: 81a6 ef3d 5e7a 14be 1132 913e 05f2 dd3d
00000350: efbd 6fbe 95a4 75bd 79d7 e03b dfed 543c
00000360: 9b35 df3d 6ae9 a8bc c7ea fabc 948f e0be
00000370: e8db edbc 55b1 8ebe 0ee1 38be 518a 62be
00000380: 0884 ad3d 06eb 2e3e bc3a 70bd dc32 833e
00000390: a872 f53e c2ea c53c 9a52 e6bd b745 d63d
000003a0: ec56 dbbd e759 5b3e 458e 59be c08e 05be
000003b0: 9a66 543d ff0a 79be 30e6 9c3d f4bf 47bd
000003c0: 96d5 57bb 12c1 ca3d 2b40 1bbd 2af3 39be
000003d0: 3742 653d f2b8 fdbd 3f4e 81be a4fa 20bd
000003e0: 62a4 05be 2f1c 44be 3b14 b43c d5da 8abe
000003f0: 96e9 0dbe 08b2 2c3e 7749 bf3d f9a7 1f3d

bias f4 [12]
-0.0057933754 -0.007781121 0.00094643707 0.056023587 -0.00963024 -0.028059127 -0.0074773557 -0.008611242
-0.0074751247 -0.0011533243 -0.055331018 -0.025116736
00000000: 5bd6 bdbb c6f8 febb 511a 783a fd78 653d
00000010: 27c8 1dbc 41dc e5bc 9b04 f5bb 2b16 0dbc
00000020: e4f1 f4bb 242b 97ba c7a2 62bd 9dc1 cdbc

weight f4 [64, 12, 1, 1]
0.22654794 0.0011589376 0.17635483 0.111366145 0.20398143 0.3157964 0.32158777 -0.13211636
0.15341185 0.0040048845 -0.12677042 -0.01826808 0.10572212 0.1385678 0.10486821 -0.15378475
-0.35115385 0.120085046 -0.26913202 0.27589098 -0.19951643 0.016436461 0.13093105 0.10053098
-0.1438564 -0.31976834 0.09075202 -0.14583549 0.03252493 -0.05748188 0.2365366 0.2012712
0.24140665 0.020818913 0.21184479 -0.104120344 -0.28672317 0.077917814 0.0014573593 -0.0066548553
-0.19295755 -0.33775714 -0.26273397 -0.032427955 0.13916469 0.35259488 -0.10781872 -0.018141543
-0.18315244 0.13931678 0.06895709 -0.08825317 -0.035449576 0.15270148 0.05412623 0.17634183
0.09068073 0.10708245 0.29671767 -0.11540564 -0.0133714 -0.1542532 -0.16034216 0.23115152
-0.072324604 0.19315656 -0.40734023 0.026135225 0.12943164 -0.011244203 -0.5701872 -0.0132657075
0.17083476 0.04519494 -0.28211746 -0.26415613 -0.3810783 0.07012657 0.15955324 -0.1445882
-0.09888444 0.16237241 -0.09632341 0.39098197 0.19257247 -0.34343234 0.01436581 -0.21254358
0.07264467 -0.17006497 -0.1786038 0.17141022 -0.42172173 0.19392537 0.23552676 0.40266383
0.09501466 0.3753198 0.27620417 -0.23135641 0.2766775 -0.0034235336 -0.32769385 0.107742086
-0.6099012 0.34476328 -0.3647166 0.39731678 0.006436774 -0.19059967 0.24570172 -0.48929766
0.17882939 -0.042626742 0.44368565 -0.047261216 0.028902134 0.16520582 -0.0710937 0.09852397
-0.19796103 0.350621 -0.042521205 -0.055424497 -0.04555235 0.20548396 -0.31166068 0.058989376
0.3178703 -0.26618922 -0.24302298 -0.075250804 0.14198254 -0.035821088 0.21199103 -0.071059905
-0.24068366 -0.19972673 0.036324505 0.12771802 -0.134604 0.00037697615 0.076417096 0.04143122
-0.0069650784 -0.09942812 -0.14729288 -0.47311604 -0.17254075 0.19332555 0.038630493 0.063197225
0.50989026 0.1392947 0.19909838 -0.06975287 -0.12455204 -0.07203818 0.063590474 -0.28644818
0.11668115 -0.33953694 0.15561502 0.1741163 0.094304845 -0.01142396 -0.04984728 0.026883667
0.2421613 -0.058410168 0.07222294 0.0760298 0.30695444 0.21281709 0.36492082 -0.28034824
-0.15828066 0.08750771 -0.23104984 -0.33050758 -0.30503628 0.087665334 0.22801839 0.013150848
0.18679477 -0.17142405 0.04928919 0.037158147 -0.21957116 0.30840832 0.1283857 -0.046912268
0.09090026 -0.39170447 0.019574068 -0.016322222 -0.026704302 -0.13009556 -0.03222395 -0.10928519
0.13197252 0.013569124 0.08108372 0.18062061 -0.015570834 -0.2354029 -0.2138047 0.11483651
-0.34374082 -0.073031254 0.25486353 -0.06955481 -0.1297497 0.04215053 0.44539097 0.09938438
-0.1887612 -0.08611789 -0.17966153 -0.12477086 0.12120259 0.12232349 -0.07029568 -0.08451038
0.014271852 -0.072843164 0.25195047 0.33333385 0.3074061 -0.08233999 0.0133635085 0.11698265
-0.3567936 0.111553065 -0.07852175 -0.053027354 -0.09601429 -0.4820582 0.23622464 -0.10207763
0.048287913 -0.2521695 0.17074993 -0.06327943 -0.16387382 0.06498064 0.18769257 -0.13834094
-0.15988247 0.21909934 -0.06548722 -0.0684377 -0.048859317 -0.38917318 0.19717997 -0.079907835
00000000: 2ffc 673e 7ee7 973a 5c96 343e ef13 e43d
00000010: 82e0 503e 11b0 a13e 27a7 a43e 8349 07be
00000020: ff17 1d3e 683b 833b 1bd0 01be f1a6 95bc
00000030: d784 d83d b8e4 0d3e 25c5 d63d c079 1dbe
00000040: 70ca b3be 26ef f53d accb 89be 9541 8d3e
00000050: 094e 4cbe c2a5 863c ca12 063e 30e3 cd3d
00000060: 184f 13be adb8 a3be 32dc b93d e655 15be
00000070: dc38 053d 1f72 6bbd a736 723e 0a1a 4e3e
00000080: 4e33 773e 6d8c aa3c d7ed 583e 0c3d d5bd
00000090: 61cd 92be 6093 9f3d dd04 bf3a f910 dabb
000000a0: aa96 45be 81ee acbe 1185 86be 2dd3 04bd
000000b0: 3081 0e3e 5187 b43e 10d0 dcbd 939d 94bc
000000c0: 508c 3bbe 0fa9 0e3e 6039 8d3d 14be b4bd
000000d0: 9333 11bd c75d 1c3e 77b3 5d3d f492 343e
000000e0: d2b6 b93d 0b4e db3d 61eb 973e cb59 ecbd
000000f0: b713 5bbc 8df4 1dbe bc30 24be fcb2 6c3e
00000100: ec1e 94bd d5ca 453e e68e d0be 8a19 d63c
00000110: ba89 043e 9b39 38bc caf7 11bf 6958 59bc
00000120: 4fef 2e3e 541e 393d b371 90be 793f 87be
00000130: b21c c3be 859e 8f3d ed61 233e ee0e 14be
00000140: ed83 cabd f444 263e 3545 c5bd ca2e c83e
00000150: b831 453e 5dd6 afbe 935e 6b3c 06a5 59be
00000160: bbc6 943d 8325 2ebe eae3 36be 2986 2f3e
00000170: e9eb d7be 5f94 463e ed2d 713e f429 ce3e
00000180: 0c97 c23d eb29 c03e a26a 8d3e b2e8 6cbe
00000190: aca8 8d3e 5d5d 60bb 7dc7 a7be e2a7 dc3d
000001a0: 7c22 1cbf d084 b03e 22bc babe 1b6d cb3e
000001b0: 93eb d23b 8f2c 43be 3b99 7b3e 3985 fabe
000001c0: 0d1f 373e 6199 2ebd c42a e33e fa94 41bd
000001d0: 2bc4 ec3c b72b 293e 9399 91bd efc6 c93d
000001e0: 4cb6 4abe 9984 b33e b72a 2ebd cc04 63bd
000001f0: 1a95 3abd 636a 523e fd91 9fbe d89e 713d
00000200: e5bf a23e f449 88be 04db 78be 181d 9abd
00000210: df63 113e 22b9 12bd 2d14 593e db87 91bd
00000220: c775 76be 2a85 4cbe 01c9 143d 83c8 023e
00000230: a2d5 09be e2a4 c539 9180 9c3d c8b3 293d
00000240: 503b e4bb f8a0 cbbd f2d3 16be 443c f2be
00000250: 86ae 30be 22f7 453e 023b 1e3d 8c6d 813d
00000260: 2b88 023f 45a3 0e3e 72e0 4b3e 98da 8ebd
00000270: 2415 ffbd c188 93bd b93b 823d 56a9 92be
00000280: 87f6 ee3d c9d7 adbe 8b59 1f3e 8b4b 323e
00000290: e622 c13d 902b 3bbc a92c 4cbd 233b dc3c
000002a0: 22f9 773e 803f 6fbd 9fe9 933d 83b5 9b3d
000002b0: 2229 9d3e b9ec 593e e7d6 ba3e ce89 8fbe
000002c0: 5314 22be 3e37 b33d 5498 6cbe 4a38 a9be
000002d0: b72d 9cbe e289 b33d a77d 693e a876 573c
000002e0: 2147 3f3e c989 2fbe 76e3 493d 2433 183d
000002f0: 43d7 60be b2e7 9d3e 8a77 033e 1427 40bd
00000300: ea29 ba3d 7d8d c8be cc59 a03c 2eb6 85bc
00000310: fbc2 dabc c537 05be 43fd 03bd ead0 dfbd
00000320: ce23 073e 0851 5e3c 390f a63d 9cf4 383e
00000330: d01c 7fbc 750d 71be 9fef 5abe 672f eb3d
00000340: ccfe afbe 6991 95bd 797d 823e c172 8ebd
00000350: 1bdd 04be 09a6 2c3d 490a e43e 0a8a cb3d
00000360: 9e4a 41be 945e b0bd 31f9 37be dd87 ffbd
00000370: 1039 f83d bd84 fa3d 2ef7 8fbd c713 adbd
00000380: 7cd4 693c cc2e 95bd a7ff 803e bcaa aa3e
00000390: 5564 9d3e dea1 a8bd 9ef2 5a3c 9994 ef3d
000003a0: a7ad b6be ef75 e43d 03d0 a0bd 3633 59bd
000003b0: 24a3 c4bd 55d0 f6be dfe4 713e 140e d1bd
000003c0: 8cc9 453d 5c1c 81be 12d9 2e3e a598 81bd
000003d0: 8ace 27be 9214 853d 7b32 403e 3fa9 0dbe
000003e0: 3bb8 23be 945b 603e 2a1e 86bd 1129 8cbd
000003f0: b520 48bd b541 c7be 8ce9 493e b8a6 a3bd

bias f4 [64]
0.015391921 0.0032136699 0.0006219569 0.0061869635 0.021152588 0.018973025 -0.023036992 0.0015629268
0.00019530179 0.013972854 0.0033650748 -0.032323766 -0.0062381304 0.015126783 -0.02129014 0.040028144
0.043556653 -0.05781148 0.016392075 -0.020870313 0.0065899007 0.004130039 -0.015582637 -0.0056581483
0.02414822 0.0047996794 -0.01744003 -0.028401801 0.012000045 0.02685126 0.06803146 -0.06270515
0.003848477 -0.0059213643 0.0083203325 0.07959735 0.007192301 -0.004499469 -0.017651085 -0.010741835
-0.0055659916 0.017446075 -0.0012034734 0.00894469 0.03810025 -0.005114075 0.021331428 0.04500862
0.02961812 0.104562774 0.016581843 -0.013354329 -0.0067960727 -0.020289244 0.0073527624 0.0036642181
-0.026920058 0.014110419 -0.008079442 0.0074133486 -0.015414311 -0.013416486 -0.019371608 0.012900927
00000000: 652e 7c3c 6f9c 523b d20a 233a 03bc ca3b
00000010: 3148 ad3c 516d 9b3c 13b8 bcbc 1fdb cc3a
00000020: edc9 4c39 66ee 643c 9688 5c3b ed65 04bd
00000030: 3b69 ccbb 54d6 773c a968 aebc 8df4 233d
00000040: 7668 323d bbcb 6cbd ac48 863c 38f8 aabc
00000050: 18f0 d73b 4755 873b 514e 7fbc fd67 b9bb
00000060: 7dd2 c53c a146 9d3b 65de 8ebc e5aa e8bc
00000070: d69b 443c 2cf7 db3c 1454 8b3d 8f6b 80bd
00000080: bb36 7c3b 0108 c2bb 0152 083c ef03 a33d
00000090: 65ad eb3b 4870 93bb 0299 90bc 86fe 2fbc
000000a0: ec62 b6bb 12eb 8e3c debd 9dba c08c 123c
000000b0: 020f 1c3d f893 a7bb 3fbf ae3c f55a 383d
000000c0: b3a1 f23c 0225 d63d a5d6 873c 1ecc 5abc
000000d0: 97b1 debb a135 a6bc 71ef f03b 6123 703b
000000e0: 7487 dcbc 632f 673c a35f 04bc adeb f23b
000000f0: 4e8c 7cbc d2d0 5bbc 35b1 9ebc 695e 533c
