model/epoch_199.pt (torch, 65657 bytes, 15 tensors)

weight f4 [64, 1, 5, 5]
0	0x3e2d63e1	0.16932632
1	0xbc728ca4	-0.014804039
2	0xbc1bfe08	-0.009521015
3	0x3d81267a	0.06306167
4	0xbe77035d	-0.24122377
5	0x3d57019d	0.052491773
6	0x3e61753a	0.22017375
7	0xbddd00c6	-0.10791163
8	0xbdbd6ff0	-0.09249866
9	0x3ed44909	0.4146197
10	0xbdeb96c8	-0.115033686
11	0x3db43f21	0.088011034
12	0x3d7335bf	0.05937743
13	0x3e2734e4	0.1632877
14	0xbe6a26e6	-0.22866401
15	0x3e996a63	0.2996398
16	0x3def42f7	0.116826944
17	0xbe072992	-0.13199452
18	0xbe41e4c9	-0.18934931
19	0xbd24fe4a	-0.04028157
20	0x3e75c8be	0.24002358
21	0x3deebd0b	0.11657151
22	0xbcb813c5	-0.022470364
23	0x3eaa4bd8	0.3326099
24	0xbec2c129	-0.38037995
25	0xbe25a813	-0.16177396
26	0x3d2efd47	0.042722013
27	0xbd996223	-0.07489421
28	0x3ca087e6	0.019596051
29	0x3e36909d	0.17828603
30	0x3e11151f	0.14168213
31	0xbdc455f5	-0.095867075
32	0xbe17f2f2	-0.1483877
33	0x3e32aab8	0.17447937
34	0xbea6b675	-0.3256108
35	0xbcb78f88	-0.022407308
36	0x3e008a4b	0.12552755
37	0xbdd1d310	-0.10245335
38	0x3db29743	0.08720257
39	0x3db47acf	0.088124864
40	0xbd59e69e	-0.05319845
41	0x3e3ba6a7	0.18325292
42	0x3db0df79	0.08636374
43	0x3ce26e86	0.027640592
44	0x3dfa1b72	0.12212266
45	0x3c97029a	0.018433858
46	0xbe21632e	-0.1576049
47	0x3d472712	0.048621245
48	0xbe668889	-0.22513022
49	0x3e7c4f43	0.24639611
50	0xbde0ae35	-0.10970727
51	0x3d7a236c	0.061068937
52	0x3df78c23	0.12087276
53	0xbd46097b	-0.048348885
54	0x3e194f4d	0.14971657
55	0x3c12e6e7	0.008966184
56	0x3e4488aa	0.19192758
57	0xbe8938b0	-0.26801062
58	0xbea1a6c3	-0.31572542
59	0x3e9662fc	0.29372394
60	0x3dcca3ab	0.09992155
61	0x3e3df5f4	0.18550855
62	0xbe40f5b7	-0.18843733
63	0xbed835cd	-0.42228547
64	0x3e256420	0.16151476
65	0x3b3de60c	0.002897623
66	0xbd2a303d	-0.04154991
67	0xbcc3d8be	-0.023907062
68	0x3e9946f4	0.29936945
69	0xbe88b7d1	-0.2670274
70	0x3dd1312f	0.10214459
71	0xbe2962ac	-0.16541547
72	0x3be9b99e	0.007132723
73	0xbd2c2fa4	-0.04203762
74	0xbe051a00	-0.129982
75	0x3e7d2bb4	0.24723703
76	0xbd37d1a4	-0.044877663
77	0x3daa2326	0.08307485
78	0xbe9cd522	-0.30631357
79	0x3e7ed9aa	0.2488772
80	0x3d8dc383	0.069220565
81	0x3c814f8a	0.015784997
82	0x3c5f43cc	0.013627004
83	0x3dce171a	0.10063
84	0xbe35f8a1	-0.17770626
85	0xbea86209	-0.32887295
86	0xbf0cbb52	-0.5497333
87	0x3d5a3328	0.053271443
88	0x3e2f9164	0.17145306
89	0xbde414b1	-0.11136759
90	0x3dc31dd3	0.09527173
91	0xbc8f4a38	-0.017491445
92	0x3d36f2d5	0.044665176
93	0x3e1f6532	0.15565947
94	0x3dd400ed	0.10351739
95	0xbe323d1d	-0.17406125
96	0xbe036f07	-0.12835322
97	0x3d42b072	0.047531553
98	0x3dd253ba	0.10269876
99	0x3de3010e	0.110841855
100	0xbf02dd01	-0.51118475
101	0xbf11eb79	-0.5699993
102	0x3e647bfe	0.22312924
103	0x3d6219e7	0.055200484
104	0xbd83fead	-0.0644506
105	0x3e931251	0.28724912
106	0x3eee7c6e	0.46579307
107	0xbcf41fe1	-0.029800357
108	0x3d5897da	0.052879192
109	0xbbb974de	-0.0056596836
110	0x3e946a42	0.28987318
111	0xbe0aa967	-0.13541184
112	0xbdffeda8	-0.12496501
113	0xbe29292a	-0.16519609
114	0x3e399645	0.1812373
115	0xbea6362d	-0.32463208
116	0xbe273d19	-0.163319
117	0xbd39e4c0	-0.04538417
118	0xbec02c68	-0.3753388
119	0xbef7c35d	-0.48391238
120	0xbd551614	-0.05202301
121	0x3e7a9538	0.24470985
122	0x3a71a8d7	0.00092185795
123	0x3ec4cbcd	0.38436738
124	0x3d3ba044	0.045807138
125	0x3dfa7bae	0.12230621
126	0xbe1960f7	-0.14978395
127	0xbcbf40ea	-0.023346383
128	0xbe8700ad	-0.26367703
129	0xbe22dfb4	-0.15905648
130	0x3db53cad	0.088494636
131	0xbea5418f	-0.3227658
132	0x3e8a9b79	0.2707174
133	0xbdf65abd	-0.12029026
134	0xbd6bb5fc	-0.0575466
135	0xbc5ef08a	-0.013607154
136	0x3e08a33a	0.13343516
137	0x3d661837	0.056175437
138	0xbeb0aa6f	-0.3450503
139	0xbe507995	-0.2035888
140	0xbd874ba1	-0.06606222
141	0xbe820b41	-0.2539921
142	0x3dd13133	0.10214462
143	0xb9a1e710	-0.00030880468
144	0xbd44a431	-0.048008148
145	0xbda69f49	-0.0813585
146	0x3d255dae	0.040372543
147	0x3ea25c2e	0.31710953
148	0xbde8c8f6	-0.11366455
149	0x3ee5bc08	0.4487002
150	0xbce060aa	-0.027389843
151	0xbc1fb742	-0.009748282
152	0x3c3c2487	0.011483318
153	0x3e65cd13	0.22441511
154	0xbe7898f2	-0.24277094
155	0xbe8bf316	-0.27333897
156	0x3c6a76f7	0.01431059
157	0xbe06619b	-0.13123171
158	0xbed7d563	-0.4215499
159	0xbe10ad9f	-0.14128731
160	0xbe655276	-0.22394738
161	0x3dfc88e6	0.12330799
162	0x3df6770e	0.12034427
163	0xbd903bdc	-0.07042667
164	0xbe5a138a	-0.21296516
165	0xbdd8beac	-0.10583243
166	0xbe13a208	-0.14417279
167	0xbdbb67b1	-0.09150637
168	0x3e00f892	0.12594822
169	0x3dec8e15	0.115505375
170	0x3e8c8020	0.27441502
171	0x3eaa4a67	0.3325989
172	0xbec63ab6	-0.38716668
173	0x3e1b260c	0.15151232
174	0xbeafec13	-0.34359798
175	0xbeaf44dc	-0.34232223
176	0x3d85d7a2	0.06535269
177	0x3f1ca490	0.611886
178	0x3e13d6bc	0.14437383
179	0x3cea028d	0.02856567
180	0xbf05e530	-0.5230284
181	0x3dc9d1c7	0.09854465
182	0xbe766643	-0.24062447
183	0xbe1b8536	-0.15187535
184	0x3e06c035	0.13159259
185	0x3ef7ee0c	0.48423803
186	0x3d4bffea	0.049804606
187	0xbceb06f9	-0.028689848
188	0xbbb0ff36	-0.0054015173
189	0x3dd5f13d	0.10446403
190	0x3d0a3de7	0.03375044
191	0x3e0316f2	0.12801722
192	0xbd6196bb	-0.05507539
193	0x3d999198	0.07498473
194	0xba43aba8	-0.00074642384
195	0xbdaaf9dc	-0.08348438
196	0xbe1d3900	-0.15353775
197	0xb9a76afc	-0.00031932432
198	0x3b9b4049	0.004737888
199	0x3cffb1fe	0.031212803
200	0x3cad0850	0.021122128
201	0xbe3c434e	-0.1838505
202	0x3e36fb93	0.17869405
203	0xbc222a4d	-0.009897781
204	0x3dcfe029	0.10150177
205	0xbdb04874	-0.08607569
206	0xbd118a02	-0.035532005
207	0x3e6b24ed	0.22963305
208	0x3ec35a4c	0.3815483
209	0x3c0f7384	0.008755568
210	0xbda09245	-0.07840399
211	0xbc564393	-0.013077634
212	0xbe9dbbcc	-0.3080734
213	0x3c546b1c	0.01296499
214	0x3d40e924	0.04709734
215	0xbe7132d0	-0.2355454
216	0xbe46be65	-0.19408567
217	0xbdcfc06f	-0.10144126
218	0xbe9884b8	-0.29788756
219	0xbe025833	-0.12728958
220	0xbe2a087e	-0.16604802
221	0xbec5ee38	-0.3865831
222	0xbdae1bb9	-0.085013814
223	0xbd688d84	-0.056775585
224	0x3dcbb655	0.099468865
225	0xbc987f53	-0.0186154
226	0x3e85ed6c	0.261577
227	0xbe992242	-0.2990895
228	0xbd83d9d7	-0.06438034
229	0xbe8f94a9	-0.28043106
230	0xbe6fc52b	-0.23415057
231	0x3d32c539	0.043645117
232	0x3cafbaee	0.02145144
233	0x3da208eb	0.07911857
234	0xbea86b3c	-0.32894313
235	0x3de0cb22	0.109762445
236	0xbeb6922e	-0.356584
237	0xbe755f29	-0.23962082
238	0x3d65598d	0.055993605
239	0xbe5611aa	-0.20905176
240	0xbdffb1f8	-0.12485117
241	0xbe637acc	-0.22214812
242	0x3e57d8cb	0.21078794
243	0xbd8d9306	-0.06912808
244	0xbe5f77c3	-0.21823029
245	0xbd9e2cae	-0.07723366
246	0x3de0fcef	0.10985743
247	0xbd4693c8	-0.04848078
248	0x3e39d142	0.18146232
249	0x3e5ccead	0.21563216
250	0x3c1ff03d	0.009761867
251	0x3e005daf	0.12535737
252	0x3e3a8652	0.18215302
253	0xbe2694bb	-0.16267674
254	0xbd0c9e7d	-0.034330834
255	0xbf2f5b50	-0.68498707

bias f4 [64]
0	0x3cee25e1	0.029070796
1	0xbd5d9c3c	-0.054104075
2	0xba4ebaaa	-0.00078860915
3	0x3c2004fd	0.009766814
4	0xbd792a36	-0.06083127
5	0x3ca31ae2	0.01991028
6	0xbd1ab2b0	-0.037768066
7	0xbcbb1633	-0.022837734
8	0xbd0c6495	-0.03427561
9	0xbcde485a	-0.02713411
10	0x3cc8f626	0.024531435
11	0xbcc33cb4	-0.023832656
12	0x3cbc3b34	0.022977449
13	0xbd228ea1	-0.039686803
14	0x3c153fc5	0.009109442
15	0xbd5fba3b	-0.054620963
16	0x3c204f83	0.009784582
17	0x3d5c0b25	0.053721566
18	0x3cb3b6b0	0.021937698
19	0xbd8bfd64	-0.0683544
20	0xbcb7ac61	-0.022421064
21	0x3cbf05a6	0.023318123
22	0x3cbbbe42	0.02291787
23	0xbd034d9a	-0.03205643
24	0xbd751ac3	-0.059839975
25	0x3cd947a2	0.026523415
26	0xbd55edd4	-0.052228764
27	0xbd193707	-0.037405994
28	0xbd4913a6	-0.049091004
29	0x3d4eff63	0.050536525
30	0xbc9cb077	-0.019127114
31	0xbba48dc7	-0.005021784
32	0x3d876e47	0.066128306
33	0x3cb032bf	0.021508573
34	0xbcbc45ea	-0.022982556
35	0x3c7c2e27	0.015391863
36	0xbcc03d75	-0.023466805
37	0x3d1d9e8b	0.038481276
38	0xbd6d75cf	-0.05797368
39	0x3b2d0bb7	0.0026404688
40	0x3cd5e084	0.026108034
41	0x3cfd89d8	0.030949518
42	0x3bfee188	0.0077783503
43	0x3d5cea31	0.05393428
44	0x3d09b76c	0.03362219
45	0xbcc5de80	-0.024153948
46	0xbcae1e70	-0.021254748
47	0x3c45406d	0.012039286
48	0x3d1650a8	0.036698014
49	0xbd164819	-0.03668985
50	0x3d02a3e3	0.031894576
51	0x3d11510e	0.03547769
52	0xbbe69332	-0.00703659
53	0xbc636dc5	-0.013881152
54	0xbcb2952f	-0.021799652
55	0x3da7cc68	0.08193284
56	0xbd2de1cb	-0.04245166
57	0xbd85f109	-0.065401144
58	0xbc36391b	-0.011122013
59	0x3ce6b5fe	0.028162953
60	0xbd198fb1	-0.03749055
61	0xbd046245	-0.03232028
62	0xbcdc2493	-0.026872909
63	0x3d14eb31	0.03635711

weight f4 [12, 64, 1, 1]
0	0x3e5559f0	0.2083509
1	0xbd8cb333	-0.06870117
2	0xbcffb3b8	-0.031213626
3	0x3ebd605c	0.3698758
4	0x3e4befe0	0.19915724
5	0x3df2da29	0.11858017
6	0xbc38a766	-0.01127038
7	0xbe676427	-0.22596799
8	0xbc486510	-0.012231126
9	0x3e090f26	0.13384685
10	0xbdd22555	-0.10261027
11	0xbe9953ac	-0.2994665
12	0x3d702b8f	0.05863529
13	0xbe7665a8	-0.24062216
14	0xbe8c4d26	-0.2740261
15	0x3da00618	0.07813662
16	0x3c4f0fee	0.012638075
17	0x3e76bf9d	0.24096532
18	0x3e88fb2c	0.2675413
19	0xbe56dbe6	-0.20982322
20	0xbe3d6307	-0.18494807
21	0xbf0239b7	-0.50869316
22	0xbc821f6a	-0.01588412
23	0x3da0267f	0.078198425
24	0x3dd73001	0.10507203
25	0xbdd3ccbf	-0.103417866
26	0xbe851eda	-0.260001
27	0xbdaa6061	-0.08319164
28	0x3d2b1a45	0.0417731
29	0x3c7bbc25	0.015364681
30	0xbd941d38	-0.072321355
31	0x3dcec638	0.10096401
32	0xbc7928f6	-0.01520752
33	0xbddecbd1	-0.10878719
34	0x3def5e7b	0.116879426
35	0xbcb0be83	-0.021575218
36	0x3d6f861d	0.05847751
37	0x3e826461	0.25467208
38	0x3dc2f973	0.09520235
39	0x3c12af79	0.008952969
40	0xbccf696e	-0.025318827
41	0xbe8acea7	-0.27110788
42	0x3db600a7	0.08886843
43	0x3e70ea0b	0.2352678
44	0x3dd5df46	0.10442977
45	0xbe0c824a	-0.13721576
46	0xbe448161	-0.19189979
47	0x3e25c869	0.16189732
48	0xbe57a08d	-0.21057339
49	0xbdd26c9d	-0.102746226
50	0xbcde774f	-0.0271565
51	0xbe13501f	-0.14386033
52	0xbdb7df89	-0.08978183
53	0xbe2958aa	-0.16537729
54	0x3d15ef10	0.03660494
55	0x3dc997f8	0.09843439
56	0xbce0a747	-0.027423514
57	0x3ebc8868	0.3682282
58	0x3e91a122	0.28443247
59	0xbe06d4cb	-0.13167112
60	0x3e61649a	0.22011033
61	0x3e6fa6c3	0.23403458
62	0xbc349173	-0.011021006
63	0x3e89a181	0.2688103
64	0xbe479f30	-0.19494319
65	0x3e24d3fc	0.1609649
66	0xbe15c7e0	-0.14627028
67	0x3e7280f4	0.23682004
68	0x3e414e7b	0.18877594
69	0xbc89bac6	-0.016812693
70	0xbe096911	-0.13418986
71	0xbe454a94	-0.1926673
72	0xbe799957	-0.24374901
73	0x3db28ddf	0.08718466
74	0x3e926dea	0.28599483
75	0xbe109221	-0.14118244
76	0x3e787488	0.24263203
77	0x3d344a91	0.044016425
78	0xbbd0da16	-0.006373654
79	0x3e09d57c	0.13460344
80	0x3e4e725b	0.2016081
81	0xbe37c952	-0.17947891
82	0xbe2534d8	-0.1613344
83	0x3db5fc38	0.088859975
84	0xbc75edec	-0.015010338
85	0xbe575a36	-0.21030506
86	0x3da7217f	0.08160686
87	0xbbed6567	-0.007244754
88	0x3d1a1270	0.03761524
89	0xbe3d0b6c	-0.18461388
90	0xbd694416	-0.056949697
91	0x3cf5c940	0.03000319
92	0x3ea09efe	0.313713
93	0x3b8f767d	0.0043781386
94	0x3e60662e	0.21913978
95	0x3d87918b	0.06619557
96	0xbec8a402	-0.39187628
97	0x3e2bc340	0.167737
98	0xbe000dc6	-0.12505254
99	0x3da18d9d	0.07888339
100	0x3df626b4	0.12019101
101	0xbe9827c8	-0.2971785
102	0xbdf7def3	-0.12103071
103	0x3e5306ad	0.20608015
104	0x3df6b8a7	0.120469384
105	0xbd587ff7	-0.05285641
106	0xbee78d01	-0.45224765
107	0xbdd56612	-0.10419859
108	0xbd861d53	-0.06548562
109	0xbe8e6853	-0.27813968
110	0xbe9aa9a8	-0.30207562
111	0xbe9ba5ff	-0.30400082
112	0xbe91815b	-0.28419003
113	0xbd1f83fb	-0.038944226
114	0xbe362f34	-0.17791444
115	0xbe3bf1a7	-0.18353902
116	0xbdfe0f0a	-0.12405212
117	0x3d33016f	0.04370254
118	0x3e89324d	0.2679619
119	0xbe57c832	-0.21072462
120	0x3dcb4936	0.09926073
121	0xbd1e9f9f	-0.038726445
122	0x3e12452f	0.14284204
123	0x3cb17bb6	0.021665435
124	0x3b37bb68	0.0028035287
125	0x3e4ea14f	0.20178722
126	0x3e02f143	0.12787347
127	0xbe432d24	-0.19060189
128	0x3e95f445	0.29287925
129	0xbe10ef31	-0.14153744
130	0xbe35fe1f	-0.17772721
131	0xbdec74f7	-0.11545747
132	0xbdae03e3	-0.08496835
133	0x3e9b0fc9	0.3028548
134	0xbe7cd625	-0.24691065
135	0xbdefb59c	-0.11704561
136	0xbdaf1986	-0.0854979
137	0x3e293188	0.16522801
138	0xbe879aac	-0.26485193
139	0xbdcb38bd	-0.09922931
140	0x3cabbce8	0.020964101
141	0xbcff4a97	-0.031163497
142	0x3dd525e8	0.10407621
143	0xbe82ce8b	-0.25548205
144	0xbeea1ad4	-0.45723593
145	0xbe415cac	-0.18883008
146	0xbdd50dc7	-0.104030184
147	0xbe803ee5	-0.25047985
148	0xbdc46cf6	-0.09591095
149	0xbd6c4237	-0.057680335
150	0x3e14d422	0.14534047
151	0xbe11e0ad	-0.14245863
152	0xbe90cc63	-0.28280935
153	0xbe4f0dbb	-0.20220082
154	0xbe973188	-0.29529977
155	0x3e812a23	0.2522746
156	0xbd96a28b	-0.07355221
157	0x3c10800e	0.008819593
158	0x3f02a687	0.5103535
159	0xbd6cccc0	-0.057812452
160	0x3e0ae865	0.13565214
161	0xbd08e74b	-0.033423703
162	0xbe1e4b16	-0.1545833
163	0xbef1196a	-0.47089702
164	0xbd23a794	-0.039954737
165	0xbe30270c	-0.17202395
166	0xbcd8e3cb	-0.026475808
167	0x3b568f0b	0.003273907
168	0x3e01ad3c	0.1266374
169	0xbec72685	-0.38896576
170	0xbc482296	-0.012215277
171	0x3bb24c54	0.005441228
172	0x3dcaf634	0.09910241
173	0xbac6458b	-0.0015126927
174	0x3e7ff2b3	0.24994926
175	0xbe4831e0	-0.19550276
176	0x3df659d6	0.120288536
177	0xbe2cc3a2	-0.16871503
178	0x3e94676f	0.28985164
179	0x3c36b697	0.011151931
180	0xbe7f5634	-0.24935228
181	0x3e1bdc58	0.15220773
182	0x3ce7799a	0.028256226
183	0xbdf3647d	-0.11884401
184	0xbb9ee195	-0.004848669
185	0x3d43f812	0.047844
186	0x3f0125dd	0.504484
187	0x3ce01d71	0.027357789
188	0x3e4be620	0.19912004
189	0xbe9182d7	-0.28420135
190	0xbe154c03	-0.14579777
191	0xbdff46e8	-0.12464696
192	0xbe18800d	-0.14892597
193	0xbe219293	-0.1577857
194	0xbe056e50	-0.13030362
195	0xbeb0ced7	-0.34532806
196	0xbe141032	-0.14459303
197	0xbdf8daa7	-0.121510796
198	0xbec351ef	-0.38148448
199	0x3cc3bfd0	0.023895174
200	0x3e13100e	0.14361593
201	0x3d92b862	0.071640745
202	0x3d480571	0.048833314
203	0xbda4b94c	-0.08043155
204	0x3dfc15a3	0.123088144
205	0xbe422f99	-0.1896347
206	0x3e9d02e6	0.30666274
207	0xbe604d46	-0.21904477
208	0x3ccbecd9	0.024893211
209	0x3cd5a6a7	0.026080443
210	0xbe048f25	-0.1294523
211	0xbd91b842	-0.071152225
212	0xbdf43817	-0.11924761
213	0xbc32354a	-0.010876963
214	0xbe25c31b	-0.16187708
215	0x3d3779a7	0.04479375
216	0xbdf2c069	-0.118531056
217	0xbdb4ee25	-0.08834485
218	0xbe0d22ec	-0.13782853
219	0xbde0c3df	-0.109748594
220	0xbe5a8bef	-0.21342443
221	0x3e0252b2	0.12726858
222	0xbde6f55e	-0.11277269
223	0xbc9e6aec	-0.019338094
224	0x3ee5c25b	0.44874844
225	0xbe1502af	-0.14551805
226	0x3dc2a648	0.09504372
227	0x3db1842b	0.08667787
228	0xbdc4ee45	-0.09615759
229	0xbd82602f	-0.06366002
230	0xbcd540f3	-0.026031947
231	0x3c4c0601	0.012452603
232	0xbd963f30	-0.07336271
233	0xbe449ec3	-0.19201188
234	0xbdf1b411	-0.11801923
235	0xbe29c432	-0.16578749
236	0x3ec6db09	0.38838986
237	0xbe891dc4	-0.26780522
238	0xbe97a8b1	-0.2962089
239	0x3df6e6f5	0.1205577
240	0x3c020bd8	0.007937394
241	0x3def18cb	0.11674651
242	0x3cd4e57c	0.025988333
243	0x3e364933	0.17801361
244	0xbec193ed	-0.3780817
245	0x3e51fbe0	0.20506239
246	0xbd6b890b	-0.05750374
247	0x3ea1bb4f	0.31588218
248	0x3d597bde	0.053096645
249	0xbe250a9e	-0.16117331
250	0xbd6937a6	-0.056937836
251	0xbdd78ee2	-0.105252996
252	0xbe91c8fd	-0.28473654
253	0x3c4f2d05	0.012645011
254	0xbcfd8f03	-0.030951982
255	0xbd817f79	-0.063231416

bias f4 [12]
0	0x3cac6ab7	0.02104698
1	0xbc4d894b	-0.01254494
2	0x3cf98cfc	0.030462734
3	0x3d2233e5	0.03960027
4	0x3ccf0def	0.025275199
5	0xbb8482d0	-0.0040439144
6	0x3bdd73e7	0.0067582014
7	0x3a4ed481	0.0007889942
8	0xbb4fff8a	-0.0031738007
9	0xbd0e786e	-0.03478282
10	0xbc903f16	-0.017608207
11	0x3de3f75c	0.111311644

weight f4 [12, 12, 3, 3]
0	0xbe8c0462	-0.27347094
1	0xbbde8ded	-0.006791821
2	0xbd9300e3	-0.071779035
3	0xbe121d90	-0.1426909
4	0x3dfad1bb	0.12247034
5	0xbdf316b2	-0.11869563
6	0x3dc94a1e	0.0982859
7	0x3ebc8e48	0.36827302
8	0xbe2f1c4c	-0.17100638
9	0x3cb20814	0.021732368
10	0xbd1c91db	-0.038225036
11	0x3df26ca8	0.11837131
12	0xbd752f27	-0.05985942
13	0xbc40d57c	-0.011769649
14	0xbe82417d	-0.2544059
15	0x3debdb5c	0.11516449
16	0x3e090f21	0.13384677
17	0x3dec3c60	0.11534953
18	0x3cbbd896	0.022930425
19	0x3c470627	0.012147463
20	0xbe1f0b5d	-0.15531678
21	0xbe0b2460	-0.13588095
22	0xbdb1c6f9	-0.08680529
23	0x3e99b063	0.30017385
24	0x3e460147	0.19336425
25	0xbd50632c	-0.050875828
26	0xbdfb7e08	-0.12279898
27	0xbe245ecf	-0.16051792
28	0xbea94343	-0.3305913
29	0x3dc8d817	0.09806841
30	0xbe305312	-0.17219189
31	0xbe8b56a9	-0.27214554
32	0xbdb55a1c	-0.088550776
33	0xbd5eea0e	-0.05442243
34	0xbe333ab7	-0.17502867
35	0x3e6d1997	0.23154293
36	0xbe3fd1e8	-0.18732417
37	0x3cd9dc40	0.026594281
38	0x3dfd037b	0.123541795
39	0x3de271db	0.110568725
40	0x3d12aead	0.035811115
41	0x3d9fa594	0.077952534
42	0x3e19d3a8	0.15022147
43	0xbed55ec0	-0.4167385
44	0x3e6d14c8	0.23152459
45	0x3dacc85e	0.084366545
46	0x392fce55	0.00016766165
47	0xbdb5d09f	-0.08877682
48	0xbc4c3b4e	-0.012465311
49	0xbe3594fe	-0.17732617
50	0x3e39ff6f	0.18163846
51	0x3dda2a07	0.10652547
52	0x3e873de8	0.26414418
53	0x3de0eb7d	0.10982416
54	0xbd54ee17	-0.051984873
55	0x3e01ccd4	0.12675792
56	0x3e6c6f64	0.23089367
57	0x3e0766d2	0.13222817
58	0xbe6b4334	-0.22974855
59	0x3dd0070f	0.10157596
60	0xbdcbaa8c	-0.099446386
61	0x3d8e17c2	0.06938125
62	0xbe87fe44	-0.26561177
63	0xbe9a64f2	-0.3015514
64	0xbe4cf03b	-0.20013516
65	0x3e27183f	0.16317843
66	0xbcbb773b	-0.022884002
67	0x3e893583	0.2679864
68	0x3dc62cd4	0.09676519
69	0x3d50989f	0.0509268
70	0x3e2afb04	0.16697317
71	0xbe93429c	-0.28761756
72	0x3dc5bb24	0.09654835
73	0x3eae7eb3	0.3408104
74	0x3db8af2a	0.09017785
75	0xbf12fe6e	-0.5741948
76	0xbd62003d	-0.05517601
77	0xbebb34ce	-0.36563724
78	0x3dea80af	0.11450326
79	0x3e58f3ae	0.21186706
80	0x3c7659f9	0.0150361
81	0xbe752fc8	-0.23944008
82	0x3df351fb	0.11880871
83	0x3d7d214d	0.061799336
84	0xbd857dd4	-0.065181404
85	0x3e1eb7e6	0.15499839
86	0x3e099c87	0.13438617
87	0x3dde8584	0.1086531
88	0xbe93f648	-0.28898835
89	0xbe7802de	-0.24219844
90	0x3ed432ff	0.41445157
91	0xbe5eb504	-0.2174874
92	0xbeab88ff	-0.33502957
93	0xbd4963b0	-0.049167335
94	0x3e35ada0	0.17742014
95	0x3e505113	0.20343427
96	0xbe50f786	-0.20406923
97	0x3cc5f667	0.024165345
98	0x3c9954b5	0.01871715
99	0xbef7a4b9	-0.4836786
100	0x3cd47b92	0.02593783
101	0x3dcb3084	0.09921363
102	0x3e53fc50	0.20701718
103	0xbe06358e	-0.13106367
104	0xbe102a16	-0.14078555
105	0x3ee3014d	0.4433693
106	0x3e5eabbf	0.21745203
107	0x3e930dcf	0.28721473
108	0x3ead021b	0.3379067
109	0x3e8b00f5	0.27149168
110	0x3dd1a50d	0.10236559
111	0xbd387b11	-0.04503924
112	0xbcd251fb	-0.025673857
113	0xbc8f6090	-0.0175021
114	0xbdbcb92b	-0.092150055
115	0x3df7e730	0.121046424
116	0xbda1a7e1	-0.078933485
117	0x3de69ada	0.11260004
118	0x3c0f4fb2	0.008747028
119	0x3c843ed0	0.016143233
120	0xbd821b8f	-0.06352913
121	0x3ebdc266	0.37062377
122	0xbc971189	-0.018440979
123	0x3deec0f1	0.116578944
124	0xbe2c7a4b	-0.16843526
125	0x3e814411	0.25247243
126	0x3e9f938b	0.31167254
127	0x3c3a5a10	0.011374012
128	0x3e07c2de	0.1325793
129	0x3c99574b	0.018718382
130	0xbd8e5b19	-0.06950969
131	0x3dd1dd02	0.10247232
132	0x3ef10474	0.4707371
133	0x3e2c9ab3	0.16855888
134	0xbdbf8124	-0.093508035
135	0x3dd3bf3e	0.10339211
136	0x3e173ac7	0.14768516
137	0x3e805a58	0.25068927
138	0x3e6b1e1f	0.22960709
139	0xbdd18e78	-0.10232252
140	0xbe3af803	-0.18258671
141	0x3eac3cb9	0.33640078
142	0x3e7c2715	0.24624284
143	0x3e5b2364	0.21400219
144	0xbe59850b	-0.21242158
145	0xbde71da3	-0.1128495
146	0xbd3fa7f2	-0.046791025
147	0xbe1f7726	-0.15572795
148	0xbe43a569	-0.19106068
149	0x3dd0a822	0.10188319
150	0xbd113fa9	-0.0354611
151	0x3e45ceff	0.19317244
152	0x3d1cd242	0.038286455
153	0xbea02109	-0.31275204
154	0x3e9cdc1c	0.3063668
155	0x3e5d66db	0.21621267
156	0xbd30c4da	-0.043156482
157	0xbe817017	-0.2528083
158	0xbe673a71	-0.22580887
159	0x3db7cd25	0.08974675
160	0xbe145298	-0.14484632
161	0xbd34600c	-0.04403691
162	0x3e732c65	0.23747404
163	0xbb371ef3	-0.002794203
164	0xbe682fc4	-0.22674471
165	0x3b29a01e	0.002588279
166	0xbe3a0cc9	-0.1816894
167	0x3d712d38	0.058881015
168	0xbe0b3069	-0.13592686
169	0x3d130ec9	0.035902772
170	0x3bdb18b8	0.0066862963
171	0x3d07fca0	0.033199906
172	0x3ed4bfaa	0.41552478
173	0xbea07475	-0.3133885
174	0xbe1e4478	-0.15455806
175	0xbd52123c	-0.05128692
176	0xbe32955e	-0.17439792
177	0x3d50167c	0.050802693
178	0xba7df535	-0.0009687723
179	0xbd75280a	-0.059852637
180	0xbddc23d3	-0.107490204
181	0x3dd24842	0.10267688
182	0xbe9fbe78	-0.31200004
183	0x3d233e35	0.039854247
184	0xbd864397	-0.065558605
185	0x3e7098c5	0.23495777
186	0xbd79ec74	-0.061016515
187	0xbdc9c6fd	-0.09852407
188	0x3e14c83a	0.14529505
189	0x3da66590	0.0812484
190	0xbdf796a1	-0.12089277
191	0xbe559265	-0.20856626
192	0x3ee207d6	0.44146603
193	0xbe271423	-0.16316275
194	0x3e11515b	0.14191191
195	0x3f19f813	0.60144156
196	0xbca1b86b	-0.019741258
197	0xbc6e0899	-0.014528417
198	0xbd4a2f98	-0.049361795
199	0xbd30bf76	-0.04315134
200	0x3e8f4180	0.2797966
201	0x3ddad467	0.10685044
202	0x3dc8694c	0.09785709
203	0xbcb291c0	-0.021798015
204	0xbd85a11c	-0.0652487
205	0xbdac4060	-0.08410716
206	0xbeccc374	-0.3999287
207	0x3ed02594	0.4065367
208	0x3d1019a9	0.03518072
209	0x3dc48eb9	0.09597535
210	0x3e68dc09	0.22740187
211	0xbdc26481	-0.09491826
212	0x3ca8945a	0.020578552
213	0x3e6b72b7	0.22992979
214	0xbd19a7f5	-0.037513692
215	0x3d2c129c	0.042009935
216	0xbdd0c77c	-0.101942986
217	0xbcd5f38e	-0.026117112
218	0x3d21892d	0.03943746
219	0x3e900e5a	0.2813595
220	0xbe31068f	-0.17287658
221	0xbdae5967	-0.08513146
222	0xbe1ac6a2	-0.15114835
223	0xbe176e38	-0.14788139
224	0x3e487094	0.19574195
225	0xbc9f0592	-0.019411836
226	0x3de88439	0.113533445
227	0xbb116dba	-0.0022190646
228	0xbd7f2dad	-0.06229942
229	0x3e81fb5d	0.25387087
230	0x3e59a332	0.2125366
231	0x3e132ec7	0.14373313
232	0xbdc3d31d	-0.09561751
233	0x3bf1851c	0.007370604
234	0xbd2679ec	-0.040643618
235	0x3e015a6f	0.12632154
236	0xbe4474d7	-0.19185196
237	0x3cd21731	0.025645824
238	0xbece8445	-0.4033529
239	0xbe393e64	-0.18090206
240	0x3d386f03	0.045027744
241	0x3e02bd48	0.12767518
242	0xbe503563	-0.20332865
243	0x3d1fd129	0.03901783
244	0x3e7af4b4	0.2450741
245	0xbd51f88c	-0.051262423
246	0x3e3a2d1c	0.1818127
247	0xbdedf70c	-0.11619386
248	0xbd22b2fb	-0.03972147
249	0xbea0f39f	-0.31435868
250	0x3e34bc85	0.1765004
251	0x3e739ed1	0.23791052
252	0xbe124244	-0.14283091
253	0xbcc2aff8	-0.023765549
254	0xbd4c4e98	-0.04987964
255	0xbde08fbb	-0.109649144

bias f4 [12]
0	0xbbc44bf0	-0.005990498
1	0x3c8bbb29	0.017057018
2	0x3cd8d64d	0.026469374
3	0x3d2ccc2d	0.042186905
4	0xbc119cb3	-0.008887458
5	0x3d068609	0.03284267
6	0xbc7bd02e	-0.015369458
7	0x3cf9dfae	0.030502167
8	0x3c022a9b	0.007944728
9	0xbcd7f585	-0.02636219
10	0xbd3dca27	-0.046335366
11	0xbcb55946	-0.022137295

weight f4 [12, 12, 3, 3]
0	0xbc895e12	-0.016768489
1	0xbbb845fd	-0.0056235776
2	0x3eae382e	0.34027237
3	0x3da806fe	0.08204459
4	0xbe5a1d25	-0.2130018
5	0xbe6de7ce	-0.23232958
6	0xbd0a9d51	-0.033841435
7	0x3bd3369d	0.0064457194
8	0xbd6d67c6	-0.057960294
9	0x3e843429	0.25821045
10	0x3e17f431	0.14839245
11	0xbea0266b	-0.3127931
12	0x3d3b6e32	0.045759387
13	0x3d42332a	0.047412075
14	0x3d3a54d7	0.045491066
15	0x3e07e5d0	0.1327126
16	0xbe2bbbaa	-0.16770807
17	0x3e2ba4e8	0.16762125
18	0xbd827496	-0.06369893
19	0xbe8bb9df	-0.27290246
20	0xbeba82f9	-0.3642805
21	0xbc18919c	-0.00931206
22	0xbef7cd9f	-0.48399064
23	0x3e3290cb	0.17438047
24	0xbd822b0f	-0.06355869
25	0x3d5acab0	0.053415954
26	0xbeef7b26	-0.46773642
27	0x3c776440	0.015099585
28	0xbdbe05e4	-0.09278467
29	0x3ecfc8c5	0.40582862
30	0x3de84c47	0.11342674
31	0x3d9048b6	0.070451185
32	0xbd329d65	-0.043607134
33	0xbeaecc19	-0.3414009
34	0xbb809fab	-0.003925284
35	0x3c077e13	0.0082698045
36	0x3e1fc174	0.1560114
37	0xbd22a3a4	-0.03970684
38	0x3ea1aa23	0.31575117
39	0x3d0c5c80	0.034267902
40	0x3d63fc2e	0.05566042
41	0x3df93fe1	0.12170387
42	0x3cbea9d6	0.023274343
43	0x3e0ee3ca	0.13954082
44	0x3e28bb9f	0.16477822
45	0xbe79fa04	-0.2441178
46	0x3bd5dd8e	0.0065266555
47	0xbe50590e	-0.20346472
48	0x3e923515	0.28556123
49	0xbd82b170	-0.063815
50	0x3d7c379c	0.06157647
51	0xbe614731	-0.21999814
52	0xbd83f041	-0.06442309
53	0x3d9e7f57	0.07739132
54	0xbe848033	-0.25879058
55	0xbd46e050	-0.048553765
56	0x3dbf01f8	0.093265474
57	0x3c8e475a	0.017368007
58	0xbeba39ce	-0.36372226
59	0x3eb63477	0.35586902
60	0xbe1643f2	-0.14674357
61	0x3f00eac0	0.503582
62	0xbe2ce418	-0.16883886
63	0xbd1695f8	-0.036764115
64	0xbe28590d	-0.1644022
65	0xbe5c4bfe	-0.21513364
66	0xbd14784d	-0.03624754
67	0x3e8e8cdb	0.2784184
68	0x3d0b4724	0.03400339
69	0x3e4f21db	0.20227759
70	0x3cfc096f	0.030766217
71	0xbe6a7a29	-0.22898163
72	0x3e335c12	0.17515591
73	0xbefbd7a4	-0.49187958
74	0x3ccfa100	0.025345325
75	0x3ddf90cf	0.10916292
76	0x3e5cc02c	0.21557683
77	0xbd107774	-0.03527017
78	0x3dd14f87	0.10220247
79	0xbe01d649	-0.126794
80	0x3e27af9d	0.16375585
81	0x3cca635b	0.02470558
82	0x3e225c89	0.15855612
83	0xbe962f8a	-0.29333144
84	0x3f0038e4	0.5008681
85	0xbe07d3db	-0.1326441
86	0x3d6b84fb	0.057499867
87	0x3ec86d4c	0.39145887
88	0xbd729bca	-0.059230603
89	0xbdd5091a	-0.104021266
90	0xbe035cc6	-0.12828359
91	0x3d107a88	0.035273105
92	0x3e0ed44b	0.13948171
93	0xbec2ac38	-0.38022017
94	0x3d1e9fd9	0.03872666
95	0x3e428a79	0.18998136
96	0x3e7fdc20	0.24986315
97	0x3bf098ce	0.0073424345
98	0xbdc36047	-0.09539848
99	0xbeb4f78d	-0.35345116
100	0x3e8bb721	0.27288154
101	0x3daca638	0.08430141
102	0x3eac192f	0.33612964
103	0x3e2c0b39	0.16801156
104	0xbc66e48b	-0.014092575
105	0xbde7c568	-0.11316949
106	0x3da889a3	0.08229377
107	0xbeb0c6f8	-0.345268
108	0xbeae2aa0	-0.34016895
109	0xbe1c3804	-0.15255743
110	0x3d89f42f	0.067360274
111	0xbd15598d	-0.036462355
112	0x3e84cafa	0.2593611
113	0xbe4cdf75	-0.20007117
114	0x3e78b53b	0.24287884
115	0xbd0c6393	-0.03427465
116	0x3cda735f	0.026666341
117	0xbe074d04	-0.13212973
118	0xbe4bc323	-0.19898658
119	0x3deb34f7	0.114847116
120	0xbe8a3806	-0.26995867
121	0xbdda9f0c	-0.10674867
122	0xbe945576	-0.28971452
123	0x3e2a7331	0.16645505
124	0x3b1827a9	0.0023216999
125	0xbe8fae8b	-0.28062853
126	0x3e530766	0.20608291
127	0xbca86e08	-0.02056028
128	0x3e026019	0.12731971
129	0x3cd0abc0	0.025472522
130	0x3e75ea97	0.2401527
131	0x3ec4b8ac	0.38422143
132	0xbf07bcde	-0.53022563
133	0x3e5dc0a3	0.21655516
134	0xbde937f9	-0.11387629
135	0xbed96b54	-0.42464697
136	0xbe68c886	-0.22732744
137	0x3dafd597	0.08585661
138	0xbe207f9a	-0.15673676
139	0x3e081054	0.13287479
140	0x3e173766	0.14767227
141	0xbcb04236	-0.021515947
142	0xbdeffb4b	-0.11717852
143	0x3ecc72b7	0.3993127
144	0xbe53c9a7	-0.20682393
145	0x3dc4a937	0.09602588
146	0xbdf2f9ea	-0.118640736
147	0xbccff8d9	-0.025387214
148	0xbe10b493	-0.14131384
149	0x3e25c4a4	0.16188294
150	0x3e9731a9	0.29530075
151	0xbd09c7f7	-0.033637967
152	0x3de5ff06	0.112302825
153	0xbd2da173	-0.042390298
154	0xbe56d84e	-0.20980951
155	0x3d9d7f5a	0.07690306
156	0x3d9772ae	0.0739492
157	0xbe251a4f	-0.16123317
158	0x3e13d0fb	0.14435188
159	0x3cf8aec4	0.030356772
160	0x3de23884	0.11045936
161	0x3e159f8c	0.14611644
162	0x3e93af64	0.2884475
163	0x3e2c560a	0.16829696
164	0x3ed3d66d	0.4137453
165	0xbd04cbc1	-0.032420877
166	0xbe1d154f	-0.1534016
167	0x3e079a8c	0.13242549
168	0xbd9aa21b	-0.075504504
169	0xbe084d55	-0.1331075
170	0xbc133040	-0.008983672
171	0x3e3bb07a	0.18329039
172	0x3dd81fc5	0.105529346
173	0xbeb10694	-0.3457533
174	0x3c3a306e	0.011364086
175	0x3e8b6f16	0.2723319
176	0x3dd901c4	0.1059604
177	0x3ebaa603	0.36454782
178	0x3c784a60	0.015154451
179	0xbe5c06fd	-0.21487041
180	0xbe916267	-0.28395388
181	0xbe28d3c6	-0.16487035
182	0xbe33dfbb	-0.17565815
183	0xbe41323e	-0.18866822
184	0x3e997428	0.29971433
185	0xbdd9d0e2	-0.10635544
186	0xbd331a02	-0.043725975
187	0x3e190f51	0.14947249
188	0xbe8c4890	-0.2739911
189	0x3ec7767a	0.38957578
190	0xbe8c9885	-0.27460113
191	0xbe66978b	-0.22518747
192	0x3e9f03ff	0.31057736
193	0xbd1566a5	-0.036474843
194	0xbe28043e	-0.16407868
195	0x3dea6bad	0.11446319
196	0x3ef56693	0.4792982
197	0xbda7b463	-0.08188703
198	0xbd92786c	-0.07151875
199	0x3c81f371	0.015863152
200	0x3e490ecc	0.19634551
201	0xbe3f6736	-0.18691716
202	0x3b8ee561	0.00436084
203	0x3e0d3f4f	0.13793682
204	0x3e23d201	0.15998079
205	0xbeaf778d	-0.34270898
206	0x3c8f8f5f	0.01752442
207	0x3d233191	0.039842192
208	0x3e759b1e	0.23984954
209	0xbe860036	-0.26172036
210	0x3e331255	0.17487462
211	0x3e49b21b	0.19696848
212	0x3d919f23	0.07110431
213	0xbe44cf6b	-0.19219749
214	0xbdf0e121	-0.1176169
215	0xbdcbd0cf	-0.099519365
216	0x3e11f7d3	0.14254694
217	0x3e2c08d5	0.16800244
218	0xbee1d008	-0.44104028
219	0xbe0ca51b	-0.13734858
220	0xbe1b8876	-0.15188774
221	0xbe3271c2	-0.17426208
222	0x3e3d6a3c	0.18497556
223	0xbe88808c	-0.26660573
224	0xbe51ee44	-0.20501047
225	0xbe9166d2	-0.28398758
226	0x3e1bec21	0.15226795
227	0xbeb36075	-0.35034528
228	0x3f0ebe83	0.5575945
229	0xbe1e9ad5	-0.15488751
230	0xbdff83e8	-0.12476331
231	0xbda2105c	-0.079132766
232	0xbdf643a0	-0.12024617
233	0x3e207857	0.15670906
234	0x3c873376	0.01650403
235	0x3eca0b83	0.39461908
236	0x3eb59ec7	0.354727
237	0xbeab54a8	-0.33463025
238	0x3e808485	0.25101104
239	0xbe82f770	-0.25579405
240	0xbe6ba05a	-0.23010388
241	0x3ebde623	0.37089643
242	0xbe0698eb	-0.13144271
243	0x3d54b117	0.0519267
244	0x3ea16705	0.3152391
245	0xbde9ba62	-0.11412503
246	0xbd62e15f	-0.055390712
247	0xbdbd2eae	-0.09237419
248	0xbd71442c	-0.058902904
249	0xbe2b8627	-0.16750394
250	0xbd479fb3	-0.048736285
251	0x3ec21a17	0.3791053
252	0x3e56c3be	0.20973107
253	0x3d7ef960	0.06224954
254	0x3d4ce997	0.050027456
255	0x3db87c6c	0.090081066

bias f4 [12]
0	0x3d335781	0.043784622
1	0x3b6165e0	0.0034392998
2	0x3c422c5f	0.011851399
3	0x3d1a159f	0.037618276
4	0x3b9a767b	0.004713831
5	0xbce095e5	-0.027415225
6	0x3a613a2d	0.0008591738
7	0xbc85595d	-0.016277963
8	0xbcdc3dfe	-0.026885029
9	0xbc8ce769	-0.017200189
10	0xbc822246	-0.015885483
11	0xbb5d0efe	-0.003373086

weight f4 [12, 12, 3, 3]
0	0x3c0b6e75	0.008510222
1	0xbdc4ec7a	-0.09615417
2	0xbb82f03f	-0.0039959247
3	0xbd835499	-0.0641262
4	0x3c96b5af	0.01839718
5	0x3e5c891b	0.21536677
6	0x3cba4664	0.022738643
7	0x3d8e2723	0.069410585
8	0x3da4d180	0.080477715
9	0xbd61c27e	-0.055117123
10	0x3ecb9195	0.39759508
11	0xbd9543b0	-0.07288301
12	0xbee97657	-0.455981
13	0x3ec477c0	0.38372612
14	0x3de3eeaf	0.1112951
15	0x3f086b5a	0.53288805
16	0x3d9185b4	0.0710558
17	0x3e6eb12d	0.23309775
18	0x3dff5f06	0.12469296
19	0xbdc14025	-0.09436063
20	0x3e9f02a4	0.31056702
21	0x3e7042ee	0.23463032
22	0x3e1e3d84	0.15453154
23	0xbca9102f	-0.0206376
24	0xbb2bdd50	-0.0026224442
25	0x3dc8a9ba	0.09797998
26	0xbda8c2af	-0.08240258
27	0x3d463b9e	0.0483967
28	0xbe49c08e	-0.1970236
29	0xbeca9fba	-0.39574987
30	0x3e199541	0.14998342
31	0xbba9a8d4	-0.0051775966
32	0x3ddf2f3a	0.108976796
33	0x3e8e6710	0.27813005
34	0xbd087f97	-0.033324804
35	0xbe4cc65a	-0.1999754
36	0xbe8613ad	-0.26186886
37	0x3d36da9c	0.044642076
38	0x3e2d5cb5	0.16929896
39	0x3cec40f0	0.028839558
40	0x3e04396e	0.12912533
41	0xbc753cb7	-0.014968089
42	0x3dc5feb4	0.096677214
43	0xbe2f687c	-0.17129701
44	0xbd721b22	-0.059107907
45	0xbd853ccd	-0.065057375
46	0xbde80f0e	-0.113309965
47	0xbd6147df	-0.055000182
48	0xbe360579	-0.17775525
49	0x3d3dd13d	0.046342123
50	0x3db7b057	0.08969181
51	0x3e0c314e	0.13690683
52	0xbe231e2b	-0.15929477
53	0xbf1e8672	-0.619239
54	0x3eabfe87	0.33592626
55	0x3d6bac6c	0.05753748
56	0xbd686aaa	-0.056742348
57	0xbc6eddc6	-0.014579242
58	0xbdf5022c	-0.11963305
59	0x3e98fb8c	0.29879415
60	0xbe1c508a	-0.15265098
61	0xbe56c39b	-0.20973055
62	0xbe25351a	-0.16133538
63	0x3e8da342	0.27663618
64	0xbea204f6	-0.3164441
65	0xbcf32e4c	-0.029685162
66	0x3e960a26	0.29304618
67	0x3dfda153	0.12384286
68	0xbe93c751	-0.28863004
69	0x3d147d7d	0.036252487
70	0x3e692c2a	0.22770754
71	0x3ec44312	0.3833242
72	0x3ea764ea	0.3269418
73	0x3e1eabb8	0.15495193
74	0xbd4a769d	-0.049429525
75	0x3df45da8	0.11931926
76	0x3eba0d68	0.36338353
77	0xbe9df548	-0.30851197
78	0xbd8d2464	-0.068917066
79	0xbe325131	-0.17413785
80	0xbdac40d8	-0.084108055
81	0x3d1a84c8	0.037724286
82	0x3e6ff8a7	0.23434697
83	0xbe3f3879	-0.18673886
84	0xbd5c776d	-0.05382483
85	0xbd28362d	-0.04106729
86	0xbe9ea13f	-0.30982396
87	0x3d6d90f6	0.057999574
88	0xbe076717	-0.1322292
89	0x3e8de0e4	0.2771064
90	0xbe4519a3	-0.19248061
91	0xbda79225	-0.08182172
92	0xbe78d7aa	-0.2430102
93	0x3dc7f301	0.09763146
94	0x3e551c1a	0.20811501
95	0xbec022cc	-0.37526548
96	0xbe10700f	-0.14105247
97	0xbdf57341	-0.119848736
98	0x3ecc6bba	0.3992594
99	0x3ca648b9	0.020298349
100	0xbec3223a	-0.3811205
101	0x3e57973b	0.21053784
102	0xbd2fdb3d	-0.04293369
103	0x3eae8da3	0.34092435
104	0x3e17a03c	0.14807218
105	0x3d32be67	0.043638613
106	0x3c5288ff	0.012850045
107	0xbe066a61	-0.13126518
108	0x3c8169a1	0.015797438
109	0xbe26842f	-0.16261362
110	0x3e949fc6	0.29028147
111	0x3d131623	0.035909783
112	0x3de58f80	0.11209011
113	0xbdd86c4f	-0.10567533
114	0x3e809f4b	0.2512153
115	0x3e8876da	0.26653177
116	0x3e81216f	0.2522082
117	0x3e8c4b4b	0.27401194
118	0x3c8e365b	0.017359903
119	0x3cca7e03	0.02471829
120	0xbeb6814b	-0.35645518
121	0x3c893c93	0.016752517
122	0x3cc17481	0.023615124
123	0x3daecc86	0.085351035
124	0x3e3aefaa	0.18255487
125	0xbe0b8842	-0.13626197
126	0x3d481c82	0.048855312
127	0xbdb1a411	-0.08673871
128	0x3e2dcb70	0.16972136
129	0x3c58b2e8	0.013226248
130	0x3e15367c	0.14571565
131	0x3da19326	0.078893945
132	0xbdbde52b	-0.09272226
133	0x3e284fdf	0.16436718
134	0x3ecf96a0	0.40544605
135	0x3eb428bd	0.3518733
136	0xbd12f8a2	-0.035881646
137	0x3e20ca15	0.15702088
138	0xbe02f3ac	-0.12788266
139	0x3d90fc83	0.07079413
140	0x3e8ff552	0.28116852
141	0x3edab50b	0.4271625
142	0xbe9308b5	-0.2871758
143	0xbc841c3d	-0.016126746
144	0xbe4c72cc	-0.19965667
145	0x3e33e4b8	0.17567718
146	0xbea663ab	-0.32497916
147	0x3c3ce6c1	0.011529625
148	0x3e028e3b	0.12749569
149	0x3edaa232	0.4270187
150	0xbe443dac	-0.19164151
151	0xbe117dfc	-0.14208215
152	0xbd2c0714	-0.041998938
153	0x3cbaf004	0.022819526
154	0xbe203477	-0.15645014
155	0x3e0d21eb	0.1378247
156	0xbd551af1	-0.052027646
157	0xbe5b8940	-0.21439075
158	0xbe88e8ee	-0.2674021
159	0x3e3f8c8f	0.18705963
160	0x3e657bb5	0.22410472
161	0x3e8683a7	0.26272318
162	0xbe1cb988	-0.1530515
163	0xbd6e8a59	-0.058237407
164	0x3de3ee98	0.111294925
165	0xb9c48790	-0.00037485035
166	0xbd908cea	-0.07058127
167	0xbe50d0bd	-0.20392127
168	0x3db5eb21	0.08882738
169	0x3ec30f43	0.3809758
170	0xbb77290f	-0.0037713682
171	0xbe89e097	-0.2692916
172	0x3e88af34	0.2669617
173	0xbe3f442a	-0.18678346
174	0x3d8e1d5e	0.06939195
175	0x3edf74d1	0.4364381
176	0xbe3b79e2	-0.18308213
177	0xbe441e06	-0.19152078
178	0x3eac95de	0.3370809
179	0x3d8558a4	0.065110475
180	0xbe9fe317	-0.31227943
181	0xbe291b65	-0.16514356
182	0xbd507d7e	-0.05090093
183	0x3eccc116	0.39991063
184	0x3e354075	0.1770037
185	0xbd916c52	-0.071007386
186	0xbbf529c8	-0.0074817874
187	0x3da152a6	0.07877092
188	0x3cc7db60	0.024396598
189	0x3d4cf930	0.05004233
190	0x3e2cb15a	0.16864529
191	0xbd9188a9	-0.07106144
192	0x3da3c491	0.079964764
193	0x3d8afaf5	0.067861475
194	0xbdb57c0b	-0.0886155
195	0x3d851c98	0.064995944
196	0xbe20d59d	-0.15706487
197	0x3e34bf18	0.17651021
198	0x3e42b4b9	0.19014253
199	0x3d97bf8d	0.07409582
200	0x3e930b18	0.287194
201	0x3e1d1808	0.15341198
202	0xbeb65e63	-0.35618886
203	0xbe11aa0d	-0.14225025
204	0x3eb7e3a8	0.35915875
205	0xbeffa5d9	-0.4993122
206	0x3e2c240a	0.16810623
207	0xbf090b3c	-0.5353277
208	0x3d86a17d	0.0657377
209	0xbc68c08d	-0.014206064
210	0x3e451c48	0.1924907
211	0xbdd90b7d	-0.10597894
212	0xbe14ec4d	-0.14543267
213	0x3e9fa7c8	0.31182694
214	0x3e778b64	0.24174267
215	0x3e80b3ab	0.25137076
216	0x3ed378b9	0.41303042
217	0xbe1138d7	-0.14181839
218	0xbe608971	-0.2192743
219	0x3c49a9c0	0.012308538
220	0xbe8f3231	-0.2796798
221	0x3e85ac0d	0.26107827
222	0x3eea255e	0.45731634
223	0x3d752795	0.0598522
224	0xbed9b09d	-0.42517558
225	0x3edb8f30	0.4288268
226	0xbe620d5c	-0.22075409
227	0xbdb99056	-0.09060733
228	0x3ebd98e1	0.370307
229	0x3d31ea63	0.04343642
230	0x3ea742af	0.32668063
231	0x3c2fb1e8	0.0107235685
232	0xbd873b57	-0.06603115
233	0x3c0baba4	0.008524809
234	0x3e36798e	0.17819807
235	0x3dfd1636	0.12357752
236	0xbdfded2e	-0.12398754
237	0xbde30f0f	-0.110868566
238	0x3dad2708	0.0845471
239	0x3daa07c4	0.083022624
240	0xbe0b2c01	-0.13591005
241	0xbe126d92	-0.1429961
242	0xbe2f2611	-0.17104365
243	0xbe9aac66	-0.30209655
244	0xbda3ba89	-0.07994563
245	0xbd85b030	-0.06527746
246	0x3e5683d1	0.20948721
247	0xbe0d315a	-0.13788357
248	0x3e224477	0.1584643
249	0x3e4cbc63	0.19993739
250	0x3ecb1c88	0.39670205
251	0x3e2eea93	0.1708167
252	0xbe7ce352	-0.24696091
253	0xbcbddd90	-0.023176938
254	0xbd279034	-0.040909007
255	0x3eb5792a	0.35444003

bias f4 [12]
0	0x3ccb5d56	0.02482478
1	0x3d45daa6	0.048304223
2	0x3c2e7a19	0.010649228
3	0x3b266596	0.002539014
4	0x3ce0d605	0.027445802
5	0x3d606ccb	0.054791253
6	0xbd0745cb	-0.033025544
7	0x3a1cc384	0.0005980062
8	0xbd2093f7	-0.03920361
9	0xbad5b7a2	-0.0016305337
10	0x3adb0fc4	0.0016713073
11	0x3b2666b1	0.0025390799

weight f4 [12, 12, 3, 3]
0	0x3de483cf	0.11157953
1	0xbe6695d2	-0.2251809
2	0xbe502be1	-0.20329238
3	0x3e92d759	0.28679922
4	0x3c3108e6	0.010805344
5	0x3de4f08a	0.11178692
6	0xbe247077	-0.16058527
7	0xbdbb2caf	-0.09139382
8	0xbdb5a65f	-0.088696234
9	0xbdf3ad0c	-0.118982404
10	0x3f03d496	0.51496255
11	0x3d03286b	0.032020967
12	0xbbcfdb56	-0.0063432856
13	0xbc7b0800	-0.015321732
14	0xbe89be90	-0.269032
15	0xbdffc24b	-0.1248823
16	0x3cd75df3	0.026289916
17	0x3e6d0e03	0.23149876
18	0xbbba64e7	-0.005688298
19	0x3df1ba10	0.11803067
20	0x3e202449	0.15638842
21	0xbe4ec159	-0.20190944
22	0xbdfd6995	-0.12373654
23	0xbeb00a2e	-0.34382766
24	0x3dc87a22	0.0978892
25	0xbdadf953	-0.084948204
26	0xbb6698f7	-0.003518639
27	0x3e018291	0.12647463
28	0xbdbcfdee	-0.09228121
29	0xbc673d0d	-0.014113677
30	0xbc480aae	-0.0122095775
31	0xbe0d78e5	-0.13815649
32	0xbde5b4c0	-0.11216116
33	0x3e63fda9	0.22264732
34	0xbe91f2da	-0.28505594
35	0xbdd06891	-0.101761945
36	0xbe1a81d5	-0.1508859
37	0x3d1f8c94	0.038952425
38	0xbe8d4383	-0.2759057
39	0x3dc2b907	0.095079474
40	0xbdaacef3	-0.08340254
41	0xbe40f82e	-0.18844673
42	0x3e59b560	0.21260595
43	0xbe84e830	-0.25958395
44	0xbe02b33b	-0.12763683
45	0x3e2ef7be	0.17086694
46	0x3e8d4d8e	0.27598232
47	0xbe14287e	-0.14468572
48	0xbd31c9a2	-0.043405183
49	0x3dae1618	0.08500308
50	0xbc01cd94	-0.007922549
51	0x390fd354	0.00013716269
52	0xbdceb282	-0.100926414
53	0xbe9f352e	-0.3109526
54	0xbe8cfae8	-0.27535176
55	0xbd592870	-0.05301708
56	0x3e11a907	0.14224635
57	0xbe5ee6fd	-0.21767803
58	0x3e75ec22	0.24015859
59	0xbdd1442d	-0.102180816
60	0xbdc7e060	-0.09759593
61	0xbd83d935	-0.06437913
62	0x3e4d59fd	0.20053859
63	0x3e9830d0	0.2972474
64	0x3e4e5dee	0.20153019
65	0xbe294fd7	-0.16534363
66	0xbe8a0a56	-0.2696101
67	0xbe154ff1	-0.14581276
68	0xbe302c51	-0.17204405
69	0xbe167e5e	-0.14696643
70	0xbe5964ed	-0.21229906
71	0xbd86aeb0	-0.06576288
72	0xbe959481	-0.29214862
73	0xbcbd85e8	-0.02313514
74	0x3d878122	0.06616427
75	0x3e2cea7d	0.16886325
76	0x3e61b978	0.22043407
77	0xbe860a95	-0.26179948
78	0xbe21e8d6	-0.15811476
79	0xbe183eff	-0.14867781
80	0x3e655094	0.2239402
81	0x3d8fc3fa	0.070198014
82	0x3e31b867	0.173555
83	0xbe37a42e	-0.17933723
84	0x3ee066ca	0.43828422
85	0x3c8e310b	0.01735737
86	0xbdc59fe6	-0.09649639
87	0x3cb9fe05	0.022704134
88	0x3db11611	0.08646787
89	0x3e21e3f8	0.1580962
90	0xbe27f3c4	-0.16401583
91	0xbd8529aa	-0.065020874
92	0x3e0b8919	0.13626517
93	0xbe409f33	-0.1881073
94	0x3dc48eb2	0.095975295
95	0xbdf8bb7b	-0.12145134
96	0xbdc556df	-0.0963571
97	0xbd85732e	-0.065161094
98	0xbcd250b0	-0.02567324
99	0xbe013489	-0.12617697
100	0x3e860724	0.26177323
101	0x3dbd1066	0.092316434
102	0xbee4d396	-0.44692677
103	0x3db17143	0.08664181
104	0x3e921d37	0.28537914
105	0xbc2cf5c8	-0.010556646
106	0xbe4ce3d5	-0.20008786
107	0x3c6152e4	0.013752673
108	0xbe0e0ee7	-0.13872872
109	0xbee671e9	-0.45008782
110	0x3d9bf58e	0.07615195
111	0x3d781480	0.060566425
112	0xbd1f44ea	-0.03888408
113	0x3e570891	0.20999362
114	0x3df03cf0	0.11730373
115	0xbe3e029d	-0.18555684
116	0x3cf9bd06	0.030485641
117	0xbe4016dd	-0.18758722
118	0xbe7e3a8d	-0.24827023
119	0x3d0f2f10	0.03495699
120	0x3ca3d785	0.020000229
121	0x3dc65e11	0.096859105
122	0xbd87d850	-0.06633055
123	0xbe4ede51	-0.20201994
124	0x3e4d5b17	0.2005428
125	0x3def3dd1	0.116817124
126	0xbd98a4bd	-0.07453296
127	0x3d1f6f01	0.03892422
128	0x3d91db3f	0.07121896
129	0x3df3fc4e	0.11913358
130	0xbe8bc8a2	-0.27301508
131	0x3dc0a61a	0.09406681
132	0xbd88f75c	-0.06687805
133	0x3e9e6ff9	0.30944803
134	0xbd8b66d1	-0.0680672
135	0xbdb03d70	-0.08605468
136	0x3c8c577d	0.017131561
137	0x3e18eb67	0.14933549
138	0xbe47a3f7	-0.19496141
139	0x3dc773e4	0.09738901
140	0xbdfa5ad8	-0.12224358
141	0x3e0a0668	0.13479006
142	0xbdff8b7c	-0.124777764
143	0xbe18611a	-0.14880791
144	0x3d9fe93a	0.07808156
145	0xbe3476dd	-0.17623468
146	0xbe0309c0	-0.12796688
147	0xbc7817ed	-0.015142423
148	0xbe5042a9	-0.20337929
149	0xbe2033a1	-0.15644695
150	0x3e04a6df	0.12954281
151	0xbd925f74	-0.071471125
152	0x3e39b61c	0.18135875
153	0x3da43b11	0.080190785
154	0x3d8a173b	0.06742712
155	0xbe4da2d6	-0.20081648
156	0xbd52ce22	-0.051466115
157	0xbe8284b5	-0.25491872
158	0x3dcc03be	0.09961651
159	0xbe6cf9c8	-0.23142159
160	0xbe569a44	-0.20957285
161	0xbd4cef68	-0.050033003
162	0x3e981614	0.29704344
163	0xbddd040a	-0.10791786
164	0xbdf2b492	-0.11850847
165	0xbe303ad1	-0.17209937
166	0x3dab921c	0.083774775
167	0x3e35b808	0.17745984
168	0x3cb1f3c6	0.021722686
169	0x3ca466f6	0.020068627
170	0xbd5d815a	-0.054078437
171	0xbeb06fe5	-0.3446037
172	0xbe329a5c	-0.17441696
173	0xbe50f036	-0.20404133
174	0x3d988bc6	0.07448535
175	0xbe12bdd0	-0.1433022
176	0xbe66b768	-0.22530901
177	0xbdefd97b	-0.11711403
178	0x3dbd41b4	0.092410475
179	0x3d6f33eb	0.058399122
180	0xbde6b3ff	-0.112648
181	0xbdadcaef	-0.08485972
182	0x3db18910	0.08668721
183	0x3e89ab69	0.26888588
184	0x3e7884cb	0.24269406
185	0x3e305dba	0.17223254
186	0x3dbc3a42	0.09190799
187	0xbd86d89a	-0.06584282
188	0x3c91fdb9	0.01782118
189	0xbc8d26bb	-0.017230382
190	0xbadd7d12	-0.0016898236
191	0x3e81e953	0.25373325
192	0xbe8316f4	-0.2560345
193	0x3da0e5e4	0.07856348
194	0x3d75addc	0.05998026
195	0xbe153a0f	-0.14572929
196	0xbe66fd52	-0.22557572
197	0xbec2cc9b	-0.38046727
198	0xbd8e1bd9	-0.06938905
199	0xbcdd9103	-0.027046686
200	0x3d91a5de	0.07111715
201	0x3eeab160	0.4583845
202	0x3da9b8b4	0.082871825
203	0x3e1ec56b	0.15504996
204	0xbea489c3	-0.32136354
205	0x3ec6a8e0	0.38800716
206	0xbc29dbbf	-0.010367333
207	0x3de88f7f	0.11355495
208	0x3e1f4b76	0.1555613
209	0xbd86cd75	-0.065821566
210	0x3e7a0d6c	0.24419183
211	0x3e0cc7b6	0.13748059
212	0xbe2dc78e	-0.16970655
213	0xbdd56b33	-0.10420837
214	0x3bf56642	0.0074889967
215	0x3d762815	0.06009682
216	0x3deb31e7	0.114841275
217	0xbc925f97	-0.017867846
218	0xbce202f8	-0.027589306
219	0xbedd9ff3	-0.43286094
220	0xbcb585ab	-0.022158464
221	0xbe8c55de	-0.2740926
222	0xbe34ec0a	-0.17668167
223	0xbe5f0c8b	-0.21782129
224	0x3dae9af9	0.085256524
225	0x3e2d461c	0.16921276
226	0xbd3e0e52	-0.046400376
227	0x3e886bde	0.26644796
228	0x3ee4b8f4	0.44672358
229	0x3cadb86a	0.0212061
230	0xbdc39016	-0.095489666
231	0x3dd7ade5	0.105312146
232	0xbdc9bbd7	-0.09850281
233	0x3e6dc100	0.23218155
234	0xbe4e6457	-0.20155464
235	0xbdfe8975	-0.124285616
236	0x3d8034ac	0.06260046
237	0xbe6d2740	-0.23159504
238	0x3da5220b	0.08063134
239	0xbd2d8b8d	-0.042369414
240	0x3c04019e	0.008057026
241	0x3dce81c0	0.100833416
242	0xbcd3fb69	-0.025876718
243	0xbe1bc24a	-0.15210834
244	0x3d61aa9d	0.05509435
245	0xbdc31dfd	-0.09527204
246	0xbe68977f	-0.22714041
247	0xbd475356	-0.04866346
248	0xbdd52a09	-0.10408408
249	0xbe2a0b85	-0.16605957
250	0x3d0f4586	0.034978412
251	0xbe64be22	-0.22338155
252	0xbdffb98f	-0.12486564
253	0x3e285724	0.16439492
254	0x3d9769ea	0.073932484
255	0x3cb13ce9	0.02163549

bias f4 [12]
0	0xbc2a8ef2	-0.010410057
1	0x3c0b7cbd	0.008513627
2	0xbc0e470f	-0.008683934
3	0x3deb3a8b	0.114857756
4	0x3a1abc2c	0.00059026736
5	0xbd2fe016	-0.042938314
6	0xbca93e3a	-0.020659555
7	0xbcad0207	-0.02111913
8	0xbd082507	-0.033238437
9	0xbb9bd2e6	-0.0047553657
10	0xbda31b6e	-0.07964216
11	0xbd02bcaf	-0.031918224
