model/epoch_279.pt (torch, 65657 bytes, 15 tensors)

weight f4 [64, 1, 5, 5]
000000 8e e6 23 3e d0 0c cf bc 8e a0 9f bc d0 95 63 3d
       0.16005918 -0.025274664 -0.019485738 0.055562794
000010 27 45 7f be d1 a3 36 3d 44 b1 57 3e 25 39 f0 bd
       -0.24928723 0.04458982 0.21063715 -0.117296495
000020 46 22 cb bd f6 ad cf 3e 19 a5 fa bd ca 05 a0 3d
       -0.099186465 0.4056241 -0.12238521 0.07813604
000030 df 0c 4f 3d 35 84 20 3e 34 c7 71 be 58 de 95 3e
       0.050549384 0.15675433 -0.23611146 0.29271197
000040 6e dd df 3d 20 15 0e be eb 22 47 be 8c 0a 3e bd
       0.10930906 -0.13875246 -0.19446914 -0.046396777
000050 9a 6c 6d 3e 97 ec da 3d 7f dc f7 bc de 65 a7 3e
       0.2318596 0.10689657 -0.030256508 0.32694906
000060 cd fd c5 be 88 f2 0c be cd ce 9f 3c d4 27 d0 bd
       -0.38670197 -0.13764393 0.01950779 -0.101638466
000070 fa ef d1 ba 2c e4 2b 3e 8a 57 30 3e 1c 2d ce bd
       -0.0016016953 0.1678626 0.17220894 -0.10067198
000080 fe c4 12 be 92 f9 30 3e 57 a3 a0 be 03 1e 65 bc
       -0.14332959 0.17282704 -0.31374618 -0.013984206
000090 77 49 d7 3d 4f 36 ff bd 76 bd a6 3d 83 63 d7 3d
       0.10512059 -0.124615304 0.081416056 0.10517027
0000a0 03 f3 26 bd c1 80 2a 3e 17 54 b8 3d 6a 02 48 3d
       -0.040759098 0.16650678 0.09000414 0.048830427
0000b0 e3 cc 1b 3e 66 0a 32 3d a9 74 22 be e0 87 5b 3d
       0.15214877 0.043466948 -0.15864815 0.053596377
0000c0 c7 8e 55 be 27 0c 84 3e eb d0 c9 bd 57 43 90 3d
       -0.20855246 0.25790522 -0.09854301 0.07044094
0000d0 ca 15 02 3e 0e 87 cb bc b1 5b 28 3e 6b 2c 8b 3c
       0.12703624 -0.024844673 0.16441227 0.016988954
0000e0 6c 0e 47 3e 61 cc 8a be c1 32 9b be 1b 32 9a 3e
       0.19439095 -0.27109054 -0.3031216 0.30116352
0000f0 ef d3 c9 3d 4b 86 38 3e cf 04 4f be cd 79 d3 be
       0.09854876 0.18019979 -0.20216678 -0.41303864
000100 da 72 28 3e a1 c0 d1 bb f3 61 28 bd 21 26 ea bc
       0.16450062 -0.006401137 -0.041109037 -0.028582634
000110 ca a3 8d 3e 60 2d 8d be 1f 3d ea 3d ab 65 26 be
       0.27664024 -0.2757368 0.11437439 -0.16249721
000120 c4 9a ca 3b 10 6f 29 bd c2 65 02 be 8f 28 77 3e
       0.0061830003 -0.041365683 -0.1273413 0.24136566
000130 4e 4b 4f bd 45 a0 96 3d 98 a1 a2 be b9 61 73 3e
       -0.050608926 0.07354788 -0.3176391 0.23767747
000140 dd 76 76 3d 2e a9 06 3c 31 5a d8 3a e7 20 bb 3d
       0.06017195 0.0082190465 0.0016506371 0.09137135
000150 f3 ef 3d be 60 fe aa be 15 b2 0d bf 92 e5 31 3d
       -0.18548565 -0.33397198 -0.55349857 0.043431826
000160 c8 af 24 3e c9 24 f3 bd 5c 5e b6 3d 4c 81 ad bc
       0.1608268 -0.118722506 0.08904716 -0.021179818
000170 c2 42 23 3d be 72 15 3e a3 47 cb 3d a8 e3 38 be
       0.039858587 0.14594552 0.09925773 -0.18055594
000180 23 23 07 be 39 fa 19 3d 40 8a c7 3d bb 1b d2 3d
       -0.13196997 0.037592147 0.09743166 0.102591954
000190 d3 51 02 bf df c6 10 bf f9 e7 67 3e 93 2c 74 3d
       -0.50906104 -0.56553453 0.22647084 0.05961282
0001a0 3d a1 7d bd 3c a8 91 3e 95 47 ee 3e c8 a5 f6 bc
       -0.061921347 0.28448665 0.46538988 -0.030108348
0001b0 a4 0a 5b 3d c2 ef b6 bb ba c5 93 3e 27 a2 07 be
       0.053476945 -0.0055827806 0.2886179 -0.1324545
0001c0 64 9f fc bd bf 56 26 be 8b d9 39 3e d2 61 a6 be
       -0.12335089 -0.16244029 0.18149392 -0.32496506
0001d0 fa 45 25 be 18 e5 37 bd 97 21 c0 be c3 46 f8 be
       -0.16139975 -0.044896215 -0.37525627 -0.48491487
0001e0 fb 25 5c bd 5c f3 7c 3e 6d a7 8e 3a 9e b5 c3 3e
       -0.05374716 0.24702209 0.0010883637 0.382245
0001f0 15 36 33 3d b9 2a da 3d 24 5e 28 be df 36 1b bd
       0.04375275 0.1065268 -0.16442162 -0.037894126
000200 7a 12 8a be 9b b0 27 be 0a ae 98 3d 46 8f ac be
       -0.26967221 -0.16375963 0.0745507 -0.3370306
000210 cd 0e 83 3e f7 49 01 be 3c 4a 82 bd 8d 40 d0 bc
       0.2559723 -0.12625872 -0.06361815 -0.025421405
000220 85 8b f4 3d 08 fd 2c 3d 61 1a b3 be 9a 03 54 be
       0.11940674 0.042233497 -0.34981063 -0.20704499
000230 14 de 9c bd b1 d0 87 be 5c 0b bb 3d 63 d4 dd ba
       -0.076595455 -0.26526406 0.09133026 -0.0016924258
000240 c9 dc 47 bd 8d 5f bf bd 3c 07 e5 3c 70 1e 9c 3e
       -0.04879454 -0.09344397 0.027957551 0.30491972
000250 24 73 ea bd 10 5a e5 3e 4a d8 da bc 51 f7 84 bc
       -0.114477426 0.44795275 -0.026714463 -0.01623121
000260 39 9a d9 3b 6a 23 61 3e 83 6e 79 be 5e e7 8b be
       0.006640699 0.21986166 -0.24358563 -0.27324957
000270 1a 0a 0c 3c 32 81 07 be 39 46 d8 be d4 f2 0f be
       0.00854733 -0.13232878 -0.42241076 -0.14057475
000280 37 39 65 be 5a aa f3 3d 11 0c f6 3d 0f 27 95 bd
       -0.22385107 0.11897726 0.1201402 -0.072828405
000290 94 ea 58 be eb 0b cf bd c4 fd 14 be ce 05 b6 bd
       -0.21183234 -0.10109695 -0.14549929 -0.08887826
0002a0 87 3e 05 3e 00 42 fc 3d c8 9c 8e 3e cb a7 a7 3e
       0.13012134 0.12317276 0.2785399 0.32745203
0002b0 48 ed c5 be 86 cd 1e 3e 5d 92 ac be 81 71 ac be
       -0.38657594 0.15508088 -0.33705416 -0.33680347
0002c0 fc 54 8e 3d da cf 1d 3f 91 3d 1a 3e 0e 73 0f 3d
       0.06949803 0.6164528 0.15062548 0.035021834
0002d0 92 7c 04 bf 66 85 d0 3d c0 4c 71 be 6c 44 15 be
       -0.5175258 0.10181694 -0.23564434 -0.14576882
0002e0 e5 1a 0d 3e 8f b4 f9 3e 63 fa 57 3d 96 f4 c1 bc
       0.1377979 0.48770568 0.05272902 -0.023676198
0002f0 8b fb 0b b9 6b 13 e2 3d 4e c1 19 3d 3f b0 06 3e
       -0.0001334978 0.1103886 0.037537865 0.1315317
000300 25 4b 50 bd 5b 36 a6 3d 62 f2 87 3b 74 12 9f bd
       -0.050852913 0.08115836 0.0041487673 -0.077671915
000310 42 78 18 be 5b 55 ba 3b 2c ab 4b 3c 59 b0 1b 3d
       -0.14889625 0.0056864447 0.012430947 0.038009975
000320 1d 2c a0 3c c7 42 3c be f4 85 27 3e dd bb f7 bc
       0.019552285 -0.18384849 0.16359693 -0.030240947
000330 3d a1 a8 3d 04 65 bf bd 5a dd 22 bd 0a 9e 5a 3e
       0.08233879 -0.09345439 -0.03976188 0.2134935
000340 c5 f7 bc 3e 6e 29 e6 bb 3f 09 b3 bd 5a 26 7f bc
       0.36907783 -0.007023982 -0.08741998 -0.015573109
000350 82 f6 a2 be e3 7c 37 3b e8 25 09 3d 60 d5 72 be
       -0.31828696 0.0027998022 0.033483416 -0.23714209
000360 29 86 49 be 7c a0 d6 bd 91 a0 99 be 09 87 06 be
       -0.19680084 -0.10479829 -0.30005315 -0.1313745
000370 70 36 2e be b8 45 c9 be 47 4d b9 bd ad 0c 7c bd
       -0.17012954 -0.39311004 -0.090479426 -0.061535526
000380 a9 ef bf 3d e6 e4 c6 bc a3 e0 82 3e 85 81 9c be
       0.093718834 -0.02427907 0.2556201 -0.30567566
000390 97 02 94 bd a7 b8 92 be da b3 74 be fb 86 1b 3d
       -0.072270565 -0.28656504 -0.23896733 0.037970524
0003a0 61 bd 85 3c dd 3b 93 3d 84 3f ab be 39 de d7 3d
       0.016325654 0.071891524 -0.33446896 0.105404325
0003b0 ac 7e b9 be 07 c1 7a be 23 34 4a 3d 45 42 5c be
       -0.36229455 -0.24487697 0.049366128 -0.21509655
0003c0 52 fe 03 be ff 2c 69 be 4f 0e 52 3e c5 1a 99 bd
       -0.12889984 -0.22771071 0.20513271 -0.07475809
0003d0 92 1b 64 be 1d c2 a4 bd 63 96 d4 3d 96 e7 60 bd
       -0.22276142 -0.08044837 0.103802465 -0.054908358
0003e0 84 4d 33 3e 89 0e 57 3e 59 b0 07 3c 60 1e fc 3d
       0.17510039 0.21001638 0.008281791 0.12310481
0003f0 c0 b3 38 3e f6 dd 27 be a4 bc 1c bd 3c c3 30 bf
       0.18037319 -0.16393265 -0.03826584 -0.69047904

bias f4 [64]
000000 7d f2 03 3d a3 f0 79 bd 7e c9 aa 3c 1c 8a a0 3c
       0.032213677 -0.061020505 0.020848032 0.019597106
000010 65 31 94 bd 89 1c 87 3c 0d 9d 53 bd 79 c7 f9 bc
       -0.07235984 0.016493099 -0.051663447 -0.030490624
000020 31 89 0f bd 17 29 a7 bc 2d 00 fc 3c 35 aa f6 bc
       -0.035042945 -0.020405335 0.030761803 -0.030110458
000030 3e 02 da 3a eb 09 4b bd a3 46 7f 3c a4 74 68 bd
       0.0016632748 -0.049570005 0.015580806 -0.056751862
000040 dd aa ee 3b 91 93 99 3d 64 0b 11 3d ea fb a0 bd
       0.007283552 0.07498849 0.035411254 -0.07860549
000050 3a d8 56 bd 25 8a 65 3c 9c 4b 18 3d c2 88 82 bd
       -0.052452303 0.014009987 0.03718148 -0.06373741
000060 09 45 81 bd 1b 4e aa 3c c6 2b 8e bd 1e 0d ae bc
       -0.063119955 0.020789197 -0.06941943 -0.02124649
000070 fe ed 70 bd af e7 77 3d 94 bb 8f bc f1 46 e1 39
       -0.058820717 0.060523685 -0.017545499 0.000429682
000080 05 6d 95 3d c1 09 2c 3d 09 f4 1a bd 5e 97 30 bc
       0.072961845 0.04200149 -0.037830386 -0.010778276
000090 ae 0b 10 bd 89 0c 3e 3d e9 ff 92 bd cc 24 b0 bb
       -0.03516739 0.046398673 -0.07177717 -0.0053754803
0000a0 fc 67 26 3d 51 c4 7f 3d 2d f6 90 3c dc 1d 86 3d
       0.04062651 0.06244308 0.01769551 0.06548664
0000b0 74 73 1d 3c a7 36 05 bd 19 55 c9 bc c1 74 dc 3c
       0.009610046 -0.032522824 -0.02457671 0.026911141
0000c0 1f 33 3c 3d a2 57 4b bd 8f a3 c9 3c e6 a6 30 3d
       0.04594719 -0.04964412 0.024614124 0.043127917
0000d0 95 45 49 bc 52 49 45 bc 1c e2 30 bd 1b d4 ac 3d
       -0.012284656 -0.012041407 -0.043184385 0.084388934
0000e0 dc f2 1c bd 02 ba b0 bd 9c 3d 94 ba df d0 a1 3d
       -0.038317546 -0.08629228 -0.0011309865 0.07901167
0000f0 e0 9e 78 bd d2 cd 6f bd 1e 3b 3d bd 55 5b 3d 3d
       -0.06069839 -0.058545895 -0.046198957 0.04622968

weight f4 [12, 64, 1, 1]
000000 6a ac 4e 3e 00 79 b9 bd 0a 01 31 bd 10 68 a4 3e
       0.20182958 -0.09056282 -0.04321388 0.32110643
000010 cf 9d 52 3e 16 15 eb 3d 97 fb b7 bb 2e 39 60 be
       0.20568012 0.11478631 -0.0056147086 -0.21896812
000020 2a 4f 78 bc d3 ba 08 3e 9d b1 eb bd 0d fa 99 be
       -0.015155593 0.13352518 -0.115084864 -0.30073586
000030 48 73 68 3d 40 4e 75 be a9 29 8e be 31 25 ae 3d
       0.056750566 -0.23955631 -0.2776616 0.085031874
000040 d0 d4 cb 3b 95 1d 74 3e 2e cb 86 3e e6 de 51 be
       0.0062204376 0.2383941 0.2632689 -0.20495185
000050 11 e4 3d be de 7b 02 bf 7f ed c5 bc 1e c1 ac 3d
       -0.18544032 -0.50970256 -0.024161099 0.08435272
000060 57 7e d8 3d cd 85 dc bd 83 b4 85 be e2 be 88 bd
       0.105709724 -0.10767708 -0.26114282 -0.06677033
000070 9a 9b 31 3d ae a4 46 3c 5a ba 6f bd c8 cb d0 3d
       0.043361284 0.012124224 -0.058527328 0.10195118
000080 b0 22 20 bc 26 d5 dd bd 47 cd f2 3d 62 ae b2 bc
       -0.009773895 -0.108316705 0.1185556 -0.021811668
000090 3f 95 58 3d cf 7d 78 3e cd b5 cf 3d fb d2 54 3c
       0.052876707 0.24266742 0.101420976 0.012989755
0000a0 f2 6c 1a bc d9 01 82 be d0 f1 f8 3d 9c ec 49 3e
       -0.009425389 -0.25392035 0.12155497 0.19719166
0000b0 9a e6 d2 3d cb 48 0c be 4d 50 3b be d3 62 20 3e
       0.1029789 -0.13699643 -0.18292351 0.15662698
0000c0 72 07 56 be 7f ca d6 bd c8 9c 2b bd 62 6e 16 be
       -0.20901278 -0.10487842 -0.041897565 -0.14690545
0000d0 ec d4 b4 bd 0e ec 2b be c6 5d 28 3d 5b 61 d7 3d
       -0.08829674 -0.16789266 0.041105054 0.10516616
0000e0 e2 00 e6 bc cd 51 bb 3e 84 5c 91 3e 13 90 05 be
       -0.028076593 0.36585847 0.28390896 -0.13043241
0000f0 2e bb 61 3e 3c c7 70 3e e0 59 0d bc 3a 74 87 3e
       0.2204406 0.23513502 -0.008627385 0.2645586
000100 11 1c 58 be 6c 84 11 3e 3d 0c 49 be 9b b7 39 3e
       -0.21104456 0.14210671 -0.19633575 0.18136446
000110 04 15 45 3e 52 9f 01 bb bc 54 10 be 0d 11 38 be
       0.19246298 -0.00197788 -0.14094824 -0.17975254
000120 b7 82 84 be 3d 46 a0 3d 03 28 88 3e fa f7 f9 bd
       -0.25880978 0.07825897 0.26593027 -0.12205501
000130 c3 8b 84 3e be 77 7c 3d 4d 78 1e bc 50 6d e3 3d
       0.2588788 0.061637633 -0.009672237 0.11104834
000140 20 74 5b 3e ea cd 3b be 3a 30 f7 bd 2f 39 78 3d
       0.21431017 -0.18340269 -0.12069745 0.06060141
000150 1f 94 82 3b c1 1c 46 be 0f f9 73 3d 3c e4 de bc
       0.0039849426 -0.19346906 0.059563693 -0.02720844
000160 f6 62 a6 3c 9b be 20 be ab 91 52 bd 4d 4e 79 3c
       0.02031086 -0.1569771 -0.05140845 0.015216422
000170 00 94 95 3e c8 ec b3 3c 59 6c 1a 3e 73 17 60 3d
       0.29214478 0.021963492 0.15080394 0.054709863
000180 0c fe df be 0d fa 1a 3e c9 d8 0d be 33 7f b4 3d
       -0.4374851 0.1513445 -0.13852228 0.08813324
000190 36 e7 fd 3d 25 19 96 be b7 75 08 be de cd 49 3e
       0.123976156 -0.2931606 -0.13326155 0.19707438
0001a0 d5 e8 e2 3d 71 39 7d bd e7 dd d9 be 3f c1 eb bd
       0.110795654 -0.06182236 -0.4255211 -0.11511468
0001b0 a1 4e 84 bd c5 33 8b be 91 fd 9c be 60 5c a2 be
       -0.0646031 -0.27187935 -0.30662206 -0.31711102
0001c0 d8 0b 9d be d0 77 a6 bc 40 cf 40 be b5 69 56 be
       -0.306731 -0.020320803 -0.1882906 -0.20938762
0001d0 fb d6 df bd 3c c4 07 3d a4 90 83 3e ab 1e 65 be
       -0.10929676 0.033146128 0.2569629 -0.2237498
0001e0 9c dc a9 3d b4 7c bc bc 14 2e f2 3d 0f ba aa ba
       0.08294031 -0.023008682 0.11825195 -0.001302542
0001f0 a1 30 a5 3c 15 bc 52 3e 56 7d e2 3d 20 e7 31 be
       0.02016479 0.2057956 0.11059062 -0.17373323
000200 c5 80 91 3e 1b a9 28 be 99 73 3b be 35 6c 09 be
       0.28418556 -0.16470759 -0.18305816 -0.13420184
000210 63 f5 9b bd a8 af 9a 3e 19 ad 75 be cd 59 e5 bd
       -0.07615163 0.3021214 -0.23991813 -0.11198769
000220 b9 bd b1 bd b1 d4 2a 3e 4e 0a a1 be 10 26 d2 bd
       -0.08678765 0.16682698 -0.31453174 -0.10261166
000230 5b 47 9c 3c 1a 72 fc bc 34 9e d1 3d e2 c7 78 be
       0.019076994 -0.030816127 0.10235253 -0.24294999
000240 83 0f ed be b6 70 3f be 7b 39 c4 bd ca a8 79 be
       -0.46300897 -0.1869534 -0.09581276 -0.24380794
000250 88 5e c6 bd 26 4f 79 bd 69 60 0c 3e 2e 9c 0a be
       -0.09685999 -0.060866497 0.13708653 -0.1353614
000260 2b ed 90 be 70 1e 71 be b4 ca 98 be c7 70 85 3e
       -0.28305945 -0.23546767 -0.2984215 0.26062605
000270 b2 44 99 bd ab 6c 12 3c 83 e4 03 3f c6 e9 6c bd
       -0.07483806 0.008937041 0.51520556 -0.05784013
000280 2f e1 fc 3d 91 8f 07 bd e4 38 1d be 1b a9 f1 be
       0.12347638 -0.0330959 -0.15353733 -0.4719933
000290 b7 5d 3c bd 74 4a 3c be 39 40 90 bc c6 27 77 3b
       -0.04598781 -0.18387777 -0.017608749 0.0037712916
0002a0 2a cf d1 3d ba b0 cd be 83 17 de b9 99 d1 8a 3b
       0.102445915 -0.40173894 -0.00042360657 0.004236412
0002b0 e4 05 cb 3d 6a c3 09 bb ab 25 84 3e 54 3a 3d be
       0.09913233 -0.0021021017 0.25809988 -0.18479282
0002c0 d4 4e fb 3d fb f8 2f be 4b ac 8f 3e 92 95 d8 3b
       0.12270895 -0.17184822 0.28061137 0.006609627
0002d0 5f 28 7f be af cf 16 3e 6d 3b 1f 3d db e8 ef bd
       -0.24917744 0.14727663 0.038875032 -0.117143355
0002e0 7a e0 d4 bb 87 14 33 3d ae f2 00 3f 63 db d4 3c
       -0.0064964863 0.04372075 0.503703 0.025983518
0002f0 11 a1 4a 3e 8f 46 92 be 04 a4 14 be f2 05 02 be
       0.19788004 -0.28569457 -0.14515692 -0.1269758
000300 ef 1c 20 be a9 0e 37 be 7a 4b 0c be 78 b9 c0 be
       -0.15636037 -0.17876686 -0.13700667 -0.376415
000310 68 dd 0d be 99 f4 00 be 06 1a c1 be 2a 2c 03 3d
       -0.13853991 -0.12593307 -0.37715167 0.03202454
000320 c6 f5 0f 3e d6 20 8f 3d b7 8a b3 3c 33 9f a5 bd
       0.14058599 0.06988685 0.02191673 -0.080870055
000330 e7 1c fd 3d bf f1 3d be 45 95 9a 3e 1b 50 55 be
       0.12359028 -0.1854925 0.3019201 -0.20831339
000340 5f 8e a8 3c 0b 17 be 3c 30 3c f6 bd eb 6f 85 bd
       0.0205757 0.023204347 -0.120231986 -0.06515487
000350 b0 84 f1 bd ec ff 3a bc 70 9c 2c be 84 70 4b 3d
       -0.11792886 -0.011413556 -0.16856551 0.04966785
000360 6e 87 ef bd 92 af 06 be f1 9c 0d be ee ed c4 bd
       -0.11695753 -0.13152912 -0.138294 -0.09615694
000370 d7 b4 58 be 6c 98 fd 3d 6a ce e2 bd f3 9b a2 bc
       -0.21162735 0.12382588 -0.110745266 -0.019849753
000380 da 83 e8 3e 26 d9 23 be 48 20 cb 3d ee ef b2 3d
       0.45413095 -0.16000804 0.099182665 0.08737169
000390 1c 6c cc bd a5 9c 97 bd 71 8a a9 bc f7 60 83 3c
       -0.09981558 -0.074029244 -0.020695897 0.016037447
0003a0 bd 4c de bd f6 3f 48 be 88 9b 0f be 97 a1 38 be
       -0.108544804 -0.19555649 -0.14024174 -0.18030392
0003b0 e1 05 c6 3e 5e 03 88 be d8 26 94 be 2d 02 f8 3d
       0.3867636 -0.2656507 -0.28935885 0.1210979
0003c0 c9 6b f7 3b 2d 9b ee 3d fb de 26 3c 69 c9 2a 3e
       0.007550691 0.11650691 0.010184999 0.16678394
0003d0 35 63 c0 be de 8f 4c 3e 7a 68 51 bd 95 f4 a8 3e
       -0.3757569 0.19976756 -0.051125027 0.329991
0003e0 ca bf 5c 3d 82 72 25 be b0 c0 73 bd bb 2b fd bd
       0.05389384 -0.16156963 -0.059509933 -0.123618565
0003f0 52 8c 91 be 59 3a 74 3c b6 28 e8 bc 67 f8 89 bd
       -0.28427368 0.014906489 -0.028339725 -0.06736832

bias f4 [12]
000000 e3 ea f6 3c 86 bb 81 3c ed 5a 20 3d 77 21 3a 3d
       0.0301413 0.015836488 0.039149214 0.04544207
000010 35 3b 3b 3d fe ff 72 ba 2d c6 0f 3c 85 b0 dc 3b
       0.04571076 -0.0009269713 0.008775276 0.00673491
000020 82 fa 9e 3a c3 a5 32 bd 67 a5 b2 bc 12 fd 07 3e
       0.00121291 -0.043615114 -0.021807386 0.13280132

weight f4 [12, 12, 3, 3]
000000 4a 9c 8f be e1 56 1e bc 7f dc 5f bd a3 21 12 be
       -0.28048927 -0.009664268 -0.05465364 -0.14270644
000010 c2 cb fa 3d e7 08 e5 bd e8 a8 d8 3d 58 3e c2 3e
       0.12245895 -0.111833386 0.10579091 0.3793819
000020 1e 59 22 be d2 1a a0 3d 1e a4 25 bd 99 73 0f 3e
       -0.15854308 0.078176156 -0.040439717 0.14008941
000030 62 f6 b0 bc 1f 21 88 bc 53 d1 72 be 2e ca 9a 3d
       -0.02160186 -0.016617356 -0.23712663 0.07558094
000040 9d 1e 00 3e 58 41 03 3e 44 1d c6 3c 08 7c 1d 3c
       0.12511678 0.12817895 0.024183877 0.009612091
000050 13 8e 1e be 87 75 13 be f9 05 c6 bd 7f 05 96 3e
       -0.15483885 -0.14400302 -0.09669108 0.29301068
000060 58 0e 50 3e 43 37 4a bd c7 a7 f5 bd e1 6e 25 be
       0.20317972 -0.049369108 -0.119948916 -0.16155578
000070 c2 86 ab be 01 1a be 3d 04 f0 34 be 2f 77 8e be
       -0.3350125 0.092823036 -0.17669684 -0.27825305
000080 53 bd b3 bd fd 43 2d bd d1 38 2e be e8 4c 73 3e
       -0.08776345 -0.042301167 -0.17013861 0.23759806
000090 f9 05 5a be df ed be 3b 5b b9 3c 3e 20 76 38 3e
       -0.21291341 0.0058266963 0.18430082 0.18013811
0000a0 b5 8f 43 3d ba 5c a2 3d dd f9 19 3e 90 76 d8 be
       0.04774447 0.079278424 0.15036722 -0.42277956
0000b0 c1 0f 42 3e d5 32 9d 3d f8 3b 02 bd 86 f6 fe bd
       0.18951322 0.07675711 -0.031795472 -0.12449364
0000c0 ac cd 81 3b 46 5a 1c be 89 17 56 3e fa 2c 0d 3e
       0.0039612856 -0.15268812 0.20907415 0.13786688
0000d0 cb 8e ae 3e 68 f8 94 3d 09 ee b0 bd f3 3e 27 3e
       0.34093317 0.07273942 -0.086391516 0.16332607
0000e0 e2 41 7b 3e a6 f8 0a 3e 4c ed 87 be be 8d 8a 3d
       0.24536851 0.13571414 -0.2654823 0.067653164
0000f0 21 80 80 bd e2 d9 69 3d 8c 39 89 be f9 aa 94 be
       -0.06274439 0.057092555 -0.26801717 -0.29036692
000100 37 d2 3a be 43 d8 53 3e 23 44 ac bc 08 7c 6f 3e
       -0.18244253 0.20687966 -0.021028584 0.23387158
000110 a3 45 8d 3d dc cc 01 3c 0f 2a 25 3e c3 bf a4 be
       0.06898048 0.007922377 0.16129325 -0.32177553
000120 53 3f 9c 3d b3 c1 aa 3e 3f ec c7 3d a4 96 11 bf
       0.07629266 0.33350906 0.09761857 -0.56870484
000130 44 dc 70 bd 9e 13 c4 be b6 86 e6 3d 53 ee 5c 3e
       -0.05880381 -0.38296217 0.11256163 0.21575288
000140 50 cd 2f 3c cb 51 74 be 96 5a f8 3d 00 c4 51 3d
       0.010730103 -0.23859327 0.12126653 0.05121231
000150 78 1d 76 bd ba 39 20 3e b9 6d 0d 3e 42 11 df 3d
       -0.060086697 0.15647021 0.13811387 0.108919635
000160 66 70 95 be 1e 60 7e be 58 08 b5 3e d0 98 83 be
       -0.29187316 -0.24841353 0.35357928 -0.25702524
000170 93 5e b3 be 03 9a 8d bd 0c 1d 37 3e ee 79 54 3e
       -0.35033092 -0.06914141 0.17882174 0.20749637
000180 2e 91 3b be 95 06 21 3c 04 be 50 3c d9 81 e1 be
       -0.183171 0.009828229 0.012740616 -0.44044378
000190 e5 28 a2 3d 81 40 0d 3e c6 ff 94 3e 90 0b 02 be
       0.07917956 0.13794138 0.2910139 -0.12699723
0001a0 25 09 f3 bd a3 e1 d1 3e 3e ec 7a 3e a2 6e 5e 3e
       -0.118669786 0.4099246 0.24504182 0.2172189
0001b0 b0 e0 ad 3e 88 c0 8b 3e 97 e1 d5 3d e2 3f 31 bd
       0.33960485 0.27295327 0.104434185 -0.043273814
0001c0 b1 1e c3 bc 8a 81 75 bc 62 f6 b8 bd 99 dc fb 3d
       -0.023818346 -0.014984498 -0.09031369 0.12297935
0001d0 04 8a 9c bd d5 af d5 3d 6e 54 14 bc c1 e6 00 3b
       -0.07643512 0.10433928 -0.009053333 0.001966879
0001e0 c3 12 56 bd 85 21 b5 3e 30 13 1e bc 03 17 03 3e
       -0.052263986 0.35377136 -0.009648129 0.12801747
0001f0 b2 cd 37 be f1 2d 72 3e 32 a9 a0 3e 82 00 63 3c
       -0.1794956 0.23650338 0.31379086 0.013855102
000200 8b a2 0a 3e d4 5f ac 3c eb 57 88 bd cc c5 d7 3d
       0.13538568 0.021041788 -0.06657394 0.10535774
000210 96 3c f2 3e 9e 1c 2f 3e fb bd b8 bd 31 f2 d8 3d
       0.47311848 0.1710076 -0.09020611 0.10593069
000220 62 f9 19 3e eb d0 81 3e d5 0f 6e 3e 0f b6 cb bd
       0.15036538 0.25354704 0.23248227 -0.09946834
000230 9a b6 37 be 05 e4 ad 3e e5 fc 7e 3e d8 ce 5e 3e
       -0.1794075 0.33963028 0.24901159 0.21758592
000240 3d 64 56 be a0 21 c5 bd 38 a6 09 bd 5d d0 19 be
       -0.20936675 -0.09625554 -0.033605784 -0.1502089
000250 83 9f 2d be 26 92 fc 3d a2 f0 39 bd ab db 51 3e
       -0.1695538 0.12332563 -0.0453955 0.20493953
000260 79 39 3f 3d 79 92 94 be 83 f9 a2 3e 6f ae 67 3e
       0.04668567 -0.29018 0.31830987 0.22625135
000270 f3 9a 3e bd 9e 6a 88 be 5b fa 6e be 13 2f c8 3d
       -0.04653449 -0.26643842 -0.2333769 0.09774604
000280 d1 c9 08 be 95 a3 13 bd d1 24 6d 3e d3 b6 3c 3b
       -0.13358237 -0.036044676 0.23158576 0.0028795495
000290 5d 14 46 be 02 da 79 ba 2e 60 27 be 5d 97 ac 3d
       -0.19343705 -0.0009531082 -0.16345283 0.08427308
0002a0 e2 b9 dc bd 36 85 b5 3c d8 68 8f bb 37 82 0f 3d
       -0.10777642 0.022158246 -0.004376512 0.035036292
0002b0 93 2d d5 3e fd ba 9f be 1a 99 1f be 19 8a 59 bd
       0.41636333 -0.31197348 -0.15585747 -0.053110216
0002c0 76 10 32 be 74 a9 51 3d d7 cb 20 3a e9 32 7a bd
       -0.17389092 0.051186994 0.000613389 -0.061083708
0002d0 20 14 dd bd e9 c2 d0 3d 45 76 9f be 0e 43 23 3d
       -0.10794854 0.10193426 -0.3114492 0.03985887
0002e0 74 73 86 bd 2b 1e 71 3e e0 f2 78 bd 5b 45 c8 bd
       -0.0656499 0.23546664 -0.0607785 -0.097788535
0002f0 91 5c 15 3e 9c aa a8 3d 3e 43 f5 bd 8d d4 54 be
       0.14586093 0.08235666 -0.11975716 -0.20784207
000300 02 a2 e2 3e 13 ff 25 be 36 f9 11 3e 4f 41 1a 3f
       0.44264227 -0.16210584 0.14255223 0.60255903
000310 11 ab 98 bc 60 7d 61 bc 61 e6 49 bd 7b 09 2f bd
       -0.018636258 -0.013762802 -0.049291972 -0.04273365
000320 fa 30 8e 3e 18 81 d8 3d 7e bf cb 3d 78 3c b4 bc
       0.2777174 0.10571498 0.099486336 -0.02200149
000330 c1 c2 79 bd f6 96 a7 bd 4c 33 cc be b1 17 db 3e
       -0.060976747 -0.081830904 -0.39882886 0.42791513
000340 1e 06 99 3d 50 7f f6 3d 45 c1 61 3e 42 87 af bd
       0.0747187 0.12036002 0.22046383 -0.0857072
000350 7c 5e ea 3a 85 d2 7e 3e f5 b6 46 bc b1 5a 82 3d
       0.0017880942 0.24884994 -0.012128581 0.06364954
000360 91 8c b5 bd 5b 80 9a bc 00 02 29 3d 76 9a 8d 3e
       -0.088647015 -0.018860033 0.041261673 0.27656907
000370 75 f6 2b be 04 70 ae bd d9 1a 1f be 4e c1 0f be
       -0.16793235 -0.08517459 -0.15537585 -0.14038584
000380 eb b3 48 3e b0 36 d8 bb ef a2 c4 3d d4 50 95 bc
       0.19599883 -0.006598316 0.096013896 -0.018227018
000390 16 bb 8a bd e2 47 6f 3e a1 a8 47 3e 15 23 35 3e
       -0.06773965 0.23367265 0.1949792 0.17689164
0003a0 20 49 82 bd 73 d3 fe 3a 5b 89 1b bd fc 86 04 3e
       -0.06361604 0.0019441679 -0.03797279 0.12942117
0003b0 a8 e9 48 be da 14 4c 3d 5b a2 c7 be 65 38 38 be
       -0.19620383 0.049824573 -0.38991055 -0.17990263
0003c0 1f 65 73 3d f8 f9 06 3e 18 7d 53 be 7f a5 41 3d
       0.05942261 0.13181293 -0.20653188 0.04727697
0003d0 5b af 82 3e c9 3c 41 bd ed 22 3f 3e 8e f1 f9 bd
       0.2552441 -0.04717711 0.18665667 -0.12204276
0003e0 91 3b 14 bd 46 8d a2 be 72 d4 27 3e 35 79 74 3e
       -0.03618962 -0.31748408 0.16389635 0.23874362
0003f0 ec a0 f3 bd 2f ee 2f bc ef 68 d4 bc 26 ed ea bd
       -0.11895928 -0.01073794 -0.025928942 -0.11471014

bias f4 [12]
000000 c4 e3 88 3b b3 ae ba 3c 92 f6 a2 38 ec 6f 2a 3d
       0.0041775424 0.022788381 7.770689e-05 0.041610643
000010 97 75 dc 3b 18 68 d7 3c 5c b9 b1 bc fb f5 0a 3d
       0.006727885 0.026294753 -0.021694832 0.03392599
000020 0b bd 4d 3c db d9 fd bc 50 80 49 bd 44 59 01 bc
       0.012557278 -0.03098767 -0.049194634 -0.007894818

weight f4 [12, 12, 3, 3]
000000 bc 20 44 bd 36 72 92 3c 61 27 a9 3e be 43 e6 3d
       -0.04788278 0.017876726 0.33037856 0.112433895
000010 6d 6d 4f be 40 c9 93 be a3 ec 2b bd 29 7d 60 bd
       -0.20256586 -0.2886448 -0.04197372 -0.054806862
000020 47 d6 85 bd 3b dc 8d 3e 65 45 d9 3d a1 10 aa be
       -0.06535011 0.27707085 0.10608939 -0.33215812
000030 c8 24 2c 3d 5f 8a 27 3d 96 b4 f3 3c de 21 1b 3e
       0.042027265 0.040903445 0.029749196 0.15149638
000040 e2 aa 11 be 89 74 a4 3d b3 8e b1 bd 44 02 72 be
       -0.14225343 0.0803004 -0.08669796 -0.23633677
000050 42 0e b2 be d6 08 44 bc f1 78 ed be e3 0e 42 3e
       -0.34776503 -0.011964997 -0.46381333 0.18950991
000060 dd 1d dd bc ab d4 85 3d 09 38 e2 be 8d f0 1b 3d
       -0.026991779 0.06534704 -0.44183376 0.038071204
000070 5b 90 b5 bd ad 56 d4 3e 3a be f5 3d 19 18 37 3d
       -0.08865424 0.41472378 0.119991735 0.044700716
000080 1f 7d 6e bd 73 79 a8 be 62 bd 62 3c 80 e0 d2 3c
       -0.058224794 -0.32905158 0.013839098 0.025741816
000090 9e 37 3b 3e f1 4d d2 bd de 06 91 3e fd 93 00 bc
       0.18282935 -0.102687724 0.28325552 -0.007847783
0000a0 43 17 5a 3d 5d 9b d8 3d e7 2a 5d bd d1 5f e7 3d
       0.05324484 0.10576508 -0.053995993 0.112975724
0000b0 e8 ac 2a 3e 52 13 76 be e9 ad 0f 3a 21 ac 3b be
       0.16667521 -0.24030808 0.0005480932 -0.1832738
0000c0 ad 00 a1 3e c2 6b ba bd ab 18 e4 3d 0e 7d 5c be
       0.31445828 -0.091025844 0.111375175 -0.2153208
0000d0 f9 fb a7 bd 28 38 d0 3d aa b5 7b be c8 46 40 bd
       -0.08202357 0.10166961 -0.24581018 -0.046942502
0000e0 8d be c0 3d 45 d6 be 3c 47 78 b5 be be 42 b8 3e
       0.09411345 0.023295531 -0.35443327 0.3598842
0000f0 20 19 13 be d3 25 01 3f 75 2e 2b be 9a 91 9f bc
       -0.14365053 0.5044834 -0.1671694 -0.019478608
000100 47 f6 1a be f5 f7 60 be a6 57 fb bc 63 83 91 3e
       -0.1513301 -0.21969588 -0.030681442 0.28420553
000110 83 e9 62 3d d4 28 4c 3e 95 96 06 3d 98 ef 4f be
       0.055398475 0.1993745 0.03285845 -0.20306242
000120 d1 ef 2f 3e dc 2a fc be b6 00 ab 3c a8 a3 e1 3d
       0.17181326 -0.4925145 0.020874362 0.11017543
000130 2f e1 59 3e f6 68 1b bd bd 3e d9 3d 18 38 f4 bd
       0.21277307 -0.037941895 0.106076695 -0.119247615
000140 ee 1c 26 3e 11 6b da 3c 4f ae 19 3e b7 cb 95 be
       0.16221973 0.026662381 0.150079 -0.29256985
000150 c4 5f 00 3f 5e f2 09 be 06 f6 40 3d 6d b3 c9 3e
       0.50146127 -0.13471362 0.047109626 0.39394704
000160 ae 3e 49 bd 44 f3 c8 bd b6 86 1d be 6d b9 e2 3c
       -0.04913204 -0.09812024 -0.1538342 0.027676309
000170 54 fe f3 3d 85 1a cb be 01 0c 07 3d 06 b7 2f 3e
       0.119137436 -0.3966867 0.032970432 0.17159662
000180 c1 b1 6c 3e 04 d0 5e 39 5b e0 a8 bd d9 b5 b1 be
       0.23114683 0.00021249062 -0.082459174 -0.3470905
000190 d7 8e 85 3e d9 5b b1 3c 74 6c 9a 3e b6 4a 18 3e
       0.2608554 0.021650242 0.30160868 0.1487225
0001a0 65 30 13 bd 62 15 9a bd bb dd d8 3d 85 30 a5 be
       -0.035934824 -0.0752361 0.10589167 -0.3226358
0001b0 a6 43 a1 be 19 7c 0b be f6 42 9d 3d b2 0c 03 bd
       -0.31496924 -0.13621558 0.076787874 -0.03199453
0001c0 34 7a 89 3e 44 16 46 be 7b 8e 70 3e 6c 3b 03 bd
       0.26851046 -0.19344431 0.23491852 -0.03203909
0001d0 09 59 d5 3c 4b 64 09 be 3b 47 56 be 9c 10 e5 3d
       0.026043432 -0.13417165 -0.2092561 0.111848086
0001e0 56 8d 88 be 81 5d e1 bd e2 04 98 be 2e 7b 2b 3e
       -0.2667033 -0.110041626 -0.29691225 0.16746208
0001f0 c1 92 8b 3b 8b 64 91 be f7 1d 4d 3e a2 b5 c0 bc
       0.004259438 -0.2839702 0.20030962 -0.02352411
000200 70 3d 00 3e d3 71 c6 3c 32 52 6d 3e e4 62 c2 3e
       0.12523437 0.024224197 0.23175886 0.37966073
000210 a7 61 09 bf 77 2b 5b 3e 21 c8 f6 bd 6b 01 cf be
       -0.5366463 0.214033 -0.1204989 -0.4043077
000220 04 8f 56 be 5f 9f bd 3d 01 22 0a be 99 4d 17 3e
       -0.20952994 0.09258913 -0.13489534 0.14775695
000230 42 f0 03 3e 1c f5 85 bc 6b 3b 0b be b3 94 b7 3e
       0.1288462 -0.016352229 -0.13596885 0.35855636
000240 17 9e 5f be d9 07 a9 3d 0d 33 00 be 4f e0 3d bd
       -0.2183765 0.0825345 -0.12519474 -0.046356495
000250 48 e4 25 be 6b ef 1c 3e c8 14 8c 3e cc a0 8d bd
       -0.16200364 0.15325706 0.27359605 -0.06915435
000260 ba 46 b7 3d bd b0 4d bd 97 f6 63 be 17 b1 9b 3d
       0.08949037 -0.05021738 -0.22262035 0.076021366
000270 18 b2 8b 3d d4 9f 2a be ab 63 19 3e 51 03 93 3c
       0.06821078 -0.16662532 0.14979427 0.017945917
000280 7e 17 ca 3d 04 2a 1a 3e e3 ee 92 3e 60 02 2b 3e
       0.09867762 0.1505509 0.2869788 0.16700125
000290 50 60 d3 3e 95 64 0a bd f5 34 1e be 96 be 06 3e
       0.41284418 -0.03378733 -0.15449889 0.1315864
0002a0 6d ee 9d bd 5c df 09 be 9e 99 28 bc 27 45 32 3e
       -0.07711492 -0.13464111 -0.010290531 0.17409192
0002b0 e6 50 c2 3d 4e 18 b6 be 11 c6 cb 3a 30 ae 85 3e
       0.094880864 -0.35565418 0.0015546699 0.26109457
0002c0 65 88 c2 3d e1 64 b5 3e f3 f0 96 3b 38 29 66 be
       0.094986714 0.35428527 0.00460636 -0.22476661
0002d0 ac b3 91 be 10 4d 29 be b0 9b 34 be b9 e3 41 be
       -0.2845739 -0.16533303 -0.17637515 -0.18934526
0002e0 bb 29 99 3e f3 45 db bd bd 16 37 bd 53 3d 18 3e
       0.2991465 -0.10706701 -0.04469942 0.14867143
0002f0 82 bb 8c be 7c a4 c5 3e 65 19 8e be 2f 72 69 be
       -0.27486807 0.38602054 -0.2775375 -0.22797464
000300 18 02 9d 3e ac 7b 21 bd 75 03 2b be 72 82 e2 3d
       0.3066566 -0.039424583 -0.16700538 0.11060037
000310 22 ca f3 3e 0f 8b ae bd 49 48 99 bd 9e 16 83 3c
       0.47615153 -0.08522617 -0.074844904 0.016001996
000320 71 fd 44 3e c2 13 40 be 44 68 5b ba fa e8 0c 3e
       0.19237305 -0.18757537 -0.0008369724 0.13760749
000330 b3 51 34 3e 93 35 a2 be 43 c1 13 3d 8b 10 83 3c
       0.17609291 -0.316815 0.03607298 0.0159991
000340 3a ff 6a 3e 23 bc 8e be dc a4 26 3e 3e f9 40 3e
       0.22948924 -0.27877912 0.16273826 0.18845078
000350 cd c8 75 3d 0b 5f 58 be d7 c1 02 be ac e3 d3 bd
       0.06000595 -0.21130006 -0.12769257 -0.10346159
000360 4a fd 09 3e 4f d2 26 3e 40 92 ed be 69 36 f6 bd
       0.13475528 0.16291164 -0.46400642 -0.12022097
000370 93 64 14 be 1f 7f 30 be 06 44 5d 3e 77 e9 8e be
       -0.14491491 -0.17235993 0.2160798 -0.27912495
000380 80 be 55 be 8a 62 88 be 87 be 19 3e 27 c6 b1 be
       -0.20873451 -0.2663768 0.15014087 -0.3472149
000390 3e d8 0d 3f 46 a0 23 be fd 1d 06 be be ad a2 bd
       0.55408084 -0.15979108 -0.13097377 -0.07943295
0003a0 a9 2d 01 be 18 cc 1a 3e 82 89 01 bc 18 d6 ce 3e
       -0.12615074 0.15116918 -0.00790632 0.40397716
0003b0 e6 9d a9 3e 83 f7 c9 be 79 8c 89 3e 97 25 94 be
       0.3312828 -0.3944665 0.26864985 -0.2893493
0003c0 46 01 6f be dc 7a b4 3e 8a 45 3e be 8e 16 a4 3d
       -0.2334033 0.35249984 -0.18581215 0.080121145
0003d0 e7 58 9e 3e 47 59 e1 bd 0c 06 8b bd 17 f0 01 be
       0.30927202 -0.110033564 -0.06788263 -0.12689243
0003e0 9d 4b a2 bd d5 bd 49 be 66 c3 35 bd df 28 bc 3e
       -0.07924578 -0.19701321 -0.0443758 0.36749932
0003f0 e7 22 46 3e a3 fc 3c 3d 8c 28 4c 3d fa 61 b3 3d
       0.19349252 0.04613937 0.049843356 0.08758922

bias f4 [12]
000000 90 49 14 3d 82 4e 14 3b 83 f8 54 bb 0d ea 0c 3d
       0.036202967 0.0022629802 -0.0032496757 0.034402896
000010 0b c0 e6 bb f9 d5 04 bd 60 ec a2 bb eb 57 b8 bc
       -0.0070419363 -0.032430623 -0.0049720258 -0.02250286
000020 09 d7 2c bd 78 e2 8b bc 7b 13 78 bc c0 06 4a bb
       -0.04219726 -0.017075762 -0.015141363 -0.0030826777

weight f4 [12, 12, 3, 3]
000000 b1 eb 87 bc 97 a7 d1 bd 00 4b fd bc f9 35 96 bd
       -0.016591879 -0.10237043 -0.030919552 -0.07334513
000010 ad c8 37 3c 1a 56 4c 3e 42 ad a2 3c 63 ca 67 3d
       0.011217278 0.1995472 0.019858006 0.056589495
000020 8e 2f 69 3d 37 a6 62 bd b8 7a cb 3e aa cf 94 bd
       0.056930117 -0.055334296 0.39742064 -0.07266171
000030 31 a6 e9 be 9d 62 c4 3e 9c 88 e4 3d f1 39 08 3f
       -0.45634606 0.38356486 0.11158869 0.5321341
000040 70 0b 91 3d 20 b5 6e 3e e7 a2 01 3e 59 be bc bd
       0.0708226 0.23311281 0.12659799 -0.092159934
000050 5c 58 99 3e e8 41 72 3e 83 84 19 3e 07 08 63 bc
       0.29950225 0.23657954 0.14991955 -0.013856894
000060 c9 1c 60 bc 2a 8c b9 3d 62 4e b0 bd 49 55 4b 3d
       -0.013678738 0.09059937 -0.086087 0.04964188
000070 94 ca 5b be 03 5b cd be 60 c8 0a 3e a5 74 c6 bc
       -0.21463996 -0.401085 0.13553 -0.024225542
000080 0d 8c da 3d 55 b7 80 3e eb 78 84 bd a0 91 5e be
       0.10671244 0.2513987 -0.06468376 -0.21735239
000090 ae 35 78 be 28 df ea 3c dd 70 26 3e 21 e2 3f 3d
       -0.24239227 0.028670862 0.16253991 0.046846513
0000a0 05 77 f8 3d 69 47 83 bc 75 03 bd 3d 18 f2 37 be
       0.12132076 -0.016025262 0.09229175 -0.17963445
0000b0 b6 aa 8b bd 97 ca 99 bd e1 e6 ba bd 32 4f 47 bd
       -0.0681967 -0.07509344 -0.09126068 -0.04865951
0000c0 3c 04 41 be 9d d9 7b 3d fd b8 ac 3d f2 48 fc 3d
       -0.18849272 0.06148683 0.08433721 0.12318601
0000d0 0e e8 08 be 50 17 1e bf c5 7b a0 3e 22 52 96 3c
       -0.13369772 -0.6175432 0.3134443 0.01834971
0000e0 30 2d bc bd bf f8 9f bc 92 11 12 be fc 26 93 3e
       -0.09188306 -0.019527791 -0.14264515 0.2874068
0000f0 3c 61 20 be 40 60 64 be 77 2a 30 be f8 53 8a 3e
       -0.15662092 -0.22302341 -0.17203699 0.27017188
000100 e6 26 a5 be f8 50 0d bd e0 f1 91 3e 68 a5 ed 3d
       -0.3225624 -0.034501046 0.28504848 0.11603814
000110 60 77 96 be b7 f9 ea 3c f7 fd 60 3e 16 68 c1 3e
       -0.2938795 0.028683526 0.2197188 0.37774724
000120 c0 80 b0 3e 67 02 2c 3e 1c 63 3a bd f5 07 12 3e
       0.34473228 0.16797791 -0.045504674 0.14260848
000130 b9 c2 be 3e 83 92 9b be ec f5 77 bd ad f5 30 be
       0.37257937 -0.30385217 -0.060537264 -0.17281218
000140 8c 5a b5 bd 66 3d 0b 3d 76 fb 64 3e bf 0d 46 be
       -0.08855161 0.0339941 0.2236155 -0.19341181
000150 a1 77 75 bd 7d 0c 24 bd a5 40 9e be 10 b7 58 3d
       -0.05992854 -0.040050972 -0.30908695 0.052908957
000160 42 35 12 be fa 1f 8f 3e 6b 8e 43 be cf 55 a7 bd
       -0.14278129 0.27954084 -0.19097297 -0.081706636
000170 0b 6b 5d be 99 aa c5 3d 73 4b 5c 3e ae fc ac be
       -0.21622865 0.096516795 0.21513157 -0.3378653
000180 62 35 07 be 30 b3 ec bd d6 60 d4 3e 1c ea d6 3c
       -0.13203958 -0.11557615 0.4148013 0.026234679
000190 f9 89 c1 be a6 4f 58 3e 67 17 29 bd 09 71 ae 3e
       -0.37800577 0.21124133 -0.041282084 0.34070614
0001a0 73 e8 15 3e 87 87 34 3d 0c 26 5c 3c 5a 2b 09 be
       0.14639454 0.04407456 0.013436805 -0.13395444
0001b0 75 a3 8e 3b 60 81 23 be 45 5f 8e 3e cb c2 5f 3c
       0.0043529817 -0.15967321 0.2780706 0.013657282
0001c0 5d 6b e0 3d 72 10 b1 bd d4 65 5b 3e 34 a8 7e 3e
       0.10957978 -0.08645715 0.21425563 0.24868852
0001d0 55 ec 84 3e 08 98 8c 3e 99 a7 e1 3c 51 bb 16 3d
       0.25961557 0.2745974 0.027545737 0.036799733
0001e0 7d 24 b9 be 78 76 c5 3c 35 31 07 3d 98 2b af 3d
       -0.3616065 0.024104342 0.03300591 0.08553237
0001f0 a5 9e 3a 3e 3a c9 01 be a7 fe 89 3c 45 fb a2 bd
       0.1822458 -0.12674418 0.01684506 -0.07958082
000200 99 02 35 3e 9b b1 2e bd bd 03 18 3e 8b 52 a7 3d
       0.17676772 -0.042649847 0.14845176 0.08170041
000210 e4 d2 b2 bd e9 04 43 3e f5 2f d0 3e 0a c8 c4 3e
       -0.087316304 0.19044842 0.40661588 0.38433868
000220 26 b6 10 bd 29 28 46 3e 11 96 09 be ec 65 cb 3d
       -0.03532996 0.19351257 -0.13436152 0.099315494
000230 b5 26 82 3e de 72 e0 3e 67 98 86 be 2b 15 72 bd
       0.25420156 0.43837637 -0.2628815 -0.05910222
000240 24 b0 5c be 37 7e 2f 3e 2b 7a 9d be 3e 69 02 bd
       -0.21551567 0.17137991 -0.3075727 -0.031838648
000250 5b 05 ee 3d 31 8c d3 3e 11 12 73 be 02 f4 2d be
       0.11622115 0.41317895 -0.2373736 -0.16987613
000260 14 56 24 bd 24 e1 e8 3c 52 b0 2d be f5 b9 f8 3d
       -0.040121153 0.028427668 -0.16961792 0.121448435
000270 1e b5 43 bd b0 0e 81 be 87 61 8a be b0 6c 4d 3e
       -0.04778015 -0.25206518 -0.27027532 0.20060992
000280 20 83 4b 3e ba ee 78 3e ca 2e 23 be 48 df 10 bd
       0.19874239 0.24309817 -0.15935817 -0.035369188
000290 3b db bb 3d 83 cf 4a 3c a2 53 a2 bd d6 0d 5b be
       0.09172674 0.012378576 -0.07926108 -0.21391997
0002a0 d2 75 e0 3d 88 1e ca 3e 2b c3 1e 3c 6e 2b 90 be
       0.109599724 0.39476418 0.009690086 -0.28158134
0002b0 9a 88 89 3e fc d6 28 be a3 f3 56 3d 41 35 e5 3e
       0.2686203 -0.1648826 0.052478444 0.44767192
0002c0 54 3c 35 be 5e d3 59 be d0 77 b5 3e 18 24 bc 3d
       -0.17698795 -0.21272036 0.35442972 0.09186572
0002d0 9d 44 a0 be 81 47 28 be 35 20 bd bc 5f 50 c0 3e
       -0.31302348 -0.16433527 -0.023086647 0.37561318
0002e0 f3 bf 2f 3e fe c4 00 bd 70 8c e1 3c 31 63 c6 3d
       0.17163067 -0.031437866 0.027532786 0.09686888
0002f0 30 58 da 3c da bd 31 3d 1c d8 3a 3e 39 2b 8f bd
       0.02665338 0.043393947 0.18246502 -0.06990666
000300 ed a8 ed 3d cb c4 ce 3d 4d 68 8d bd da 1d c0 3d
       0.11604486 0.10096129 -0.069046594 0.09380694
000310 79 5d 09 be da ec 39 3e 60 b3 49 3e 7c b0 6f 3d
       -0.13414563 0.18156758 0.19697332 0.058517918
000320 f1 d7 79 3e b6 0d 1a 3e f0 8d ba be 9b 56 15 be
       0.24398781 0.15044293 -0.36436415 -0.14583819
000330 f7 fe ae 3e b2 8d f6 be f8 2a 22 3e 9a b4 01 bf
       0.34178898 -0.4815498 0.15836704 -0.506662
000340 f4 bd 6c 3d b5 3c 06 bd b8 ab 2b 3e b8 4e 1a be
       0.05779834 -0.03277274 0.16764724 -0.15069091
000350 2d 9d 25 be d7 b4 8e 3e bf 3e 58 3e e8 4c 62 3e
       -0.16173239 0.27872345 0.21117686 0.2209965
000360 58 31 c8 3e 36 4a 1a be 93 ec 73 be 55 27 8b bc
       0.39100146 -0.15067372 -0.23820715 -0.016986528
000370 ff 3c 95 be 4c 3b 77 3e 45 e2 d3 3e 54 2a 10 3d
       -0.291481 0.24143714 0.41383567 0.035196617
000380 90 bb e5 be 39 ac db 3e 68 d9 61 be 3c 12 b9 bd
       -0.4486966 0.42904833 -0.2205559 -0.09036681
000390 40 93 bd 3e fe 7f 31 3d 87 36 a7 3e cf d1 30 3c
       0.37026405 0.043334953 0.3265879 0.01079221
0003a0 bb 95 87 bd 79 9d 0c 3c 1f ab 37 3e e5 77 03 3e
       -0.06620356 0.008582466 0.17936371 0.12838705
0003b0 82 d2 f6 bd 41 27 de bd 56 76 be 3d 5a af b4 3d
       -0.1205187 -0.10847331 0.092999145 0.08822508
0003c0 b4 de 14 be fa 43 14 be 35 56 2c be ab 0c 9c be
       -0.1453808 -0.14479056 -0.1682976 -0.30478415
0003d0 df 7c ae bd 1a 89 93 bd 42 43 4f 3e 88 c1 14 be
       -0.08519911 -0.072038844 0.202405 -0.14526951
0003e0 cd 35 15 3e 0f 40 3a 3e 79 44 c2 3e 2f 0f 1c 3e
       0.14571305 0.18188499 0.37942865 0.15240167
0003f0 b2 1b 62 be 63 e9 6f ba 6c 4f d1 bc 7a 2c bd 3e
       -0.22080877 -0.0009151904 -0.025550567 0.36947995

bias f4 [12]
000000 7b 51 df 3c 26 8a 2f 3d d4 0d 4b 3c ff cb 13 3c
       0.027260533 0.042856358 0.012393434 0.009020804
000010 85 60 66 3c d3 1c 8b 3d 16 33 fa bc 5e 7d 84 b9
       0.014061098 0.06792607 -0.030541938 -0.00025270408
000020 fa 1e 6b bd 9b d4 ef 39 39 b4 17 ba f4 34 d6 ba
       -0.05740259 0.00045744036 -0.0005787048 -0.0016342686

weight f4 [12, 12, 3, 3]
000000 32 da dd 3d 39 75 68 be 03 c3 51 be da 40 91 3e
       0.10832633 -0.22700967 -0.20484547 0.2836979
000010 3d ac 0f 3c f0 23 e0 3d c8 fa 27 be 18 24 c1 bd
       0.008769092 0.109443545 -0.16404259 -0.094307125
000020 b6 9c bc bd 43 21 f1 bd 25 bc 04 3f 0d 98 08 3d
       -0.09209578 -0.11773922 0.51849586 0.033348132
000030 5c d2 13 bb 37 8c 34 bc af 31 89 be 2a f7 f7 bd
       -0.0022555804 -0.011019758 -0.26795718 -0.1210769
000040 ed 3f ea 3c 3b 2e 6b 3e 16 1d d5 bb 14 a3 f0 3d
       0.028594935 0.22966854 -0.0065037115 0.11749855
000050 03 6f 1f 3e a9 32 4f be 18 e2 fe bd f0 61 b0 be
       0.15569691 -0.20234169 -0.12445468 -0.3444972
000060 1f 73 c4 3d b9 fc ae bd 67 3a a6 bb ca ff 15 3e
       0.0959227 -0.08544297 -0.00507288 0.14648357
000070 79 9a 90 bd 0b a1 8f 3c 08 ed 26 bc f9 bf f1 bd
       -0.07060713 0.017532846 -0.010188349 -0.11804194
000080 d2 d1 d4 bd e8 ae 75 3e 94 84 78 be 23 7c ab bd
       -0.103915825 0.23992503 -0.24269325 -0.083732866
000090 b2 db 2a be ff ac 15 3d 8d 58 95 be f2 e7 a6 3d
       -0.1668537 0.036541935 -0.2916912 0.08149709
0000a0 cb 24 8d bd ac ee 4a be d1 10 44 3e 4d cb 71 be
       -0.06891783 -0.19817609 0.1914704 -0.2361271
0000b0 ce 81 ee bd 1c 87 30 3e c8 0a 8e 3e ae 4a 11 be
       -0.11645852 0.1723904 0.277426 -0.14188644
0000c0 a9 83 23 bd 00 00 b8 3d b5 3f 91 bb 0c fb fa 3a
       -0.039920483 0.08984375 -0.0044326433 0.0019148304
0000d0 55 ed c8 bd a5 4e 9d be e4 38 94 be 6d 66 9a bd
       -0.098108925 -0.30724064 -0.28949654 -0.075390674
0000e0 06 d3 fd 3d c7 f4 63 be 90 f6 76 3e 57 9e f1 bd
       0.12393765 -0.22261344 0.24117494 -0.11797779
0000f0 50 fa 9e bd ce 8f db bc 08 73 4e 3e d6 46 96 3e
       -0.07762587 -0.02680197 0.20161068 0.2935092
000100 e7 21 52 3e 8f 39 22 be f3 d5 87 be 2d 40 14 be
       0.20520745 -0.1584227 -0.26530418 -0.14477606
000110 36 60 32 be f0 fe 27 be 61 97 65 be 45 de 94 bd
       -0.17419514 -0.16405845 -0.22421028 -0.07268957
000120 c8 85 92 be c8 c3 9b bc 0f 9b 3f 3d 3a 11 33 3e
       -0.28617692 -0.019014254 0.046778735 0.1748704
000130 e5 bf 4c 3e 3d f2 8c be d5 aa 34 be 8d 5d 35 be
       0.19995077 -0.27528563 -0.17643292 -0.17711468
000140 1e e3 45 3e 35 45 90 3d fe a3 32 3e a3 89 36 be
       0.1932492 0.0704445 0.1744537 -0.17825942
000150 bc 80 e0 3e 8f a8 98 3c 4b 17 c7 bd 5c 8f b5 3c
       0.43848217 0.018635063 -0.0972124 0.022163086
000160 1a ab b4 3d fc dc 22 3e 48 7b 25 be cf f3 81 bd
       0.088216975 0.15904611 -0.1616031 -0.06345331
000170 13 27 0d 3e 7a fa 3a be 55 0f cd 3d f2 55 f0 bd
       0.13784437 -0.18259612 0.1001269 -0.11735143
000180 b8 b0 b8 bd 3f e9 76 bd b8 ce ac bc 2c 63 f8 bd
       -0.090180814 -0.060281035 -0.021094665 -0.121282905
000190 fa 40 89 3e 72 8d c7 3d 91 00 e2 be e6 d8 b7 3d
       0.26807386 0.097437754 -0.44141057 0.08976917
0001a0 ee 57 93 3e 05 55 04 bb b1 4d 44 be 9b 38 71 3c
       0.28778023 -0.0020192277 -0.19170262 0.014722968
0001b0 58 7d 0a be 4f 6b e6 be 2a 6f c1 3d 7a ad 4b 3d
       -0.13524377 -0.45003745 0.09445031 0.049725987
0001c0 57 d8 6d bd be ad 59 3e f7 cd dc 3d d6 d8 46 be
       -0.058067646 0.21257684 0.10781472 -0.19418654
0001d0 63 bb 18 3d ce 61 29 be 97 08 75 be cd 21 93 3c
       0.03728808 -0.16541216 -0.23929058 0.017960453
0001e0 8f eb 0f 3d e7 38 f8 3d 67 b3 07 bd fc 3f 39 be
       0.035136756 0.12120228 -0.033130076 -0.18090814
0001f0 e2 ae 30 3e 60 99 da 3d 59 80 b0 bd 40 96 37 3d
       0.17254212 0.10673785 -0.086182304 0.044821024
000200 37 51 94 3d 9a f1 ce 3d 9f 48 8d be 7f 56 d0 3d
       0.07242053 0.101046756 -0.27594468 0.10172748
000210 7a 8b a5 bd de 04 99 3e 67 fc 8a bd f3 f0 9c bd
       -0.08083244 0.29886526 -0.06786423 -0.07663145
000220 ff 19 d3 3c 48 42 19 3e c2 ec 26 be bf f0 07 3e
       0.025769232 0.1496669 -0.16301253 0.13275431
000230 cc 1c 08 be ec 12 1d 3e 9b ae d0 bd 2b 6d e6 bd
       -0.13292235 0.1533925 -0.10189553 -0.11251291
000240 0a f6 9d 3d 5c e3 2b be 25 94 0a be e0 18 66 3c
       0.07712944 -0.1678595 -0.13533075 0.014044017
000250 2a a6 37 be da 9a 21 be 42 e1 0b 3e 48 e7 3a bd
       -0.1793448 -0.15781727 0.13660148 -0.045630723
000260 b2 db 3c 3e fc 7a ea 3d 4e bf c8 3d 4d 19 42 be
       0.18443182 0.11449239 0.098021135 -0.18954964
000270 ce ff ec bc 70 46 87 be f5 21 c5 3d ef 8f 5b be
       -0.02893057 -0.26420927 0.096256174 -0.21441625
000280 4e 12 5a be 96 14 b8 bd 85 25 99 3e 2e 68 06 be
       -0.21296045 -0.089883015 0.29911438 -0.13125679
000290 6a d3 08 be cd 95 11 be f4 b6 a2 3d 1d 66 1f 3e
       -0.13361898 -0.142173 0.07945052 0.15566297
0002a0 dc ea ab 3b d2 08 2e bd 85 24 10 bd 8b 98 a0 be
       0.0052465033 -0.04248888 -0.035191078 -0.3136638
0002b0 8d e4 24 be 7e bc 2f be c0 b0 68 3d 97 92 16 be
       -0.1610281 -0.17161748 0.056809187 -0.14704357
0002c0 49 cf 64 be 11 c0 01 be 0a 4e bb 3d bd 6e 6b 3d
       -0.22344698 -0.12670924 0.09145744 0.057478655
0002d0 70 27 05 be c7 b2 b1 bd 07 c7 be 3d 46 f5 83 3e
       -0.13003325 -0.08676677 0.09315305 0.25773066
0002e0 2e 95 59 3e 4d d8 15 3e 5a 56 c8 3d 5a 4c ba bd
       0.21248314 0.14633293 0.09782095 -0.09096594
0002f0 29 6c 41 bd b8 28 e7 bc d4 bc 14 bc ad d3 90 3e
       -0.04722229 -0.028217658 -0.009078223 0.28286496
000300 b6 98 76 be 58 bb ab 3d 07 18 a7 3d 89 31 08 be
       -0.24081692 0.08385342 0.0815888 -0.13300146
000310 22 16 59 be 18 f1 ba be 38 89 b3 bd eb e3 52 bd
       -0.21199849 -0.36512065 -0.08766407 -0.05148689
000320 21 1e 15 3d 19 53 ea 3e 61 28 ac 3d c3 13 2c 3e
       0.036405686 0.45766523 0.08406139 0.16804413
000330 31 17 aa be a0 e1 bd 3e 79 07 29 bc 34 d6 f5 3d
       -0.3322082 0.370862 -0.010316723 0.12003747
000340 17 09 31 3e 4e c8 37 bd d6 23 58 3e 1c 92 1c 3e
       0.17288624 -0.04486876 0.2110742 0.15290111
000350 d7 e6 33 be 60 45 bc bd 6d c1 a7 3c a9 73 cb 3d
       -0.17568527 -0.0919292 0.020477975 0.0993417
000360 fe f4 ef 3d 3c ac a4 bc b3 30 09 bd 75 80 d8 be
       0.117166504 -0.020101659 -0.03349371 -0.42285505
000370 6d 01 a4 bc 4f 58 8c be b1 37 28 be 02 36 5a be
       -0.020020211 -0.27411124 -0.16427495 -0.21309665
000380 f9 b1 a3 3d 7f 52 46 3e 38 fe f6 bc 20 f7 85 3e
       0.0799293 0.19367407 -0.030150518 0.26165104
000390 c8 84 d3 3e a9 98 31 3d bb 2f 65 bd ed be e5 3d
       0.41312242 0.04335848 -0.055953722 0.11218057
0003a0 ff 6a be bd 5e af 66 3e 56 04 4c be 8a 3d 05 be
       -0.09297752 0.22527835 -0.19923529 -0.13011757
0003b0 03 0d 67 3d 1c 9b 5b be a2 87 9b 3d ca 71 4d bd
       0.056408893 -0.21445888 0.07594229 -0.050157346
0003c0 39 d0 a4 3c 59 19 c3 3d 23 5c de bc 45 01 bd bd
       0.02011882 0.09526319 -0.027143544 -0.09228758
0003d0 91 d0 7d 3d d0 15 15 bd 6b ad e6 bd 24 09 f8 bc
       0.061966483 -0.036397755 -0.112635456 -0.030277796
0003e0 4b c7 30 bd b7 12 01 be 08 65 61 3d d3 4b 93 bd
       -0.04315881 -0.12604795 0.05502799 -0.07192197
0003f0 68 e3 c0 bd f2 88 4c 3e 26 ae 41 3d bf 83 5e 3c
       -0.09418374 0.19974115 0.04728522 0.013581215

bias f4 [12]
000000 9b f0 6c bc cc 8c 0f 3d e0 44 a1 bc 82 f2 fa 3d
       -0.014461662 0.035046384 -0.019686162 0.12253286
000010 d2 04 70 3c 97 33 5e bd cf 54 d7 bc 5e 32 c8 bc
       0.014649587 -0.05424842 -0.026285557 -0.02443808
000020 a0 99 3c bd 68 0f 15 bc e8 56 9c bd 96 cf 1d bd
       -0.046044946 -0.009097911 -0.076337636 -0.038528048
